multi_agent/Multi_checkpoint_actor_30_20_target_2500_run3.pth (torch, 29087 bytes, 4 tensors)

fc1.weight f4 [256, 24]
0	0x3e0533e7	0.1300808
1	0x3f2d4f74	0.6769936
2	0xbe286ee4	-0.16448551
3	0x3cf4f70d	0.02990296
4	0x3c8c1edb	0.017104557
5	0xbe14518c	-0.14484233
6	0xbe2788e9	-0.16360821
7	0xbcac274d	-0.021014834
8	0x3e69a629	0.22817291
9	0x3f0344cd	0.51276857
10	0x3e4ca981	0.19986536
11	0xbe92c03b	-0.28662285
12	0x3e018fd7	0.12652527
13	0x3dcf0a6a	0.10109408
14	0x3e5b4ec9	0.21416773
15	0xbe9f1e9b	-0.31078038
16	0x3e10debe	0.1414747
17	0x3ef39be6	0.4757988
18	0x3cf82c71	0.030294629
19	0xbe318314	-0.17335159
20	0x3e7d4de0	0.24736738
21	0x3eda1b8d	0.42599145
22	0x3c2ca48c	0.010537278
23	0xbdeb0a3f	-0.11476564
24	0xbe963da6	-0.2934391
25	0x3ea27fb6	0.3173806
26	0x3ceb0071	0.028686734
27	0xbe83e18e	-0.25758022
28	0xbd4965b4	-0.049169257
29	0xbdf2573f	-0.11833047
30	0xbd96ccb6	-0.07363264
31	0xbe513d3d	-0.20433517
32	0xbeba21ad	-0.36353818
33	0x3e6c0a87	0.23050891
34	0x3d9d7e64	0.07690123
35	0xbe7bc6be	-0.24587533
36	0x3e0cc381	0.13746454
37	0xbdf8004e	-0.12109433
38	0x3e05843f	0.13038729
39	0xbe9c532b	-0.30532202
40	0xbe815bbc	-0.252653
41	0x3effa3d1	0.4992967
42	0x3d5bc48c	0.05365424
43	0xbdc83caa	-0.09777196
44	0x3ed2c04b	0.41162333
45	0xbe63ffe9	-0.2226559
46	0x3db821d0	0.08990824
47	0xbd02a87b	-0.031898957
48	0x3ec594bb	0.38590035
49	0x3cdd4737	0.027011497
50	0x3d42f4d8	0.047596782
51	0x3e422d9f	0.18962716
52	0xbd6578e5	-0.056023497
53	0xbecd4969	-0.4009507
54	0xbcf34fea	-0.029701192
55	0x3e4d0318	0.20020711
56	0x3ea46487	0.32107946
57	0x3cf50953	0.029911673
58	0x3cf80ec5	0.03028048
59	0x3d80dac0	0.06291723
60	0xbe097db8	-0.13426864
61	0xbeb43f2c	-0.35204446
62	0xbd7bf2e1	-0.061510924
63	0x3d4e2429	0.050327454
64	0x3e5a0b14	0.21293288
65	0x3d27d75a	0.04097686
66	0x3c30c48a	0.010789046
67	0xbd30cc5a	-0.043163635
68	0xbdc2ed08	-0.095178664
69	0xbea62d90	-0.32456636
70	0xbb88879f	-0.004166558
71	0xbdb548cd	-0.08851776
72	0xbca04b53	-0.019567167
73	0xbf06f1c0	-0.5271263
74	0x3e093e4b	0.13402669
75	0xbe24fca4	-0.16112
76	0xbe25a6ca	-0.16176906
77	0xbe4f8f97	-0.20269619
78	0x3e245281	0.16047098
79	0xbe147623	-0.1449819
80	0x3ce9cd3c	0.028540246
81	0xbf0327c1	-0.51232535
82	0x3e16ecd5	0.14738782
83	0xbed5aeda	-0.41734964
84	0xbe4dd40b	-0.20100419
85	0xbebb9f95	-0.3664519
86	0x3e17a70f	0.14809822
87	0xbec5265e	-0.38505834
88	0xbe4e10f9	-0.20123662
89	0xbf1bdf7a	-0.60887873
90	0x3d02060f	0.03174406
91	0xbe360b1f	-0.1777768
92	0xbe61b4c3	-0.22041611
93	0xbeae6570	-0.34061766
94	0x3dafcc2e	0.08583866
95	0xbdd0449c	-0.10169336
96	0xbc5a4890	-0.013322964
97	0xbc79994f	-0.0152343055
98	0xbd20cb14	-0.03925617
99	0xbb9c4c80	-0.0047698617
100	0xbd6a45f2	-0.05719561
101	0x3d2d099c	0.042245492
102	0x3d5cd4bc	0.053913817
103	0x3c888dd0	0.016669184
104	0x3d721dba	0.05911038
105	0x3d00f2da	0.0314816
106	0x3d29b226	0.04142966
107	0x3d6c72f6	0.057726823
108	0xbd300234	-0.04297085
109	0xbba0acc0	-0.004903406
110	0x3cc059d8	0.02348034
111	0xbc890bd4	-0.016729273
112	0xbd3598a0	-0.044335008
113	0xbca0c3c0	-0.01962459
114	0xbcfdcf73	-0.030982709
115	0xbcb3935c	-0.021920852
116	0xbd430546	-0.04761245
117	0xbc9a719f	-0.018853007
118	0x3d12af24	0.03581156
119	0xbce0b84c	-0.02743163
120	0xbd310ed4	-0.04322703
121	0xbf1adde3	-0.6049482
122	0xba530ef5	-0.000805124
123	0x3d9d9fec	0.07696518
124	0x3d000cb3	0.03126211
125	0x3e35a300	0.17737961
126	0x3d86b9d2	0.06578411
127	0x3da6bec7	0.08141857
128	0xbdc31f2e	-0.095274314
129	0xbf146a03	-0.5797426
130	0x3e48eed7	0.1962236
131	0x3b5e7851	0.0033946226
132	0xbdfc2f29	-0.123136826
133	0x3e169df4	0.14708692
134	0x3e590925	0.21194895
135	0xbb7951a6	-0.003804305
136	0xbc921c7c	-0.017835848
137	0xbf052ca3	-0.52021235
138	0x3e22f32e	0.15913078
139	0xbd698e88	-0.057020694
140	0xbea078c3	-0.31342134
141	0x3dee90c0	0.116487026
142	0x3e74c716	0.2390407
143	0xbd4c8861	-0.04993475
144	0xbe627016	-0.2211307
145	0xbe0dd976	-0.13852486
146	0xbd4ece38	-0.050489634
147	0x3eb34e19	0.3502052
148	0xbccf85da	-0.02533238
149	0x3f1241ce	0.5713166
150	0xbc94bb4a	-0.018155713
151	0x3e99dbd1	0.3005052
152	0xbe08c62d	-0.13356848
153	0xbdd44f52	-0.10366692
154	0x3dd81b4f	0.10552084
155	0x3a450b9b	0.0007516683
156	0xbe07ea27	-0.13272916
157	0x3f28dd28	0.6596246
158	0x3dfa2893	0.1221477
159	0x3d13c730	0.036078632
160	0x3e2fb387	0.17158328
161	0x3d5bafe7	0.05363455
162	0x3e03e873	0.12881641
163	0xbe7bb8d9	-0.24582233
164	0xbeb61fff	-0.35571286
165	0x3e9abad2	0.30220658
166	0x3e305bab	0.17222469
167	0xbe6d034f	-0.23145793
168	0xbdcab898	-0.0989849
169	0xbeab8cb7	-0.33505794
170	0x3d9722c4	0.07379678
171	0x3daf9d65	0.085749425
172	0xbeb5ef61	-0.35534194
173	0xbf5e6fd1	-0.8688937
174	0x3d297eab	0.041380566
175	0x3d5a9d51	0.053372685
176	0xbe0a8030	-0.13525462
177	0xbec111b9	-0.37708834
178	0x3d03f704	0.032217994
179	0x3e12f2c4	0.1435042
180	0xbeaa5de6	-0.33274764
181	0xbfac4b67	-1.3460511
182	0x3d7e388e	0.062065654
183	0x3e653296	0.22382578
184	0xbe63a205	-0.22229774
185	0xbe916362	-0.28396136
186	0x3e8a684d	0.270327
187	0x3ecc89c8	0.3994887
188	0xbe132532	-0.14369658
189	0xbfb79676	-1.4342792
190	0x3e830aa2	0.2559405
191	0x3ec593d1	0.38589337
192	0xbcf64d03	-0.030066019
193	0xbd4043c8	-0.04693964
194	0x3dedc8f9	0.11610598
195	0x3ea09f12	0.3137136
196	0xbd0c7315	-0.03428944
197	0x3eded640	0.43522835
198	0x3c45d9b9	0.012075835
199	0x3e94b30f	0.2904286
200	0x3d1371e2	0.03599728
201	0xbe1892c0	-0.1489973
202	0xbb45295c	-0.0030084467
203	0x3e6bcf67	0.23028336
204	0xbddbf783	-0.107405685
205	0x3f25d686	0.6478046
206	0x3d3cdbbe	0.046108
207	0x3e809516	0.25113744
208	0x3c68489f	0.0141774705
209	0xbe47c7a1	-0.19509746
210	0x3d1b0db6	0.037854873
211	0x3d53c5bc	0.051702246
212	0xbea16756	-0.31524152
213	0x3f1b6d3a	0.6071354
214	0x3c190b3a	0.0093410555
215	0x3e08bb51	0.13352706
216	0xbd14ec8d	-0.036358405
217	0xbeb3121c	-0.34974754
218	0xbddd2b4f	-0.10799276
219	0x3b929ff6	0.0044746352
220	0xbd20dce6	-0.039273165
221	0x3ea37090	0.31921816
222	0x3bb06aef	0.005383841
223	0xbb2f0d24	-0.0026710713
224	0xbd9178b2	-0.07103099
225	0xbf006266	-0.50150144
226	0x3db11a06	0.08647542
227	0xbdfafd3c	-0.12255332
228	0xbe8b6cc8	-0.2723143
229	0x3ecdc198	0.40186763
230	0x3d508e35	0.05091687
231	0xbe4673f5	-0.19380172
232	0xbdd48c95	-0.103783764
233	0xbe8b01ac	-0.27149713
234	0x3e781b1e	0.24229094
235	0xbcb0a5b1	-0.021563383
236	0xbecc3501	-0.3988419
237	0x3ea267ad	0.31719723
238	0x3e8bc6fe	0.27300256
239	0xbc3eeb5d	-0.011652795
240	0xbf10b18f	-0.5652093
241	0xbe852033	-0.2600113
242	0x3cce1656	0.025157135
243	0xbe6ca0ef	-0.23108266
244	0x3d634d11	0.055493418
245	0xbed4b3a0	-0.41543293
246	0x3b90c90b	0.0044184974
247	0xbe75572d	-0.23959036
248	0xbeef080e	-0.46685833
249	0xbe895888	-0.26825356
250	0x3ce1b7b7	0.027553422
251	0xbe6bdc8e	-0.23033354
252	0x3dde1e36	0.10845606
253	0xbf17a55c	-0.59236693
254	0xbca0ae5d	-0.019614393
255	0xbe9107fc	-0.28326404

fc1.bias f4 [256]
0	0xbb112d22	-0.0022152145
1	0x3dbf8a77	0.09352582
2	0xbe73c132	-0.23804167
3	0x3e264cd3	0.16240244
4	0xbe4fbc17	-0.20286594
5	0x3cf02891	0.029316219
6	0x3e378131	0.17920376
7	0x3dd5eb60	0.10445285
8	0x3e2d64a5	0.16932924
9	0x3d7e44ac	0.06207721
10	0x3c5d92c7	0.013523764
11	0x3d8f1a39	0.069874234
12	0x3daf7a85	0.085682906
13	0x3e12755e	0.14302585
14	0x3e7de2fe	0.24793622
15	0x3e023520	0.12715578
16	0x3d937984	0.07200912
17	0xbcd4e761	-0.025989236
18	0xbe3d9e0e	-0.18517324
19	0x3e287a56	0.16452917
20	0xbdae7c8c	-0.08519849
21	0x3dfa0379	0.122076936
22	0xbd2eae31	-0.04264659
23	0xbd414bec	-0.047191545
24	0x3e51e15f	0.20496128
25	0x3de4ba70	0.11168373
26	0xbe239adc	-0.15977043
27	0x3d5e5200	0.05427742
28	0x3d99ba91	0.07506288
29	0xbd9c564f	-0.076336496
30	0x3d1ae4b5	0.03781577
31	0x3dbd66cd	0.09248123
32	0x3d53e683	0.051733505
33	0x3ddcc936	0.107805654
34	0x3dea0ef1	0.11428631
35	0x3e835943	0.2565404
36	0xbde9c28c	-0.1141406
37	0x3e0235ca	0.12715831
38	0xbe163002	-0.14666751
39	0xbe0a6395	-0.1351455
40	0xbe8860cc	-0.2663635
41	0x3dde5d19	0.10857601
42	0xbc760951	-0.01501687
43	0xbe4a7063	-0.19769435
44	0xbd778c42	-0.060436495
45	0x3dd42944	0.10359433
46	0xbe125cd5	-0.14293225
47	0x3d12a7e5	0.035804648
48	0xbe217535	-0.15767367
49	0x3d407af3	0.046992254
50	0xbdd3f23f	-0.10348939
51	0x3e626958	0.22110498
52	0xbe1ab7ef	-0.15109228
53	0x3e01b7cc	0.12667769
54	0x3e79031f	0.24317597
55	0x3e00fb05	0.12595756
56	0x3df40bbd	0.119163014
57	0x3e54ba12	0.20774105
58	0x3dd0c7d6	0.10194366
59	0x3d95be6b	0.0731171
60	0xbe1cfe6d	-0.1533143
61	0xbd632a1e	-0.055460088
62	0xbe234d45	-0.15947445
63	0x3dada000	0.08477783
64	0xbc92ea7f	-0.017934082
65	0x3d508df4	0.050916627
66	0xbe882006	-0.26586932
67	0x3d0231cd	0.031785775
68	0xbdf89f4e	-0.1213976
69	0xbe179e49	-0.14806475
70	0x3e2dabed	0.16960116
71	0xbea68ae1	-0.3252783
72	0x3db80b14	0.08986488
73	0x3c99a3b1	0.018754812
74	0xbe4fe80c	-0.20303363
75	0xbe50eb87	-0.20402347
76	0xbb30b621	-0.0026964026
77	0x3dfd1d96	0.12359159
78	0x3d26d539	0.04073069
79	0x3d626414	0.055271223
80	0xbc43320a	-0.011913786
81	0xbc07fd82	-0.008300187
82	0xbdc9ae04	-0.09847644
83	0x3e6ea8e7	0.23306619
84	0xbe4b80ab	-0.19873302
85	0xbd2f9af6	-0.04287239
86	0xbc9ac802	-0.0188942
87	0x3dff6abe	0.12471531
88	0xbe21bb1f	-0.15794037
89	0x3d4547d4	0.048164204
90	0xbd3801d7	-0.04492363
91	0x3e3eb911	0.18625285
92	0x3d874835	0.06605569
93	0xbd6f0663	-0.0583557
94	0x3e9331b4	0.28748858
95	0xbdf90122	-0.12158419
96	0x3e35e288	0.17762196
97	0x3e60dee9	0.21960033
98	0xbd3b7491	-0.045765463
99	0x3c18b4d1	0.009320454
100	0x3d03848a	0.03210882
101	0x3e283af0	0.16428733
102	0x3c2ae198	0.010429762
103	0x3e60bbeb	0.21946685
104	0x3d8cb009	0.068695135
105	0x3d43136e	0.04762595
106	0x3dc14947	0.09437805
107	0x3e477dae	0.19481537
108	0xbe416375	-0.18885596
109	0x3d353c48	0.04424694
110	0x3e9be2e2	0.30446535
111	0x3d64e5b3	0.05588312
112	0x3dc97d40	0.09838343
113	0x3e5607ed	0.20901461
114	0x3e958599	0.2920349
115	0x3ea7270f	0.32646987
116	0xbe25e9eb	-0.16202514
117	0xbe1e899c	-0.15482181
118	0x3b648ee6	0.0034875213
119	0x3e2c056b	0.16798942
120	0x3e87e287	0.26540014
121	0x3e0a5d9e	0.13512275
122	0x3e5606df	0.20901059
123	0xbe88fcd0	-0.2675538
124	0x3e18a337	0.14906012
125	0x3e0edac4	0.1395064
126	0x3e81f85c	0.25384796
127	0x3d060192	0.03271634
128	0xbe6c83ef	-0.23097204
129	0x3e0b11d3	0.13581018
130	0x3e3c7db4	0.18407327
131	0x3e293fd7	0.16528259
132	0x3d0cbf5f	0.034362193
133	0x3c83d213	0.016091382
134	0x3e28da1f	0.16489457
135	0x3da5fcc2	0.0810485
136	0xbe24e005	-0.16101082
137	0x3da68b75	0.08132068
138	0x3dfe9ed3	0.12432637
139	0x3e168c5b	0.14701979
140	0xbe40b073	-0.1881731
141	0x3e1428be	0.14468667
142	0x3e8a764c	0.27043378
143	0x3d7455bf	0.059652086
144	0x3e05a139	0.13049783
145	0xbe6e4202	-0.23267367
146	0xbe459493	-0.19294958
147	0x3dddf0e5	0.108369626
148	0xbd95acea	-0.07308371
149	0xbe994afe	-0.29940027
150	0x3dfe9763	0.124312185
151	0x3e02a5d8	0.12758577
152	0xbe553035	-0.20819171
153	0x3e69956c	0.22810906
154	0x3daf3477	0.08554929
155	0x3d4e31d3	0.050340485
156	0x3d026c58	0.031841606
157	0xbe81c13a	-0.25342733
158	0x3e1e401a	0.1545414
159	0x3e3c79cb	0.18405835
160	0x3e58665f	0.21132801
161	0xbd80e45a	-0.062935546
162	0x3d447b79	0.047969315
163	0x3e179a46	0.14804944
164	0x3db153ab	0.086585365
165	0xbd798d67	-0.060925867
166	0x3d15186e	0.03640025
167	0x3db83b7a	0.08995719
168	0x3dd7fbb1	0.10546053
169	0x3e7a6e56	0.24456152
170	0x3db8f138	0.09030384
171	0x3ca2f1d5	0.019890705
172	0xbe0bab3e	-0.13639542
173	0xbe48731e	-0.19575164
174	0x3d9574b0	0.07297647
175	0xbd328f95	-0.04359396
176	0x3ddd58b3	0.10807934
177	0xbdf67733	-0.12034454
178	0x3e8213c7	0.25405714
179	0x3d036c0a	0.032085456
180	0xbe34ae84	-0.17644697
181	0xbdd7b104	-0.1053181
182	0x3dc995b6	0.09843008
183	0x3d5cde9d	0.053923238
184	0x3deeaa1c	0.116535395
185	0xbe40016c	-0.18750542
186	0xbe0b0bf7	-0.13578783
187	0xbd19957e	-0.037496082
188	0x3e8204d6	0.25394315
189	0x3e142a94	0.14469367
190	0x3e0b2c9b	0.13591234
191	0x3df760ce	0.12079011
192	0x3e9fcfa7	0.31213114
193	0x3dd04226	0.10168867
194	0x3db35053	0.08755555
195	0x3e933c06	0.28756732
196	0x3e95daf6	0.29268616
197	0x3ea0371a	0.3129204
198	0x3e706ab3	0.23478203
199	0x3db2494a	0.08705385
200	0x3e890844	0.2676412
201	0x3d9769e5	0.07393245
202	0xbe303c72	-0.17210558
203	0xbdf6f1b6	-0.120578215
204	0xbe3dd1c5	-0.18537052
205	0x3d6ddc2e	0.058071308
206	0x3d8660b8	0.065614164
207	0x3dfc1432	0.123085395
208	0xbe403bc2	-0.18772796
209	0xbe07f0d0	-0.13275456
210	0x3e95967b	0.2921637
211	0x3e99e8a0	0.3006029
212	0xbd95abae	-0.07308136
213	0x3d64bb84	0.05584289
214	0x3d287f72	0.041137166
215	0xbe415aea	-0.18882337
216	0xbdbfd634	-0.09367028
217	0x3e062bf9	0.13102712
218	0xbe43a6bc	-0.19106573
219	0xbe40c43d	-0.18824859
220	0xbd545443	-0.05183817
221	0x3dedb36b	0.11606487
222	0xbc8a2304	-0.0168624
223	0x3e3a023b	0.18164913
224	0x3def6cdd	0.11690686
225	0x3d9b2c25	0.07576779
226	0x3d1bbd8f	0.038022574
227	0xbdc6ec55	-0.097130455
228	0x3dc36604	0.09540942
229	0xbe2c4780	-0.1682415
230	0x3d28c6be	0.04120516
231	0x3dba198b	0.09086903
232	0xbe22f0da	-0.1591219
233	0x3e6666a7	0.22500096
234	0xbe385f11	-0.18005015
235	0x3db62b29	0.08894951
236	0x3e1f0101	0.15527727
237	0xbd848a5e	-0.06471704
238	0x3e07e4cc	0.13270873
239	0xbdc36955	-0.09541575
240	0x3c800ead	0.015631998
241	0x3d917777	0.07102864
242	0xbe84b324	-0.25917923
243	0x3bbd6acd	0.005780554
244	0x3e817409	0.2528384
245	0x3e9b21fe	0.3029937
246	0x3e5d8c83	0.21635632
247	0xbe327a93	-0.17429571
248	0x3b91c352	0.004448333
249	0x3c0b603e	0.008506833
250	0xbcf8c502	-0.030367378
251	0x3e062541	0.13100149
252	0x3d280655	0.041021664
253	0x3d2730ea	0.040818132
254	0x3e4df254	0.20111972
255	0x3e83ea86	0.25764865

fc2.weight f4 [2, 256]
0	0x3eeced4c	0.46274793
1	0x3e936b6d	0.28792897
2	0xbd0e772c	-0.03478162
3	0x3d223c7e	0.03960847
4	0x3af9c494	0.0019055777
5	0xbe75f9b0	-0.2402103
6	0xbe73b8b3	-0.23800926
7	0x3f1be55d	0.60896856
8	0xbec7719d	-0.38953868
9	0xbe26d7d1	-0.16293265
10	0x3eb7cef0	0.35900068
11	0xbd24fb2d	-0.040278602
12	0x3e683c56	0.22679266
13	0x3e75466c	0.23952645
14	0xbdd3f5b1	-0.10349596
15	0xbef31a3e	-0.4748096
16	0x3e70b24d	0.23505516
17	0xbec1eba2	-0.37875086
18	0x3ac0c8e8	0.0014708312
19	0x3ea1b7d5	0.31585565
20	0xbf013e71	-0.50485903
21	0x3f074db8	0.52852964
22	0xbf3f4366	-0.74712217
23	0xbec54fff	-0.38537595
24	0xbece8d2f	-0.4034209
25	0x3e712ae2	0.23551515
26	0x3a55e744	0.00081597664
27	0xbe609431	-0.2193153
28	0xbe57d83b	-0.21078579
29	0xbd767b48	-0.060176164
30	0xbe1ba48e	-0.15199491
31	0x3e501484	0.20320326
32	0xbf03f85f	-0.5155086
33	0x3e80925b	0.2511166
34	0xbe8f4e90	-0.27989626
35	0xbd05f24c	-0.032701775
36	0x3dea8333	0.114508055
37	0x3eb5f9c2	0.35542113
38	0x3b3b1182	0.002854437
39	0xbee33742	-0.44378096
40	0x3f131257	0.5744986
41	0xbedccf9d	-0.43127146
42	0xbeac69de	-0.3367452
43	0xbad77fbf	-0.001644127
44	0xbd1fb9be	-0.038995497
45	0x3f06a709	0.52598625
46	0x3b281a9c	0.0025650626
47	0xbe62d555	-0.22151692
48	0xbaffb191	-0.0019507875
49	0xbf5d1b84	-0.8637011
50	0xbf11a925	-0.5689872
51	0xbed2678f	-0.41094634
52	0x39472ee5	0.00018995588
53	0xbf279373	-0.65459365
54	0x3e06374d	0.13107033
55	0x3e782c9a	0.24235764
56	0x3e5dd92b	0.21664874
57	0xbda9b2f2	-0.08286084
58	0xbebe90ae	-0.37219757
59	0x3e4860f9	0.19568242
60	0x391c4710	0.00014903792
61	0xbe072029	-0.13195862
62	0xb905534d	-0.000127149
63	0x3ee3669e	0.44414228
64	0xbeed1243	-0.46302995
65	0x3ee94e9b	0.45567784
66	0x3eb97397	0.36221
67	0xbf22e27f	-0.63626856
68	0x3a99dd2e	0.001173889
69	0xbf2f564e	-0.68491066
70	0xbed198e1	-0.4093695
71	0x3e9ced2b	0.30649695
72	0xbea46189	-0.32105663
73	0x3de1ce0c	0.110256284
74	0xb9cb6d28	-0.00038800505
75	0x3b127082	0.0022344892
76	0x3eb27a76	0.34859055
77	0x3eb4b82c	0.35296762
78	0xbed2938b	-0.4112819
79	0x3e6aae9b	0.22918169
80	0xbeacb479	-0.3373144
81	0x3e9c7686	0.30559176
82	0xbf08f9fe	-0.5350646
83	0xbe8e69c7	-0.27815077
84	0x3709f800	8.223578e-06
85	0xbe8c70ed	-0.27429906
86	0x3f3965c4	0.7242091
87	0x3e7736d5	0.2414201
88	0x3a208884	0.0006123858
89	0xbee28989	-0.44245556
90	0xbe93bbbe	-0.28854173
91	0xbedb738e	-0.428616
92	0xbe6db6d7	-0.23214279
93	0xbf913520	-1.1344337
94	0xbda01820	-0.078171015
95	0xbede62f6	-0.43434876
96	0xbd062479	-0.032749627
97	0x3f0833c0	0.53203964
98	0xbf0e1a0e	-0.55508506
99	0x3ef93830	0.4867568
100	0x3ed6edb9	0.41978243
101	0x3e933c7f	0.28757092
102	0xbe8a678d	-0.27032128
103	0xbc82289d	-0.015888507
104	0x3e7ef886	0.24899492
105	0x3f2216e7	0.63316196
106	0xbef18aab	-0.47176108
107	0x3d821f9d	0.06353686
108	0x3e9aa8c3	0.3020688
109	0x3f3a44e6	0.7276138
110	0xbdb0f593	-0.086405896
111	0x3f0d02cc	0.5508239
112	0x3eae0b25	0.33992878
113	0xbdafa4f9	-0.08576388
114	0xbeb5d786	-0.35515994
115	0xbdc7c7d2	-0.097549096
116	0x3a00f47c	0.00049192435
117	0xb9456c30	-0.00018827687
118	0x3e8d0d06	0.27549
119	0xbe2dbe27	-0.16967069
120	0xbd9d352f	-0.076761596
121	0x3e2b70ed	0.16742297
122	0xbf00bdc9	-0.5028959
123	0xbd4a3456	-0.049366318
124	0x3e1f5b35	0.15562136
125	0x3ed6ebf1	0.41976884
126	0xbd9505ea	-0.07276519
127	0x3ec1bb77	0.37838337
128	0x3ec27358	0.37978625
129	0xbd75737e	-0.059924595
130	0x3e59349f	0.2121148
131	0x3e502b6b	0.20329063
132	0xbe98f902	-0.29877478
133	0x3e5cba92	0.21555546
134	0x3e690832	0.22757033
135	0x3ef397ed	0.47576848
136	0xbf25a18f	-0.64699644
137	0xbea7682a	-0.32696658
138	0x3e73ed8a	0.23821083
139	0x3e94ac86	0.29037875
140	0x3e518b94	0.20463401
141	0x3eca2d8f	0.39487883
142	0xbd929cdd	-0.071588255
143	0x3f00bb1a	0.50285494
144	0xbe632103	-0.22180562
145	0xbf658ca2	-0.89667714
146	0xbf47582d	-0.7786892
147	0x3ec025d5	0.37528864
148	0x3ea51042	0.32238966
149	0x3eb07935	0.34467474
150	0x3e976cc4	0.2957517
151	0x3e2d04bc	0.16896337
152	0x3cc66434	0.024217702
153	0x3ea7fb30	0.32808828
154	0x3f27c719	0.65538174
155	0x3f2b3cd4	0.6688969
156	0xbf813be5	-1.0096403
157	0xbd94a922	-0.07258822
158	0x3c199129	0.009372988
159	0xbda9ccfe	-0.08291052
160	0x3e776b4c	0.24162024
161	0x3f34a33e	0.7056159
162	0xbe82c5ef	-0.25541636
163	0xbd2349db	-0.039865356
164	0x3ee8cd20	0.45468998
165	0xbeb03acd	-0.3441986
166	0x3eb4349e	0.35196394
167	0xbe79caa5	-0.24393709
168	0x3f218da9	0.6310678
169	0xbdd7cd97	-0.1053726
170	0x3ecf9e80	0.40550613
171	0xbf6c15df	-0.9222087
172	0x3c8b6af1	0.017018767
173	0x3a882b3c	0.0010388861
174	0x3d269559	0.040669773
175	0xbea43542	-0.32071882
176	0x3e7afa66	0.24509582
177	0x3e3a2f5a	0.18182126
178	0xbec4f00e	-0.38464397
179	0xbf609b29	-0.87736756
180	0x3aace5f8	0.0013191095
181	0xbf3087a2	-0.6895696
182	0x3f0a11ea	0.53933585
183	0x3f22a5c3	0.6353418
184	0xbf2aef02	-0.66770947
185	0x3ea500be	0.3222713
186	0xbf4c5bb7	-0.79827446
187	0xbf81022c	-1.0078788
188	0xbe78713d	-0.24261947
189	0x3ec5bee4	0.386222
190	0x3e10cd78	0.1414088
191	0xbe10f02b	-0.14154117
192	0xbd8fe581	-0.07026196
193	0xbf7e24fe	-0.99275196
194	0xbe57ed90	-0.21086717
195	0xbd8410d6	-0.06448524
196	0xbd2f01cf	-0.042726334
197	0xbd7beef3	-0.061507177
198	0xbeda6f27	-0.42662928
199	0x3ef7ec3b	0.48422417
200	0xbcef13ec	-0.029184304
201	0x3e725ca6	0.23668155
202	0xb91398a0	-0.0001407587
203	0xba65e488	-0.00087697105
204	0xb9dce2f0	-0.00042130752
205	0xbe50f513	-0.20405988
206	0x3e8bf421	0.27334693
207	0x3eea2db9	0.4573801
208	0xba909e01	-0.0011033417
209	0x3a70b638	0.0009182426
210	0xbd85a032	-0.065246955
211	0xbe88cf48	-0.26720643
212	0xbe962d54	-0.29331458
213	0x3f00c7ef	0.50305074
214	0xbee09d50	-0.4387002
215	0x3f65482d	0.89563257
216	0xba51aed4	-0.00079987687
217	0x3ee97213	0.45594844
218	0x3b0ec05e	0.002178214
219	0xbae2c37a	-0.0017300688
220	0x3ece67f2	0.4031368
221	0x3efde918	0.495919
222	0xbdcef058	-0.10104436
223	0xbe89e699	-0.26933745
224	0x3dffc25d	0.12488244
225	0x3e89be30	0.26902914
226	0x3f0a86dc	0.5411203
227	0x3f045d06	0.5170444
228	0x3f211b6c	0.6293247
229	0xbb02eb30	-0.0019976608
230	0xbde9d7f2	-0.114181414
231	0xbec9f42d	-0.39444104
232	0xbb1811d6	-0.002320399
233	0xbe8c68d3	-0.27423725
234	0xbb348fb2	-0.002755147
235	0xbc6fec2d	-0.014643711
236	0x3ed262e8	0.41091084
237	0x3d53ec04	0.051738754
238	0xbe581eb7	-0.21105467
239	0x3f95fed8	1.1718397
240	0xbd8de0fa	-0.069276765
241	0x3d9d4dcc	0.07680854
242	0xbdb719a6	-0.08940439
243	0x3e5d1114	0.21588546
244	0xbdab4222	-0.08362223
245	0xbdab517c	-0.08365151
246	0xbe4c7518	-0.19966543
247	0xbee2a323	-0.44265088
248	0xbe8c1cc6	-0.27365702
249	0x3e9b89cd	0.3037857
250	0xbf6530ff	-0.8952789
251	0x3e99da07	0.30049154
252	0x3f437fe1	0.76367
253	0xbee57b96	-0.4482085
254	0xbef30068	-0.47461247
255	0xbd7e572c	-0.062094852

fc2.bias f4 [2]
0	0xbdf198d5	-0.117967285
1	0x3e59af3a	0.2125825
