multi_agent/Multi_checkpoint_critic_30_20_target_2500_run1.pth (torch, 425167 bytes, 7 tensors)

fcs1.weight f4 [256, 24]
0	0x3c2c9e06	0.010535723
1	0xbd25a0ef	-0.04043668
2	0xbc92287f	-0.017841576
3	0x3cf26970	0.029591292
4	0x3cdd916e	0.027046885
5	0x3cef8ef6	0.029242974
6	0xbcdcf146	-0.026970517
7	0x3d03f7a3	0.032218587
8	0x3c0d561c	0.008626487
9	0x3c4e436b	0.012589316
10	0xbd2074b3	-0.039173793
11	0x3c8fa00d	0.017532373
12	0x3c817ae9	0.015805678
13	0x3c99508d	0.018715167
14	0xbcf54fa2	-0.029945198
15	0x3c01d0d9	0.007923328
16	0x3c9996de	0.018748697
17	0x3d1b2167	0.03787365
18	0x3b132669	0.0022453314
19	0x3d20f983	0.039300453
20	0xbca20edd	-0.019782478
21	0xbd132e39	-0.035932753
22	0x3cbc3643	0.022975093
23	0x3d5b2c24	0.053508893
24	0x3e4d0e0c	0.2002489
25	0xbefa9d57	-0.48948166
26	0x3d104509	0.035222087
27	0x3e7772b7	0.24164854
28	0x3ec5465e	0.38530248
29	0xbf421cc3	-0.75825137
30	0x3dd7aeb6	0.1053137
31	0x3e54f8a6	0.20797977
32	0x3e08bb69	0.13352741
33	0xbf179dad	-0.5922497
34	0x3aaa8b0a	0.0013011408
35	0x3e975a7a	0.29561216
36	0x3dde213e	0.10846184
37	0xbf239e9e	-0.63913906
38	0x3d959fa5	0.073058404
39	0x3e921198	0.28529048
40	0x3e305084	0.17218214
41	0xbf020689	-0.5079122
42	0xbe86713f	-0.26258275
43	0x3f01561b	0.5052201
44	0xbe7feabe	-0.24991891
45	0xbe0b005c	-0.13574356
46	0xbeba64d7	-0.3640506
47	0x3f0af025	0.5427268
48	0x3e9530bc	0.29138744
49	0xbe2134e3	-0.15742831
50	0xbd559240	-0.052141428
51	0x3cb2e3a3	0.021837061
52	0x3e4c8dc4	0.19975954
53	0x3ec9902a	0.393678
54	0x3c6b139c	0.014347937
55	0xbbffb520	-0.007803574
56	0x3eb90005	0.36132827
57	0xbe41124e	-0.18854639
58	0x3c90a6ed	0.017657721
59	0xbda6e7cd	-0.08149681
60	0xbef95e4d	-0.48704758
61	0x3f10c731	0.5655394
62	0xbae20e19	-0.0017246633
63	0xbd1fe988	-0.039041072
64	0x3e5bcde7	0.21465264
65	0xbe957954	-0.2919413
66	0xbb38cd74	-0.0028198631
67	0xbe02cb73	-0.12772922
68	0xbfbe308c	-1.4858565
69	0x3e0d63d7	0.13807617
70	0x3d666bb2	0.05625505
71	0xbd99a4b8	-0.07502121
72	0x3e5f2bca	0.21794048
73	0x3f142c1c	0.57879806
74	0xbc822fc6	-0.01589192
75	0x3ecbbd79	0.39792994
76	0xbbdca281	-0.006733239
77	0xbe3ae8a5	-0.1825281
78	0x38e35276	0.00010839563
79	0x3ed22276	0.41041917
80	0x3e5dcb9a	0.21659699
81	0x3f7283d5	0.9473241
82	0x3a2f70b4	0.0006692514
83	0x3d60f415	0.054920275
84	0x3d6c5197	0.057694998
85	0xbf0aa621	-0.5415974
86	0x3c864f5a	0.01639526
87	0x3dabf4d3	0.08396306
88	0x3e9df095	0.30847612
89	0x3f79d705	0.9759372
90	0xbcd7a4b1	-0.026323648
91	0xbf509248	-0.8147321
92	0x3bdc464c	0.006722247
93	0x3f8aada4	1.0834241
94	0xbb612dc5	-0.0034359556
95	0xbf3756a9	-0.7161661
96	0x3d3a191e	0.04543411
97	0x3be490b0	0.006975256
98	0x3cf9a5ac	0.030474506
99	0xbc783628	-0.015149631
100	0x3cce678c	0.02519586
101	0x3d2bcbaa	0.041942276
102	0x3d17c7b6	0.037055694
103	0xbc6336c4	-0.013868038
104	0x3c95d09c	0.01828795
105	0x3d79b554	0.060963944
106	0xbc4b70c0	-0.012417018
107	0xbd2382d6	-0.039919697
108	0x3d5e9006	0.05433657
109	0x3d012396	0.031528078
110	0x3d753e28	0.05987373
111	0xbcbf5098	-0.02335386
112	0x3c6eccb0	0.0145751685
113	0xbd20eeae	-0.039290123
114	0xbd44c99b	-0.04804383
115	0xbc30a6c0	-0.010781944
116	0xbd2424e2	-0.040074237
117	0x3d6244be	0.05524134
118	0x3c6551d6	0.013996562
119	0xbc9aa61c	-0.018878035
120	0x3eb07665	0.34465328
121	0x3d810b25	0.06300954
122	0xbe64bbfe	-0.22337338
123	0x3dce4265	0.100712575
124	0x3e42043e	0.18946931
125	0x3bcc49d3	0.0062343865
126	0xbe88be40	-0.2670765
127	0x3d16776b	0.03673498
128	0x3eb525f2	0.35380512
129	0x3bdb57b0	0.006693803
130	0x3e4b1ebf	0.19835947
131	0x3b8d5183	0.0043126955
132	0xbe4d5a4d	-0.20053978
133	0xbd295c64	-0.041347876
134	0x3e240f46	0.16021451
135	0x3d8d3313	0.06894507
136	0x3edbe563	0.42948446
137	0x3e4c4038	0.19946373
138	0x3d878930	0.06617963
139	0x3eda27c0	0.42608452
140	0xbf131fd7	-0.5747046
141	0xbeeb5c6e	-0.45968956
142	0x3df40b47	0.119162135
143	0x3ee4a4bf	0.4465694
144	0x3e8d83e0	0.27639675
145	0x3f6573e0	0.89629936
146	0x3e2519d2	0.16123131
147	0xbd55382f	-0.052055534
148	0x3ed346d5	0.41264978
149	0x3f09be71	0.53806216
150	0x3e15675e	0.14590213
151	0xbd9b4601	-0.075817116
152	0x3edd8e94	0.4327284
153	0x3f657e14	0.89645505
154	0x3e1d3f65	0.15356214
155	0xbdc23e57	-0.09484547
156	0x3e57ff76	0.21093544
157	0x3d4d2790	0.050086558
158	0x3e17bad0	0.14817357
159	0xbdaa8f64	-0.08328131
160	0x3e98bc47	0.29831144
161	0x3f542011	0.8286143
162	0xbe7da1cf	-0.24768756
163	0xbe2bc1e4	-0.16773182
164	0xbba3b123	-0.0049954816
165	0xbe8e617a	-0.27808744
166	0xbe848fe0	-0.25891018
167	0xbdb5e4d5	-0.08881537
168	0x3eb1c5b4	0.34721148
169	0x3e593690	0.2121222
170	0x3e506a1e	0.2035298
171	0x3e818c12	0.25302178
172	0x3edc7372	0.43056828
173	0xbf2081d7	-0.6269812
174	0x3e1c562e	0.1526725
175	0x3e9231b8	0.28553557
176	0x3ebaf085	0.36511627
177	0x3e849afb	0.2589949
178	0x3e0fe6ae	0.14052841
179	0xbbfc276c	-0.007695129
180	0x3ee37e99	0.44432524
181	0xbe2ed48e	-0.1707327
182	0x3dd52c46	0.10408835
183	0x3d8fc975	0.07020847
184	0x3ed91157	0.42396042
185	0x3ed00a22	0.4063273
186	0xbbdfd372	-0.006830626
187	0xbd5bcf87	-0.05366471
188	0x3f5d4f52	0.8644916
189	0xbea5a253	-0.32350406
190	0x3cf91c61	0.03040904
191	0xbd4d91ed	-0.050187994
192	0x3c97ed15	0.018545667
193	0xbce9ed89	-0.028555648
194	0x3b07b0c6	0.002070473
195	0x3c3c131b	0.0114791645
196	0xbd445469	-0.047932062
197	0xbca3ef57	-0.020011587
198	0xbd78e987	-0.060769584
199	0xbd450432	-0.048099704
200	0x3ca4d1e8	0.020119622
201	0x3d60bdf2	0.054868646
202	0xbc3091c0	-0.010776937
203	0x3be30fb4	0.006929362
204	0x3d6a725a	0.05723796
205	0xbd344315	-0.044009287
206	0xbd256a3f	-0.040384527
207	0xbcc2fca8	-0.023802117
208	0x3d4f935c	0.050677642
209	0xbd557730	-0.05211562
210	0xbc930340	-0.017945886
211	0x3d47d5ca	0.04878787
212	0xbd57ffa2	-0.052734025
213	0xbbdae5d5	-0.00668023
214	0xbc394070	-0.011306867
215	0xbd2c8aaa	-0.042124428
216	0x3d4899b1	0.048974697
217	0x3ccc28c1	0.024921777
218	0x3b58a400	0.0033056736
219	0xbd74ac7d	-0.05973481
220	0xbec47073	-0.38367042
221	0x3de5c2c9	0.11218793
222	0xbcf4e3cb	-0.029893776
223	0xbd02fcb9	-0.031979296
224	0x3e602d45	0.21892269
225	0x3df48245	0.119389094
226	0xbd86085f	-0.065445654
227	0x3d0aa902	0.033852585
228	0x3d56ea6f	0.052469667
229	0x3f316096	0.69288003
230	0xbc809f98	-0.0157011
231	0xbd33ea8b	-0.04392485
232	0x3ee5ccb7	0.44882748
233	0x3e23994c	0.15976447
234	0x3d95f86e	0.07322775
235	0xbea8e586	-0.32987612
236	0x3f7b47af	0.98156255
237	0xbd9a157a	-0.075236276
238	0x3d2dffb3	0.042480182
239	0xbebb7af7	-0.36617252
240	0xbc199ac5	-0.009375279
241	0xbc322bea	-0.010874728
242	0xbd00b798	-0.03142509
243	0xbd365e26	-0.04452338
244	0xb9d3cd66	-0.0004039809
245	0xbd0ad57a	-0.033894993
246	0xbbcfba6b	-0.0063393614
247	0x3ce559a5	0.027996847
248	0x3d438561	0.047734622
249	0x3c39fbf1	0.011351571
250	0xbc031513	-0.00800063
251	0x3cd3c97e	0.025852915
252	0x3d06a33e	0.032870524
253	0xbceee316	-0.029161017
254	0x3c88f117	0.016716523
255	0x3cd2c7ad	0.025729978

fcs1.bias f4 [256]
0	0xbe33740c	-0.17524737
1	0xbe77b34c	-0.2418949
2	0xbd73e050	-0.059540093
3	0x3e5aa367	0.21351396
4	0xbe4fbc17	-0.20286594
5	0xbda83c1e	-0.082145914
6	0xbe52341d	-0.20527692
7	0xbdd90132	-0.10595931
8	0xbd8dded4	-0.06927267
9	0x3e459f32	0.1929901
10	0xbe426c21	-0.1898656
11	0x3e50e098	0.20398176
12	0x3c4ea99c	0.01261368
13	0xbd3892ba	-0.045061804
14	0x3e076d8d	0.13225384
15	0xbe8e729b	-0.27821812
16	0x3d9877c9	0.07444722
17	0xbd428f49	-0.04749993
18	0xbe3d9e0e	-0.18517324
19	0x3daec589	0.085337706
20	0xbe0b1f88	-0.13586247
21	0xbd36c650	-0.04462272
22	0xbe51db60	-0.20493841
23	0xbe581afb	-0.21104042
24	0xbd85aac0	-0.065267086
25	0x3d6895f5	0.056783635
26	0xbe239adc	-0.15977043
27	0x3e18d252	0.14923981
28	0xbd631973	-0.055444192
29	0xbeacbaef	-0.3373637
30	0x3da51d66	0.08062248
31	0xbd3709d0	-0.044687092
32	0xbdfa5ca0	-0.12224698
33	0xbde2db5d	-0.110769965
34	0x3cd60d1d	0.0261293
35	0x3e831cc0	0.25607872
36	0xbee05d7d	-0.43821326
37	0xbe2e8eeb	-0.17046706
38	0xbe1a98af	-0.15097307
39	0xbe657978	-0.22409618
40	0xbe431801	-0.19052126
41	0xbc3878bc	-0.011259254
42	0x3d5899e2	0.05288113
43	0xbe4bab23	-0.19889502
44	0xbe9ca2ce	-0.3059296
45	0xbdfc73ca	-0.123267725
46	0xbe33164c	-0.17488974
47	0xbdab942c	-0.08377871
48	0xbe217535	-0.15767367
49	0xbdf7bcbe	-0.120965466
50	0xbe43911a	-0.1909832
51	0xbeb081cc	-0.34474027
52	0xbe1ab7ef	-0.15109228
53	0xbe166e43	-0.14690499
54	0x3c97cb5e	0.01852959
55	0x3e2fd968	0.17172778
56	0xbb886763	-0.0041627153
57	0x3dcd943a	0.100380376
58	0x3e0c8a7a	0.137247
59	0xbe1e5406	-0.1546174
60	0xbe270469	-0.16310276
61	0x3cbac534	0.022799112
62	0xbe34569d	-0.17611165
63	0xbcb53504	-0.022120006
64	0xbe016f32	-0.12640074
65	0xbe1e1f0a	-0.15441528
66	0xbdf4c40b	-0.11951455
67	0xbe057a5d	-0.13034959
68	0xbdf89f4e	-0.1213976
69	0xbe568cb3	-0.2095211
70	0xbe111160	-0.14166784
71	0xbe3efc85	-0.18651016
72	0x3e1efd4c	0.15526313
73	0xbe96dbec	-0.29464662
74	0xbe4fe80c	-0.20303363
75	0xbe66019f	-0.22461556
76	0xbe86ea6f	-0.26350734
77	0xbd5a7353	-0.053332638
78	0xbd51dec0	-0.05123782
79	0xbeb15952	-0.34638458
80	0x3ddb5a16	0.10710542
81	0xbdeaacf3	-0.11458769
82	0xbc34af2a	-0.0110280905
83	0xbe8ab2c1	-0.27089503
84	0xbe4b80ab	-0.19873302
85	0x3e075eda	0.13219777
86	0xbdb9d0e3	-0.09073045
87	0x3d282d5e	0.04105889
88	0xbe21bb1f	-0.15794037
89	0xbe979105	-0.2960283
90	0xbe66646c	-0.22499245
91	0xbe86ee3b	-0.2635363
92	0xbd9a801a	-0.07543965
93	0xbe2310ae	-0.15924332
94	0xbbdab61d	-0.0066745416
95	0xbe3ce224	-0.18445641
96	0xbddd3797	-0.108016185
97	0xbb2f860a	-0.0026782774
98	0xbe4f38cd	-0.20236512
99	0xbe0fbf4e	-0.1403782
100	0xbe6899b1	-0.22714879
101	0x3d84673e	0.064650044
102	0xbdf3befd	-0.119016625
103	0xbe6ffe0d	-0.23436756
104	0x3ca8a281	0.0205853
105	0xbe239d4f	-0.15977977
106	0xbdd7098a	-0.10499866
107	0xbe4cac4f	-0.19987606
108	0xbea5a808	-0.3235476
109	0xbde968b9	-0.113969274
110	0xbd7f992b	-0.06240193
111	0xbdec1454	-0.11527315
112	0xbe55fd76	-0.20897469
113	0xbe0372d3	-0.1283677
114	0xbc9c7465	-0.01909847
115	0xbd1662ab	-0.03671519
116	0xbe372d2f	-0.1788833
117	0xbe2c4fe6	-0.16827354
118	0xbd72f323	-0.059313904
119	0xbe693456	-0.22773871
120	0xbda47b31	-0.080313094
121	0xbd02d4c3	-0.031941187
122	0xbeca2b22	-0.39486033
123	0xbe757af7	-0.23972689
124	0xbdbe76f8	-0.09300035
125	0x3dde9227	0.1086772
126	0xbc8b8a44	-0.017033704
127	0xbdd2926d	-0.10281835
128	0xbe0dac0c	-0.13835162
129	0x3d42bc7e	0.04754304
130	0xbb5586fe	-0.0032581682
131	0x3e86863c	0.26274288
132	0xbe5d581f	-0.21615647
133	0xbd9fb267	-0.077976994
134	0x3d10d056	0.035354935
135	0xbde3bf7d	-0.11120508
136	0xbe4ef83f	-0.20211886
137	0xbd932a51	-0.071858056
138	0x3ca362bd	0.019944543
139	0xbda002c4	-0.078130275
140	0xbd98050c	-0.074228376
141	0x3da52c1f	0.08065056
142	0xbd4ff846	-0.05077388
143	0xbdc22066	-0.09478836
144	0x3d1de771	0.038550798
145	0xbd5418b9	-0.05178139
146	0xbc8883f1	-0.016664477
147	0xbdff07f4	-0.12452689
148	0xbdf3a380	-0.118964195
149	0xbeae5352	-0.34047943
150	0x3dd676bf	0.10471868
151	0xbb6cafbb	-0.0036115486
152	0xbe3e5524	-0.18587166
153	0x3bdd3116	0.0067502363
154	0xbe902569	-0.28153542
155	0xbdf24f9e	-0.11831592
156	0xbe9ca973	-0.3059803
157	0xbe433608	-0.1906358
158	0x3ce574c5	0.028009782
159	0xbe01bd52	-0.12669876
160	0x3dfd6e8c	0.12374601
161	0xbd3cce9c	-0.046095476
162	0xbd92092a	-0.07130654
163	0xbde54e51	-0.11196578
164	0xbe08d1d8	-0.13361299
165	0x3e5ed922	0.21762517
166	0xbe07280f	-0.13198875
167	0x3e2ef5de	0.17085978
168	0x3d83c01f	0.064331286
169	0x3da30919	0.079607196
170	0xbe616012	-0.22009304
171	0xbddf109c	-0.1089184
172	0xbe18e498	-0.14930952
173	0xbe48731e	-0.19575164
174	0x3e4bbdb1	0.1989658
175	0x3e323854	0.174043
176	0x3e967a11	0.29390004
177	0xbddff2d1	-0.109349854
178	0xbde0798e	-0.10960685
179	0x3dd09a8f	0.1018573
180	0xbe34ae84	-0.17644697
181	0xbe2766ea	-0.16347852
182	0xbcdb3f29	-0.026763516
183	0xbe28c59c	-0.16481632
184	0xbe96ad95	-0.29429308
185	0xbe12cc90	-0.14335847
186	0x3da9fd79	0.08300299
187	0xbdde83a0	-0.10864949
188	0xbe015f92	-0.12634113
189	0xbe6ed539	-0.23323525
190	0x3dde2743	0.10847332
191	0x3d91e470	0.07123649
192	0x3c2035ef	0.009778484
193	0xbe9b6440	-0.30349922
194	0x3dccf34f	0.10007345
195	0x3e83bc18	0.25729442
196	0xbbe6d334	-0.0070442203
197	0x3e4d2c0e	0.20036337
198	0xba96ba91	-0.0011499693
199	0xbd5f9724	-0.0545875
200	0x3dd61f58	0.10455197
201	0xbe8279bf	-0.2548351
202	0xbe303c72	-0.17210558
203	0xbdf6f1b6	-0.120578215
204	0xbe3dd1c5	-0.18537052
205	0xbda0e9e4	-0.07857111
206	0xbdd7a9f4	-0.10530463
207	0xbdc8443d	-0.097786404
208	0xbe403bc2	-0.18772796
209	0xbe07f0d0	-0.13275456
210	0xbd022672	-0.031774946
211	0xbdbf8f88	-0.09353548
212	0x3e0a7d4c	0.1352436
213	0xbc480e1a	-0.012210393
214	0xbe79cca5	-0.24394472
215	0xbe0320cb	-0.12805478
216	0xbdf83af5	-0.1212062
217	0xbe7e33ba	-0.2482442
218	0xbe43a6bc	-0.19106573
219	0xbe40c43d	-0.18824859
220	0xbe0d23e2	-0.1378322
221	0x3e0d488f	0.1379721
222	0x3e0c27c5	0.13687046
223	0xbd4e2563	-0.050328624
224	0x3e0b2f06	0.13592157
225	0xbd9c3a19	-0.07628269
226	0xbe2679b8	-0.1625737
227	0xbde58886	-0.112076804
228	0xbe0b35a4	-0.13594681
229	0xbe2c4780	-0.1682415
230	0xbc31f87b	-0.010862465
231	0xbda96e8b	-0.082730375
232	0xbed80e70	-0.42198515
233	0xbe03d6cc	-0.12874907
234	0xbe43eeda	-0.19134083
235	0x3ea8416f	0.32862422
236	0x3df8140c	0.12113199
237	0xbdca99e7	-0.09892636
238	0x3b1b9106	0.0023737564
239	0xbde8f65a	-0.11375113
240	0x3e34aab2	0.1764324
241	0xbda0e214	-0.07855621
242	0x3db23633	0.08701744
243	0x3e113dca	0.14183727
244	0x3bc64708	0.006050948
245	0x3d97b2e5	0.07407168
246	0xbd0689b8	-0.032846183
247	0x3da27e81	0.07934285
248	0x3d584cb8	0.05280754
249	0xbe27817d	-0.1635799
250	0xbdac8e66	-0.08425598
251	0xbe002474	-0.12513906
252	0xbeb2e34b	-0.34939036
253	0xbdf162fe	-0.117864594
254	0xbdf16f59	-0.11788816
255	0x3e2da444	0.16957194

fc2.weight f4 [256, 258]
0	0xbd4e58c4	-0.050377622
1	0xbe179687	-0.14803515
2	0x3eb99e23	0.3625346
3	0xbee1bf17	-0.44091102
4	0xbc728528	-0.014802255
5	0x3d0ff9cf	0.035150345
6	0xbe8197a6	-0.2531101
7	0x3f0ae351	0.5425311
8	0x3d228422	0.039676793
9	0xbdd6acc1	-0.10482169
10	0xbd5da8e0	-0.05411613
11	0x3d2659ec	0.0406131
12	0xbf32ae64	-0.6979735
13	0xba9d936e	-0.0012022087
14	0x3e8a18ea	0.26972133
15	0xbe7a63ca	-0.24452129
16	0x3e0ef815	0.13961823
17	0x3d1603ba	0.036624648
18	0x3b542c60	0.0032375082
19	0x3d3e4c2b	0.04645936
20	0x3e47f22f	0.1952598
21	0xbe0d7fd3	-0.13818292
22	0xbd95135f	-0.07279085
23	0xba9cabf1	-0.0011953098
24	0x3efaabde	0.4895925
25	0xbf6d3371	-0.9265662
26	0xbcc932ac	-0.024560295
27	0xbee422ae	-0.44557709
28	0x3e273803	0.1632996
29	0x3d8f41b5	0.069949545
30	0xbd06ebd1	-0.032939736
31	0xbe9e1228	-0.30873227
32	0x3bffdc90	0.0078082755
33	0xbe0c4989	-0.13699926
34	0x3e7eec1b	0.24894755
35	0xbe4517e7	-0.192474
36	0x3dc8ac68	0.09798509
37	0xbe20fbe0	-0.15721083
38	0xbd2c1216	-0.042009436
39	0x3e8523e0	0.26003933
40	0x3daf8051	0.08569396
41	0xbe986c93	-0.29770336
42	0x3c6183b3	0.01376431
43	0xbd81e9cb	-0.063434206
44	0xbd9b06c3	-0.07569649
45	0x3d90ff9f	0.07080006
46	0x3d26e911	0.040749613
47	0x3dc8c699	0.098035045
48	0x3c283678	0.010266893
49	0xbd7cf899	-0.06176052
50	0xbca64cd0	-0.020300299
51	0xbefb9391	-0.49136022
52	0x3aa56700	0.0012619197
53	0x3d675d48	0.056485444
54	0xbd855874	-0.06511012
55	0x3e0e8302	0.13917163
56	0xbd1bb876	-0.038017713
57	0xbeccaad4	-0.39974082
58	0x3c46729f	0.012112289
59	0xbd90bac5	-0.070668735
60	0xbd5a0586	-0.053227924
61	0x3d848d9a	0.06472321
62	0xbd73a5da	-0.05948434
63	0x3e1fc86a	0.15603796
64	0xbd4fe94b	-0.050759595
65	0xbd091c10	-0.033474028
66	0x3ce915d0	0.028452784
67	0x3c794b2e	0.015215678
68	0xb8a1d82d	-7.717344e-05
69	0xbd7c6ab5	-0.0616252
70	0xbeb7bfa2	-0.35888392
71	0x3c8f5de0	0.017500818
72	0x3e901534	0.28141177
73	0xbe0248d6	-0.12723097
74	0xbcaa7018	-0.020805404
75	0xbd3fe2d4	-0.04684718
76	0xbd37d9dd	-0.044885505
77	0x3d1dfa9a	0.03856907
78	0xbe49866e	-0.19680187
79	0xbe2d2b86	-0.16911134
80	0xbef925e6	-0.48661727
81	0xbcc2e3e0	-0.0237903
82	0xbe9dd8b6	-0.308294
83	0x3e59a81c	0.21255535
84	0x3d494096	0.04913386
85	0x3c842125	0.016129086
86	0xbd4fdeb7	-0.050749507
87	0xbdf17419	-0.11789722
88	0x3d3d568a	0.04622511
89	0xbea649ef	-0.32478282
90	0x3cd8fe25	0.026488373
91	0xbe2f4ad9	-0.17118396
92	0xbe0098b5	-0.12558253
93	0xbd125a82	-0.035730846
94	0x3d119dc5	0.03555085
95	0x3d2e5c50	0.042568505
96	0xbd4d35e2	-0.050100215
97	0x3e7803b8	0.24220169
98	0xbcfbd5d2	-0.030741606
99	0xbce9979a	-0.028514672
100	0xb8668800	-5.4962933e-05
101	0x3e0c2483	0.13685803
102	0x3d5ab933	0.053399276
103	0x3d6df017	0.058090296
104	0x3f0e9b95	0.5570615
105	0xbcca095f	-0.024662672
106	0x3b151a69	0.0022751337
107	0xbf48ed07	-0.78486675
108	0xbeb8eafe	-0.36116785
109	0xbd7100a8	-0.058838516
110	0xbe4344a1	-0.19069149
111	0xbb574160	-0.0032845363
112	0x3d5f25e1	0.054479484
113	0x3d68dca6	0.05685105
114	0xbc4ce6d4	-0.012506206
115	0x3e6ed621	0.23323871
116	0xbb03c800	-0.0020108223
117	0xbc858de5	-0.016303012
118	0xbe018ceb	-0.12651412
119	0x3d8ae2a6	0.06781511
120	0x3d9700ef	0.07373225
121	0xbcd55e6c	-0.026046
122	0xbe929bcc	-0.2863449
123	0xbe340b80	-0.17582512
124	0xbd35688a	-0.04428915
125	0xbeab7ec5	-0.33495155
126	0x3e192c20	0.14958239
127	0x3f0047bb	0.5010945
128	0x3d7619d6	0.060083233
129	0xbe800469	-0.25003365
130	0x3e737d8b	0.2377836
131	0xbd5b5e17	-0.053556528
132	0xbe30f8a9	-0.17282356
133	0xbeb66841	-0.35626414
134	0xc07d47a8	-3.9574986
135	0x3be818c7	0.007083032
136	0xbc9d7ee1	-0.01922554
137	0x3cda12e4	0.026620336
138	0x3daf89c4	0.085711986
139	0xbf073865	-0.52820426
140	0xbe927ef2	-0.28612477
141	0xbd09982d	-0.03359239
142	0x3d8a360a	0.067485884
143	0xbe981be4	-0.2970878
144	0xbf066590	-0.5249872
145	0xbe924008	-0.28564477
146	0xbf39f7fb	-0.72644013
147	0x3d2110f3	0.039322805
148	0x3d1a1a4a	0.037622727
149	0xbea026c4	-0.31279576
150	0xbf73d9d5	-0.9525426
151	0xbd096672	-0.033544965
152	0x3c905180	0.017616987
153	0xbe8de4b6	-0.27713555
154	0x3e774bf5	0.24150069
155	0xbc5fa066	-0.013649082
156	0xbe2af9da	-0.16696873
157	0xbe5d135c	-0.21589416
158	0xbf3590e9	-0.7092424
159	0x3c358f1d	0.011081484
160	0xbde82188	-0.113345206
161	0x3cb46a25	0.02202327
162	0xbc3efd34	-0.011657048
163	0xbdfacd1d	-0.122461535
164	0xbcd1d196	-0.025612634
165	0xbe150cb1	-0.14555623
166	0xbcf0e150	-0.029404312
167	0xbf8fcbd8	-1.1234083
168	0x3d79c390	0.06097752
169	0x3ea76d72	0.32700688
170	0xbe2fbb55	-0.17161305
171	0xbf86de52	-1.0536597
172	0x3abcdb00	0.0014408529
173	0xbd0fba70	-0.03508991
174	0xbe8e8be6	-0.2784111
175	0xbe91de22	-0.28489786
176	0x3dcec09a	0.100953296
177	0x3d65caed	0.05610173
178	0xbe44e595	-0.19228204
179	0x3e03c7b6	0.12869152
180	0x3b96e2b0	0.00460466
181	0x3d1ec4d4	0.03876193
182	0x3bb5497f	0.005532443
183	0x3cfe7828	0.031063154
184	0xbce83f3b	-0.028350463
185	0x3d1f71bc	0.038926825
186	0xbdf6e9c6	-0.120563075
187	0xbcc44948	-0.023960724
188	0xbd88126f	-0.06644141
189	0x3e1b1ea3	0.15148406
190	0xbd68d8f3	-0.056847524
191	0xbeb76734	-0.35820925
192	0x3d5893af	0.052875217
193	0x3de13301	0.10996056
194	0x3db02471	0.08600701
195	0xbd81f17b	-0.06344887
196	0x3e2dbb3d	0.16965957
197	0x3e85cafe	0.26131433
198	0x3c5c6638	0.013452105
199	0xbe4b346a	-0.19844213
200	0x3e5f14b4	0.21785241
201	0xbe515032	-0.20440748
202	0x3d7f9494	0.062397555
203	0xbcb00909	-0.021488683
204	0xbd7524ab	-0.059849422
205	0x3d30dbf9	0.043178532
206	0x3d9b07bd	0.07569835
207	0xbd495c66	-0.049160384
208	0xb98c9900	-0.00026816875
209	0xbd5243e6	-0.051334284
210	0x3da04448	0.078255236
211	0xbd3145ca	-0.043279447
212	0x3aa7d9e8	0.001280603
213	0x3db37d4c	0.08764133
214	0x3daf2e66	0.08553772
215	0xbd7a167c	-0.0610566
216	0xbe144b23	-0.14481787
217	0xbe89ba87	-0.26900122
218	0x3d1b8ec8	0.037977964
219	0xbcd5c944	-0.026096947
220	0xbd862bca	-0.06551321
221	0xbe0610d3	-0.13092355
222	0x3d392b20	0.045207143
223	0xbe1eeebc	-0.15520757
224	0xbea9ced5	-0.33165613
225	0xbd8471c8	-0.064670146
226	0x3c12d320	0.008961469
227	0x3d5fa950	0.05460483
228	0xbf30f971	-0.6913062
229	0x3c14b4da	0.0090763215
230	0xbd09dce5	-0.033657927
231	0xbea5389b	-0.3226975
232	0xbdce7428	-0.10080749
233	0xbe85ebdd	-0.26156512
234	0x3b392ce9	0.0028255528
235	0x3e87cb91	0.26522496
236	0xbedaae40	-0.42711067
237	0x3d7470fb	0.05967806
238	0xbf1e1767	-0.6175446
239	0xbeea978b	-0.45818743
240	0xbe1b6aa3	-0.15177397
241	0xbd77b8d6	-0.060479008
242	0xbed1a8e0	-0.40949154
243	0x3ec39cee	0.38205665
244	0x3dfd01e1	0.12353874
245	0x3b60b64d	0.0034288347
246	0x3e2ed41a	0.17073098
247	0xbdd5d3ab	-0.10440763
248	0xbea3d9e9	-0.3200219
249	0xbe52c008	-0.20581067
250	0xbc3a4b28	-0.011370458
251	0x3e9fea5d	0.31233492
252	0x3c413bf5	0.01179408
253	0xbc1d9fde	-0.009620635
254	0xbe0251ab	-0.12726466
255	0xbf227607	-0.63461345

fc2.bias f4 [256]
0	0x3e113af8	0.14182651
1	0x3e17fe6c	0.14843148
2	0xbd657cce	-0.056027226
3	0xbd88e948	-0.0668512
4	0x3e211ff7	0.1573485
5	0xbc8895ac	-0.016672932
6	0x3e26afc8	0.16277993
7	0xbcb94071	-0.022613736
8	0x3e0594c0	0.13045025
9	0xbe10c507	-0.1413766
10	0xbd9503dd	-0.072761275
11	0xbd906f16	-0.07052438
12	0xbe20acf6	-0.1569098
13	0x3e3b4517	0.18288074
14	0xbde26ba4	-0.11055687
15	0x3ddc860f	0.10767757
16	0xbda60299	-0.08105964
17	0xbdcd0aea	-0.10011847
18	0xbc97d5a5	-0.01853449
19	0xbdb2435b	-0.08704253
20	0xbddddf90	-0.10833657
21	0xbdda3d17	-0.10656183
22	0xbcc492ea	-0.023995835
23	0xbd2b1b4d	-0.041774083
24	0xbc00cb21	-0.00786093
25	0xbd4f7fd4	-0.050659016
26	0xbd2c2cbe	-0.042034857
27	0xbdc3a4a2	-0.095528856
28	0xbbf72c35	-0.0075431117
29	0xbdab59cd	-0.083667375
30	0xbd75b14c	-0.059983537
31	0xbd848c14	-0.0647203
32	0xbddbff16	-0.10742013
33	0x3ea2963f	0.31755254
34	0xbe00e679	-0.12587918
35	0xbe5a256d	-0.2130334
36	0xbcd5d8d9	-0.026104378
37	0xbdba1362	-0.09085728
38	0xbc9dc01a	-0.01925664
39	0xbd202a99	-0.039103124
40	0xbdf4692b	-0.11934122
41	0xbdfb7db1	-0.12279833
42	0x3e0b5834	0.13607866
43	0xbd6de52d	-0.058079887
44	0xbdbebacd	-0.09312973
45	0xbd019a2a	-0.031641163
46	0xbe2b9016	-0.16754183
47	0xbcbe7095	-0.023247043
48	0xbd9531da	-0.07284899
49	0xbe61b2d1	-0.2204087
50	0xbd1aee9f	-0.037825223
51	0x3d450fae	0.048110656
52	0xbe4bcdf0	-0.19902778
53	0xbdebf8fc	-0.115220994
54	0xbd877a17	-0.06615084
55	0xbd0ff9e6	-0.03515043
56	0xbdb6cb87	-0.089255385
57	0xbd6077a2	-0.05480159
58	0xbdc784d5	-0.097421326
59	0xbd3a4dfa	-0.04548452
60	0xbcd5f819	-0.026119279
61	0xbbd7427f	-0.0065692062
62	0xbe96c1fe	-0.2944488
63	0x3e978670	0.29594755
64	0xbd266059	-0.040619228
65	0x3cf6d7eb	0.030132255
66	0xbe65ce80	-0.22442055
67	0x3e358e8c	0.17730159
68	0x3e0268b8	0.1273526
69	0xbe0c0bb1	-0.13676335
70	0xbc13c691	-0.00901951
71	0x3dcef393	0.10105052
72	0xbd9145ef	-0.07093417
73	0xbce59826	-0.028026652
74	0x3dacc06b	0.08435138
75	0xbdb40494	-0.08789936
76	0x3e2425d0	0.1603005
77	0x3db2367d	0.08701799
78	0xbd28b97f	-0.041192528
79	0x3ea4a25a	0.32155114
80	0x3e8099b5	0.2511727
81	0xbed2c800	-0.41168213
82	0xbdf4b363	-0.11948278
83	0xbdd8f1d4	-0.10593
84	0xbdb5aa76	-0.088704035
85	0xba5bb0a7	-0.000838051
86	0xbd27816a	-0.040894903
87	0xbd5914fc	-0.052998528
88	0xbd1397b2	-0.03603334
89	0xbde215b3	-0.11039295
90	0xbd536bbf	-0.051616427
91	0xbdc123ff	-0.09430694
92	0xbda07c84	-0.078362495
93	0xbc4cad29	-0.0124924565
94	0xbd2e111f	-0.042496797
95	0xbd83f750	-0.064436555
96	0xbdb92ce9	-0.09041769
97	0xbdfdcc60	-0.12392497
98	0xbdbc97ec	-0.09208664
99	0xbcaf4f57	-0.021400137
100	0x3cc5d84f	0.024150996
101	0xbdae0567	-0.08497124
102	0xbd61eea3	-0.055159222
103	0xbd6cf2fc	-0.057848915
104	0xbe9757e4	-0.29559243
105	0xba4c1c64	-0.0007786213
106	0xbd0ad962	-0.03389872
107	0xbd4ad868	-0.049522787
108	0xbd59bcf4	-0.053158715
109	0xbd9fc8d3	-0.07801976
110	0xbdaf5170	-0.08560455
111	0xbda2f556	-0.0795695
112	0xbd4c7679	-0.04991767
113	0x3d945956	0.07243602
114	0xbe004269	-0.12525333
115	0xbeb44353	-0.35207614
116	0x3cd57c31	0.026060196
117	0xbd898971	-0.06715668
118	0xbda2a34e	-0.07941304
119	0xbdb95fb1	-0.09051455
120	0xbd9be4b8	-0.07611984
121	0xbe79ce88	-0.24395192
122	0xbd0e290c	-0.034707114
123	0x3db27f3f	0.087156765
124	0xbe88a274	-0.26686442
125	0xbcaca1ee	-0.021073308
126	0xbd79f327	-0.061022904
127	0xbd8f80ce	-0.070069894
128	0xbdaab6fd	-0.083356835
129	0x3dd69ebf	0.10479497
130	0xbd0bd74a	-0.034140863
131	0x3dc35eb2	0.09539546
132	0xbd9cb3c1	-0.07651473
133	0xbc2a3c28	-0.010390319
134	0x3dbf291c	0.09334013
135	0xbd1afe3f	-0.037840124
136	0xbdbd18d4	-0.09233251
137	0x3d45e303	0.0483122
138	0xbd373d02	-0.044735916
139	0xbdcbde21	-0.09954477
140	0xbda94f65	-0.082670964
141	0xbdd009d5	-0.10158125
142	0xbcd51588	-0.026011243
143	0xbd93a369	-0.072089024
144	0x3c8b7eba	0.017028201
145	0xbc671ec8	-0.01410646
146	0xbd2dc2ff	-0.04242229
147	0xbd80b752	-0.062849656
148	0x3bfa2ea8	0.0076349564
149	0xbdc8c13e	-0.09802483
150	0xbd93a369	-0.072089024
151	0xbea3b399	-0.3197296
152	0x3db26f6b	0.087126575
153	0x3d82734a	0.06369646
154	0xbde1005a	-0.10986395
155	0xbdaa63b4	-0.08319798
156	0xbdf6000d	-0.120117284
157	0xbd419160	-0.04725778
158	0x3ccd838c	0.02508714
159	0xbdc2a6b9	-0.09504456
160	0x3e7c912d	0.24664755
161	0xbddb070e	-0.10694705
162	0xbd180485	-0.037113685
163	0x3e399408	0.18122876
164	0xbda37a26	-0.07982282
165	0xbde891e1	-0.11355949
166	0xbdca88f1	-0.09889401
167	0xbd8ba09a	-0.06817742
168	0xbc9e3a62	-0.019314948
169	0xbd7f3ea4	-0.062315598
170	0xbd936b5c	-0.071982116
171	0x3e7855c8	0.24251473
172	0xbd6a0d87	-0.057141807
173	0xbd34a0d5	-0.044098694
174	0xbd908a6e	-0.07057653
175	0xbdb5f0c6	-0.088838145
176	0xbdb27ad5	-0.087148346
177	0xbd4a5f4f	-0.0494073
178	0xbdcb2e58	-0.09920949
179	0xbdfdb803	-0.12388613
180	0xbdb7ec98	-0.089806736
181	0xbdbc3e13	-0.09191527
182	0xbdb302c4	-0.08740762
183	0x3d270af6	0.040781938
184	0xbdaf1402	-0.08548738
185	0xbdcb74a8	-0.0993436
186	0xbe20cea8	-0.15703833
187	0xbdfe67cb	-0.12422141
188	0xbe668c45	-0.22514446
189	0xbcdb6aa6	-0.026784252
190	0x3d68de19	0.056852434
191	0xbd0a4109	-0.03375343
192	0xbc762a94	-0.0150248
193	0xbd8bac52	-0.06819977
194	0xbdfc7b9a	-0.123282626
195	0xbdd0f5f2	-0.1020316
196	0xbe0cb20b	-0.13739793
197	0xbd775efd	-0.060393322
198	0xbd711598	-0.058858484
199	0xbd8c6fa3	-0.068572305
200	0xbdf2453b	-0.11829611
201	0xbd8829df	-0.06648611
202	0xbd539e87	-0.051664855
203	0xbc04492d	-0.008074087
204	0xbda162fd	-0.07880209
205	0xbdb521bd	-0.08844326
206	0xbd877533	-0.06614151
207	0xbdaa91d0	-0.08328593
208	0xba88cab5	-0.0010436388
209	0xbd24aebf	-0.040205713
210	0xbd688df9	-0.05677602
211	0x3e3a4c0e	0.18193075
212	0xbdbc78e6	-0.09202747
213	0xbda3c7d9	-0.07997102
214	0x3d850fca	0.06497152
215	0xbcf02f1f	-0.029319344
216	0xbdad559f	-0.084635966
217	0xbca97106	-0.020683777
218	0x3e738c27	0.23783933
219	0x3da3643a	0.07978101
220	0x3cac3ee5	0.021026084
221	0x3da18975	0.07887546
222	0xbddc8f9f	-0.10769581
223	0xbd9149d7	-0.07094162
224	0xbdd7f3eb	-0.105445705
225	0x3eb991e5	0.3624412
226	0xbd93ce61	-0.07217098
227	0x3d3d51c2	0.04622055
228	0xbd9b2296	-0.07574956
229	0xbd0b9cb8	-0.034085006
230	0xbd8c44ab	-0.06849035
231	0xbe8d96e6	-0.2765419
232	0xbd8b0c2a	-0.067894295
233	0xbd9c80f9	-0.07641787
234	0xbb7efbd6	-0.003890743
235	0xbc4e93ea	-0.012608508
236	0x3e5ef59f	0.21773385
237	0xbe2b180d	-0.16708393
238	0xbdbbc284	-0.0916796
239	0xbe262f37	-0.16228949
240	0xbda7c7ba	-0.08192392
241	0xbdb4af34	-0.0882248
242	0x3bc110bf	0.005891889
243	0xbd7697c5	-0.060203332
244	0xbd72a409	-0.059238467
245	0x3dd4648b	0.103707395
246	0xbd82af83	-0.063811325
247	0xbdd7b182	-0.10531904
248	0x3df7279f	0.12068104
249	0xbdaea665	-0.08527831
250	0xbd8c96b3	-0.06864681
251	0xbdf301ca	-0.118655756
252	0xbe99db6e	-0.30050224
253	0xbe4aa58d	-0.19789715
254	0xbdce85d3	-0.10084119
255	0xbe84abb1	-0.2591224

fc3.weight f4 [128, 256]
0	0x3e99e9c9	0.30061176
1	0xbe75c431	-0.24000622
2	0x3c3d43cb	0.011551808
3	0x3cd4a057	0.025955362
4	0x3e11693f	0.14200304
5	0xbc70cb2d	-0.014696878
6	0xbea237b2	-0.31683117
7	0x3b8cc1ab	0.004295548
8	0x3e92788a	0.2860759
9	0xbcc6aa13	-0.02425102
10	0x3e80a1c5	0.2512342
11	0xbdaf8ff0	-0.08572376
12	0xbd0aefc8	-0.03392008
13	0x3d9737e8	0.0738371
14	0x3d7d42d2	0.061831303
15	0x3dda334a	0.10654314
16	0x3d5bcc4e	0.053661637
17	0x3dbee9ae	0.093219146
18	0x3d03b154	0.032151535
19	0xba5a6180	-0.00083305687
20	0xbcaa408b	-0.02078273
21	0x3d9dcd01	0.07705117
22	0x3dbcbb13	0.09215369
23	0xbda287f5	-0.07936088
24	0xbc35ae5d	-0.011088935
25	0xbc60065a	-0.013673389
26	0xbc4ebc83	-0.012618187
27	0xbd0203a2	-0.031741746
28	0xbda356fd	-0.07975576
29	0xbc74ea12	-0.014948385
30	0xbd24f8f7	-0.040276494
31	0xbda73349	-0.08164079
32	0xbd6fe4e6	-0.058567904
33	0xbe5f9520	-0.2183423
34	0xbd6d0e55	-0.057874996
35	0xbe43e1fd	-0.19129176
36	0x3ccb1eb7	0.02479492
37	0x3c90059e	0.017580803
38	0xbdebe063	-0.11517408
39	0x3e4b62fd	0.1986198
40	0xbc0b9a28	-0.00852064
41	0x3c277d82	0.0102227945
42	0xbe7a5b19	-0.24448813
43	0x3da527d7	0.080642395
44	0x3d7dcf72	0.061965413
45	0xbc3aea39	-0.011408382
46	0xbea5729e	-0.32314008
47	0xbd9721f3	-0.07379522
48	0xbca01ec3	-0.019545918
49	0xbf1d901d	-0.61548024
50	0x3db34914	0.08754173
51	0x3cbfa714	0.023395099
52	0x3d60f7d3	0.054923844
53	0xbce54236	-0.027985673
54	0xbcc1ef20	-0.023673594
55	0xbd8dc763	-0.069227956
56	0x3d0468eb	0.03232662
57	0x3dca7e8f	0.098874204
58	0xbd1b4c5f	-0.03791463
59	0x3d84e9d5	0.064899124
60	0x3da6ecf9	0.08150668
61	0x3d3a60c5	0.045502443
62	0xbe9d6fb6	-0.3074929
63	0x3eaf8845	0.34283653
64	0x3d35b62e	0.044363193
65	0xbe14c8fc	-0.14529794
66	0xbe0e7bee	-0.13914463
67	0xbea8e16a	-0.32984477
68	0xbe6cc07b	-0.231203
69	0x3e104fac	0.14092892
70	0xbd22dde5	-0.039762396
71	0xbe6f42ab	-0.23365276
72	0xbdad559e	-0.08463596
73	0xbd312249	-0.043245587
74	0x3d11da48	0.03560856
75	0x3d58e61c	0.052953824
76	0x3d78cf39	0.060744498
77	0xbc016e38	-0.007899813
78	0x3d599a94	0.053125933
79	0x3e2daea5	0.16961153
80	0x3ea53762	0.32268816
81	0xbf4bac94	-0.7956021
82	0x3d9c0faf	0.07620179
83	0x3da2cd6f	0.079493396
84	0xbc840f13	-0.01612047
85	0x3cde4001	0.027130129
86	0x3d894320	0.06702256
87	0x3d7d3332	0.0618164
88	0x3c060ecd	0.00818224
89	0xbd19bded	-0.037534643
90	0x3d5b5336	0.053546153
91	0xbc28833a	-0.010285193
92	0x3d956c72	0.07296075
93	0x3c82b36b	0.015954694
94	0x3d9b7758	0.075911224
95	0x3d8b75a1	0.06809545
96	0xbdbe7864	-0.093003064
97	0xbf5fcd9b	-0.87423104
98	0xbd565da9	-0.052335415
99	0x3d95013a	0.072756246
100	0x3e1a671e	0.15078399
101	0x3db68537	0.089121275
102	0x3cb377f3	0.021907782
103	0xbd35f4ad	-0.044422794
104	0xbee34448	-0.44388032
105	0x3ee4717f	0.4461784
106	0x3c043df3	0.0080714105
107	0x3ddec9f0	0.1087836
108	0xbda8545b	-0.082192145
109	0xbd7860cd	-0.06063919
110	0xbd0b80a3	-0.034058224
111	0x3d645bbd	0.05575155
112	0xbd352d74	-0.0442328
113	0xbf238820	-0.63879585
114	0xbd014052	-0.03155548
115	0xbecf2f15	-0.40465608
116	0x3dfe9ce4	0.12432268
117	0xbd6fcd76	-0.058545552
118	0x3d8d4e4c	0.068996996
119	0xbdc0416f	-0.093874805
120	0xbcd2cf7e	-0.025733706
121	0x3d96ecde	0.073693976
122	0xbcf9b88f	-0.030483512
123	0x3b0d5bbf	0.0021569578
124	0xbe01bf51	-0.12670638
125	0xbc53a657	-0.0129180765
126	0x3da18df5	0.07888404
127	0xbd4fe94c	-0.0507596
128	0x3d4b4d98	0.049634546
129	0x3f066259	0.52493817
130	0xbd438561	-0.047734622
131	0xbc0d19e7	-0.008612133
132	0xbce5e645	-0.028063903
133	0xbf1be17c	-0.60890937
134	0x3f0466e7	0.51719517
135	0xbd83306a	-0.064057186
136	0x3ce46894	0.027881898
137	0x3e63ef16	0.22259173
138	0x3dcc4878	0.0997476
139	0xbaed7500	-0.0018116534
140	0xbd765943	-0.06014372
141	0xbd4bb1e7	-0.049730208
142	0xbd054795	-0.03253897
143	0xbce73250	-0.028222233
144	0x3abc6c94	0.001437562
145	0x3d38a817	0.045082178
146	0x3c70562e	0.014668984
147	0x3eee5131	0.4654632
148	0xbe07b174	-0.13251287
149	0x3cb50a4d	0.022099638
150	0xbaef0255	-0.0018234948
151	0x3d04c0b4	0.03241034
152	0xbe885605	-0.26628128
153	0xbd83c4f4	-0.0643405
154	0x3d82ee03	0.063930534
155	0xbc8d0413	-0.017213857
156	0xbe0139d1	-0.12619711
157	0x3ced0a6c	0.028935634
158	0xbe42eaa3	-0.1903482
159	0x3db29563	0.087198995
160	0xbe59b79a	-0.21261445
161	0x3da8d543	0.082438014
162	0x3d0f889d	0.035042394
163	0x3eaf5f97	0.34252617
164	0xbd9721f4	-0.07379523
165	0xbc6a85e1	-0.014314146
166	0x3eadce03	0.33946237
167	0xbd9f7ab3	-0.07787075
168	0x3e1f113a	0.15533915
169	0x3db0ad19	0.08626766
170	0xbc11112e	-0.008854194
171	0x3e4cfc4c	0.20018119
172	0xbba35de9	-0.00498556
173	0xbd5d8d87	-0.05409005
174	0xbd119fc7	-0.035552766
175	0xbd7a29d7	-0.061075058
176	0x3e28fc42	0.16502479
177	0x3db306ab	0.08741506
178	0x3e02f1ea	0.12787595
179	0x3d91343b	0.0709004
180	0x3da6f681	0.08152486
181	0xbd0ce4d3	-0.03439791
182	0x3debaadb	0.115071975
183	0x3e8051d1	0.2506242
184	0xbd85e44f	-0.06537687
185	0x3d292362	0.04129351
186	0xbba9a86e	-0.005177549
187	0x3d57e832	0.052711673
188	0xbec291f6	-0.38001984
189	0xbd02c30b	-0.03192429
190	0x3ca4e1d5	0.020127216
191	0x3d039214	0.032121733
192	0xbd4e8487	-0.050419357
193	0xbd93ab38	-0.07210392
194	0x3c173d4b	0.009230922
195	0xbeaa52fe	-0.33266443
196	0xbdc0e57f	-0.09418773
197	0x3ba10153	0.004913488
198	0x3c23fef6	0.010009518
199	0x3db4b845	0.08824209
200	0x3ded32ef	0.115819804
201	0x3c2dcace	0.010607434
202	0x3cb61bbe	0.022230025
203	0x3e0d47d9	0.13796939
204	0x3d60065a	0.054693557
205	0x3d7612f3	0.060076665
206	0x3d887fcf	0.066650026
207	0x3cfa358f	0.030543117
208	0x3ecab5cd	0.39591828
209	0xba71f829	-0.0009230399
210	0x3de405cc	0.11133918
211	0x3d6947f5	0.05695339
212	0xbe0e4ed4	-0.13897258
213	0xbc9494a4	-0.018137284
214	0x3d43ebf3	0.04783244
215	0x3df1f829	0.11814911
216	0xbd3544e5	-0.044255156
217	0x3e19bdac	0.1501376
218	0xbdee9992	-0.11650385
219	0x3e9c565e	0.30534643
220	0x3cbcaa86	0.02303053
221	0xbc3ab163	-0.011394831
222	0xbd78ca45	-0.060739774
223	0x3d7bac90	0.061443865
224	0xbd9d4061	-0.07678295
225	0xbc15a239	-0.009132915
226	0xbdc830b5	-0.09774915
227	0xbd832dec	-0.06405243
228	0xbe93ebed	-0.28890935
229	0xbec2bf4e	-0.3803658
230	0xbd0be6ea	-0.034155764
231	0xbebf6689	-0.37382916
232	0xbc81637a	-0.015794504
233	0xb9ae5f40	-0.00033258833
234	0x3d57ba0c	0.052667663
235	0xbd966509	-0.0734349
236	0xbf004389	-0.5010305
237	0xbddd2660	-0.10798335
238	0x3ea30052	0.31836182
239	0x3da2e9d2	0.07954754
240	0xbd5d58cc	-0.05403976
241	0x3e18cc42	0.14921668
242	0xbdfc9556	-0.12333171
243	0xbd801a5e	-0.06255029
244	0x3d7766cc	0.06040077
245	0x3d84458e	0.06458579
246	0xbd578a71	-0.052622262
247	0x3d84ab54	0.06477991
248	0x3e19707b	0.14984314
249	0xbcfae090	-0.030624658
250	0x3e00e679	0.12587918
251	0x3a9a0056	0.0011749368
252	0x3f7f1baf	0.99651617
253	0xbe1a8613	-0.15090208
254	0xbbcbde20	-0.0062215477
255	0xbd934e04	-0.07192615

fc3.bias f4 [128]
0	0xbe65a7c8	-0.22427285
1	0x3e892c3b	0.26791558
2	0xbe25f2f9	-0.16205968
3	0xbdddd771	-0.10832108
4	0xbd8157c2	-0.063155666
5	0xbe02c0e9	-0.12768902
6	0xbe19602e	-0.14978096
7	0xbe5a8815	-0.21340974
8	0xbd09e90a	-0.03366951
9	0x3e2c9d3d	0.16856857
10	0xbda3187e	-0.07963656
11	0xbe13eda1	-0.14446117
12	0xbe15222a	-0.14563814
13	0xbdec69f5	-0.11543647
14	0x3e8caa44	0.27473652
15	0xbdeec3d6	-0.116584465
16	0xbdc156c8	-0.0944038
17	0xbe0aa801	-0.13540651
18	0xbe0f4a1d	-0.13993116
19	0xbe2ce181	-0.16882898
20	0xbe2f8ff1	-0.17144753
21	0xbdf4421b	-0.11926671
22	0xbe1cc361	-0.15308906
23	0xbdd6acbb	-0.104821645
24	0xbd9fdc5b	-0.07805701
25	0xbdf7ad1d	-0.120935656
26	0xbdc327a1	-0.09529043
27	0xbda504b0	-0.08057535
28	0xbd6beafa	-0.057597138
29	0xbe2bd88c	-0.16781825
30	0xbdff3c7d	-0.12462709
31	0x3e656ef7	0.22405611
32	0xbde2dcec	-0.11077294
33	0x3ea61b67	0.3244278
34	0xbd9ca235	-0.07648126
35	0xbda3204e	-0.07965146
36	0x3d8d3244	0.06894353
37	0xbe2c924e	-0.16852686
38	0xbd8c8bc1	-0.068625934
39	0x3e5a7f10	0.21337533
40	0xbd8a5c61	-0.06755901
41	0xbdf6baed	-0.12047372
42	0xbe187d9d	-0.14891668
43	0xbe091c10	-0.13389611
44	0x3c8e08ac	0.01733812
45	0xbdec4334	-0.115362555
46	0xbde25c03	-0.11052706
47	0xbd8ac9ec	-0.06776795
48	0xbd3a2302	-0.045443542
49	0xbd8e05e4	-0.06934717
50	0xbde70757	-0.11280697
51	0xbd52c8ff	-0.051461216
52	0xbdd05a94	-0.101735264
53	0xbe3e7398	-0.18598783
54	0xbdd24e1b	-0.10268804
55	0xbe3f0eba	-0.18657961
56	0xbe0e8eae	-0.13921615
57	0xbe0fc71e	-0.14040801
58	0x3e22f353	0.15913133
59	0xbd2f24fd	-0.042759884
60	0xbdc74655	-0.09730212
61	0x3e562079	0.20910825
62	0xbddfac81	-0.109215744
63	0xbdade6c7	-0.08491283
64	0xbd1eb2fd	-0.038744915
65	0xbe14c47a	-0.14528075
66	0xbe2e82d8	-0.170421
67	0xbe42c350	-0.19019818
68	0xbdd78a72	-0.10524453
69	0xbe1c5fe0	-0.15270948
70	0x3d88b0bd	0.06674335
71	0xbe02d9fe	-0.1277847
72	0xbddb66be	-0.10712956
73	0xbd9fe813	-0.078079365
74	0x3d92dc89	0.0717097
75	0x3c3876b9	0.011258774
76	0x3d71aa8b	0.059000533
77	0xbe5112ce	-0.2041733
78	0xbe2195a3	-0.15779738
79	0x3dcface8	0.10140401
80	0xbdd056ac	-0.10172781
81	0xbdc06cdc	-0.09395763
82	0xbd3b20ea	-0.045685686
83	0x3e1a2719	0.15053977
84	0xbe1b728c	-0.15180415
85	0xbe3e0ba8	-0.18559134
86	0xbde732e1	-0.11289001
87	0xbe0f03cd	-0.13966294
88	0xbda71409	-0.08158118
89	0xbdc67f4c	-0.09692249
90	0x3d9d5254	0.076817185
91	0xbe12c055	-0.14331181
92	0xbddf2de6	-0.10897426
93	0xbd6262a3	-0.05526985
94	0xbe2575f8	-0.16158283
95	0xbd9d05c9	-0.07667119
96	0xbd0c9d24	-0.03432955
97	0x3d9607f2	0.07325734
98	0x3e009535	0.12556918
99	0x3e5e3244	0.21698862
100	0xbe73355d	-0.23750825
101	0xbe003a99	-0.12522353
102	0xbde6ead5	-0.112752594
103	0xbd60e8e0	-0.054909587
104	0xbdbca78c	-0.092116445
105	0xbdce5b85	-0.1007605
106	0x3cbd1841	0.023082854
107	0xbdde90e6	-0.10867481
108	0xbe15ca33	-0.14627914
109	0xbddd2fc7	-0.108001284
110	0xbdcce349	-0.10004289
111	0xbe06e760	-0.131742
112	0xbe09db79	-0.13462628
113	0xbe0d1f6c	-0.13781518
114	0x3e22be35	0.1589287
115	0xbdef17ac	-0.11674437
116	0xbdb25671	-0.08707894
117	0x3c27977b	0.010228987
118	0xbe2a7d32	-0.1664932
119	0xbe173964	-0.14767987
120	0xbe0fb22e	-0.14032814
121	0xbdb1ca43	-0.086811565
122	0x3c80d0e7	0.015724612
123	0xbdb4eb0d	-0.08833895
124	0xbddce977	-0.107867174
125	0xbe05d81d	-0.13070722
126	0xbe07a50f	-0.13246559
127	0xbdd42b28	-0.10359794

fc4.weight f4 [1, 128]
0	0xbd57857c	-0.052617535
1	0xbdb98a45	-0.09059576
2	0x3cb479c5	0.02203072
3	0x3c9246b5	0.017855981
4	0x3c5d4736	0.013505748
5	0x3a9c85c6	0.0011941723
6	0xbca3cc2f	-0.019994823
7	0xbc5f1fe1	-0.01361844
8	0xbdf38d6c	-0.118922085
9	0xbdd49b34	-0.10381165
10	0x39de1257	0.00042356804
11	0x398f712e	0.0002735941
12	0xbd21f95e	-0.039544456
13	0x3d98b9ec	0.07457337
14	0xbd96f108	-0.07370192
15	0x3c707d3e	0.014678298
16	0xbc3fdbde	-0.011710135
17	0x3c4a2198	0.012337111
18	0xbc2e5387	-0.010640032
19	0x3d3e8a0b	0.046518367
20	0xbb8bd72b	-0.0042675934
21	0xbd1b254f	-0.037877377
22	0xbbb427bd	-0.0054979012
23	0xbca02d5e	-0.019552883
24	0x3bd3f477	0.0064683515
25	0xbc58fd8b	-0.013244043
26	0xbc16a10c	-0.00919367
27	0xbb83400b	-0.0040054373
28	0xbd8c3777	-0.068465166
29	0x3a008881	0.0004903153
30	0xbde96595	-0.11396328
31	0xbd9232a9	-0.07138569
32	0x3b43eeda	0.0029897005
33	0x3d92a7b3	0.07160892
34	0xbc3f8392	-0.011689084
35	0x3c2ae885	0.010431414
36	0x3e1ecc70	0.15507674
37	0xbaec4333	-0.0018025398
38	0xbd31eb76	-0.043437444
39	0x3d72e4ad	0.059300113
40	0x3c78704e	0.015163494
41	0x3c8b46c2	0.017001513
42	0x3b945719	0.0045269844
43	0xbb5d9556	-0.0033810935
44	0xbdca7861	-0.09886242
45	0xbae79faf	-0.0017671491
46	0x3cb41fec	0.021987878
47	0x3cc47059	0.023979353
48	0xbd266ff8	-0.040634125
49	0x3b22c28e	0.0024835202
50	0x3b58af6b	0.0033063542
51	0xbd8e7ec1	-0.0695777
52	0x3c446055	0.011985858
53	0xbd860852	-0.06544556
54	0xbe2a85f9	-0.16652669
55	0x3d9a7888	0.07542521
56	0x3d14864a	0.03626088
57	0x3ae292b4	0.0017286153
58	0x3d8811aa	0.06643994
59	0x3e4564d4	0.19276744
60	0xbbe05092	-0.006845542
61	0xbd88d738	-0.06681675
62	0xb95a39f5	-0.00020811691
63	0x3c1a2de7	0.009410358
64	0x3e0666cb	0.1312515
65	0x3bf59943	0.007495077
66	0x3ddcee78	0.10787672
67	0xbbee08d1	-0.0072642346
68	0xbc930ef9	-0.017951475
69	0x3bcdc6bf	0.006279796
70	0xbd973636	-0.07383387
71	0x3d429bdd	0.047511924
72	0xbb977bcc	-0.004622912
73	0x3c8a6431	0.016893478
74	0x3d3fbfde	0.04681384
75	0xbd36d46f	-0.044636186
76	0x3e6bf9b8	0.23044479
77	0x3d407fef	0.046997007
78	0x3d8233da	0.06357546
79	0xbd6bb140	-0.057542086
80	0x3cc9366e	0.024562087
81	0xbdfdc120	-0.12390351
82	0xbd62c193	-0.055360388
83	0x3e73ec89	0.238207
84	0xbc8aa913	-0.016926324
85	0xbbe8e345	-0.0071071708
86	0x3cef0b98	0.029180333
87	0xbcc5c39a	-0.024141122
88	0xbcd9e404	-0.026597984
89	0xba34f4f9	-0.0006902959
90	0xbe593f7c	-0.21215624
91	0x38d37780	0.00010083523
92	0xbaaebdd4	-0.001333172
93	0x3e24322c	0.16034764
94	0x3b28739b	0.0025703672
95	0xbcb84e40	-0.02249825
96	0x3d759611	0.059957568
97	0xbd84ed7c	-0.06490609
98	0xbdb48682	-0.08814718
99	0x3e287936	0.16452488
100	0x3d90afe0	0.070647955
101	0xbc18950d	-0.00931288
102	0xbdf7554d	-0.12076817
103	0xbba8d1f4	-0.0051519815
104	0x3b9341c0	0.004493922
105	0x3c97720c	0.018486999
106	0x3df97098	0.12179679
107	0x3c9d0729	0.019168453
108	0x3c3b4be3	0.011431667
109	0xbca650b9	-0.020302163
110	0x3dabfdfe	0.083980545
111	0x3a5bb8b6	0.0008381711
112	0xbcb06e99	-0.021537112
113	0x3bcda342	0.0062755654
114	0x3df16558	0.11786908
115	0xbd32d823	-0.043663155
116	0xbc49a38f	-0.012307062
117	0xbe20e228	-0.15711272
118	0x3d62895c	0.055306777
119	0xbcb39734	-0.021922685
120	0x3e41dd7b	0.18932144
121	0x3c44d93a	0.0120146815
122	0xbdd1e766	-0.10249214
123	0x3c3d2c5b	0.01154622
124	0x3b9ebb4a	0.004844104
125	0xbcb0b8d1	-0.021572502
126	0x3bb613ed	0.0055565746
127	0x3c5e9340	0.013584912
