multi_agent/Multi_checkpoint_critic_30_20_target_2500_run3.pth (torch, 425167 bytes, 7 tensors)

fcs1.weight f4 [256, 24]
000000 db e0 c9 3e 82 6c cc 3d ea 4c 5e 3c 75 3d b4 be
       0.39429364 0.09981634 0.013568142 -0.35203138
000010 36 16 ed 3d d4 0f 4f be 8b 72 91 3b 17 e5 b2 be
       0.11576502 -0.20220882 0.0044387034 -0.34940407
000020 31 e9 9b 3e f0 1a 89 3d 4f c6 9e be 73 a3 88 bd
       0.30451348 0.06694591 -0.31010672 -0.066718005
000030 28 c7 b8 3d 6b 68 64 be c3 0c 9a be ca 8c 82 bd
       0.09022361 -0.22305457 -0.3008786 -0.0637451
000040 81 cd 4e 3e a3 8b cf bd bd 72 5d be af bc 0f be
       0.20195581 -0.101340555 -0.216258 -0.14036821
000050 76 a6 df 3d 8c e5 d1 bd 58 38 48 be f6 2f 01 be
       0.10920422 -0.10248861 -0.19552743 -0.12615952
000060 3b f3 d2 3d f4 4d 08 be 15 e7 53 bc a9 26 42 3d
       0.10300299 -0.13310987 -0.012933512 0.04740015
000070 29 67 47 bf d2 10 f0 be df 1e 6a 3d e9 fd 60 3c
       -0.77891785 -0.46887833 0.057158347 0.013732412
000080 f2 19 7b bd 54 b2 65 be 1c 32 43 bd 92 99 b6 bc
       -0.06130404 -0.22431308 -0.04765521 -0.022290025
000090 10 ca 8d be 7b d4 14 3f 49 70 c5 3c d6 7c 11 bd
       -0.27693224 0.5813672 0.024101393 -0.035519443
0000a0 40 8a 77 3d 93 61 95 be 3e 23 b1 3c de c7 34 3e
       0.06043458 -0.29176006 0.02162325 0.17654368
0000b0 ef b2 8f 3e 1e 8f da 3f 26 86 a3 bd c6 2f 5b 3e
       0.28066203 1.7074926 -0.07984571 0.21404943
0000c0 a4 20 3d 3d 7c 6f c6 3c c6 fb 2c bd 66 11 ac 3b
       0.046173707 0.024223082 -0.042232297 0.0052510975
0000d0 d1 2a ba bc ed f2 50 bd cb b5 c6 3c 24 cb c7 bc
       -0.022725495 -0.051012922 0.024256608 -0.024388857
0000e0 6c 03 a0 3d 92 39 6b bd 9d 8e 8e 3b d9 17 fd 3a
       0.07813153 -0.05742795 0.004350497 0.0019309475
0000f0 8e e5 dc bb 00 d3 1c 3d bb 45 76 bc f8 42 c3 3c
       -0.0067412322 0.038287163 -0.0150312735 0.023835644
000100 dc 14 a1 3d 92 d6 02 bd e0 c4 4a bd 77 e7 87 bd
       0.07865307 -0.03194291 -0.04950416 -0.06635945
000110 58 66 a5 3c b2 f4 fc bb 30 cb 1c 3c 69 b0 5f bc
       0.020190403 -0.0077195996 0.009569928 -0.013652899
000120 42 9b 31 3e ab 69 63 3e b5 22 d8 3c ae 53 dd be
       0.17344382 0.22208278 0.026383737 -0.43227905
000130 3a 80 9d 3e 61 89 66 be e8 9b 2d 3d 7c ee d6 be
       0.30761892 -0.22513343 0.042385012 -0.41978824
000140 c0 e5 18 3e 69 c6 08 3e fd 86 0c 3e a1 04 98 3e
       0.14931393 0.13356937 0.13723369 0.29691032
000150 45 2a 1a 3e bc d6 35 3d 5d a1 1c 3e 94 4b a7 3e
       0.15055187 0.04439424 0.1529593 0.3267485
000160 ca 5b 95 3e 81 55 44 3e e5 51 23 be e5 69 3a bf
       0.29171592 0.19173242 -0.15949209 -0.7281783
000170 a7 38 c4 be f8 aa 95 3f 2a e2 0b be 07 2e 21 bf
       -0.38324472 1.16928 -0.13660493 -0.6296086
000180 1e 19 3a 3d b0 90 e4 3b ac a5 f9 3c 28 36 78 bc
       0.04543411 0.006975256 0.030474506 -0.015149631
000190 8c 67 ce 3c aa cb 2b 3d b6 c7 17 3d c4 36 63 bc
       0.02519586 0.041942276 0.037055694 -0.013868038
0001a0 9c d0 95 3c 54 b5 79 3d c0 70 4b bc d6 82 23 bd
       0.01828795 0.060963944 -0.012417018 -0.039919697
0001b0 06 90 5e 3d 96 23 01 3d 28 3e 75 3d 98 50 bf bc
       0.05433657 0.031528078 0.05987373 -0.02335386
0001c0 b0 cc 6e 3c ae ee 20 bd 9b c9 44 bd c0 a6 30 bc
       0.0145751685 -0.039290123 -0.04804383 -0.010781944
0001d0 e2 24 24 bd be 44 62 3d d6 51 65 3c 1c a6 9a bc
       -0.040074237 0.05524134 0.013996562 -0.018878035
0001e0 73 7a 09 3d d1 38 0f be 6f 03 13 3c b3 76 98 3d
       0.033564042 -0.13986517 0.008972987 0.07444515
0001f0 10 54 b9 3e e9 f9 4f 3f 06 40 0e bd c2 8c 2b 3c
       0.36196947 0.8124071 -0.034729026 0.010470571
000200 32 44 d1 3c 97 f2 5d be b9 7b 96 3c 88 d3 b7 bd
       0.025545213 -0.21674572 0.018369542 -0.08975893
000210 85 54 3c 3e 44 15 7e 3e 96 02 a2 bc 30 92 de bc
       0.18391617 0.248128 -0.019776624 -0.027169317
000220 e1 bc 39 3e e9 66 48 be 2d de 2f bc 80 96 0b be
       0.18138458 -0.19570507 -0.010734123 -0.1363163
000230 ac 3b d0 be a6 a6 10 c0 86 0c 2d 3d f6 39 ed bd
       -0.40670526 -2.2601714 0.04224827 -0.11583321
000240 f3 17 d6 bc cc 2c e5 bc 0d 51 16 3b 08 c0 b3 bc
       -0.026134467 -0.027975462 0.0022936494 -0.021942154
000250 0a 4c 9b 3f d6 42 a6 3e 54 8c 55 bc f0 33 3b bd
       1.213258 0.32472867 -0.013033945 -0.04570383
000260 61 59 b6 3d e6 8f 9c bc 06 07 41 bc f4 5b 33 39
       0.089037664 -0.019111585 -0.01178146 0.00017105025
000270 5c bd 7b 3e a6 e6 57 3e 24 a8 8c bc 8f 2b 67 3c
       0.24583954 0.21084079 -0.01717002 0.014109506
000280 96 5b b3 3d c2 98 61 bd 81 3f 3c bb 43 5b 14 3c
       0.08757703 -0.05507732 -0.0028724375 0.009054962
000290 71 5c ab bf 99 0a 8b 3d a5 f1 66 bc 54 29 b4 3d
       -1.3387586 0.06789131 -0.0140956985 0.08796945
0002a0 04 86 67 3e 97 51 bf be 65 d8 83 3b a5 40 2f 3d
       0.22609717 -0.37366936 0.004023599 0.04278626
0002b0 8a db 13 3f 8c b2 84 be 0b d5 3f bd 9b 37 9a 3d
       0.57756865 -0.2591747 -0.046834033 0.07530137
0002c0 10 96 cf 3e 8c 24 db be 3e 01 b5 3d 58 92 ad bc
       0.40544176 -0.4280132 0.088381276 -0.021187946
0002d0 43 2e da 3e dd c2 ef be f6 bf 54 3d 4a 80 8c 3d
       0.4261342 -0.46828356 0.05194088 0.06860407
0002e0 e2 bc e8 3e 04 69 d1 be 70 f7 35 3c 29 3e 75 3e
       0.45456606 -0.40900433 0.011106357 0.23949493
0002f0 58 26 00 3f 06 86 b7 bf 99 06 46 3d 97 cd 78 3e
       0.5005851 -1.4337776 0.048346136 0.24297176
000300 76 99 bf 3c 1b 3c f5 bc a9 0d b9 3c 56 f5 22 3c
       0.023388606 -0.029935887 0.022589521 0.009946188
000310 5e 86 4a bd 62 45 95 bc 87 e1 24 bd af 49 4b bd
       -0.04944455 -0.01822156 -0.040254142 -0.049630817
000320 75 9f be 3c bc 6c 5a 3d 0d 01 23 bc 8b 46 a9 3b
       0.023269394 0.053326353 -0.009948981 0.00516588
000330 44 75 63 3d 5d 42 2b bd 24 03 22 bd 5b 82 d9 bc
       0.055531755 -0.041811336 -0.039553776 -0.026551416
000340 ff f1 65 3d e7 fa 5d bd d8 3d 93 bc 65 ce 5a 3d
       0.05613899 -0.054194357 -0.017973825 0.05341949
000350 56 95 5d bd c7 83 a4 bb 88 b9 39 bc f5 92 19 bd
       -0.054097496 -0.005020592 -0.011335738 -0.037493665
000360 0e 2d c6 bc 04 7c 81 3d 0f 5a bf 3b 67 f8 f0 bd
       -0.024191406 0.06322482 0.0058395932 -0.11766129
000370 9f d1 94 3e 74 47 59 be 48 23 e0 bc 09 21 b8 bd
       0.29066178 -0.21218663 -0.027360573 -0.08990676
000380 e9 09 8d 3d 45 55 8f bc 7e 75 eb bc 93 49 3c bd
       0.06886656 -0.017496714 -0.028742548 -0.045968603
000390 22 af cf 3e 9e 77 9d be c9 0f ac 3c e4 04 fb bd
       0.40563303 -0.30755323 0.02100362 -0.12256792
0003a0 c2 4c 4e 3e a7 2f 09 3e 3f 26 28 3e 18 f6 3d 3f
       0.20146468 0.13397084 0.1642084 0.74203634
0003b0 0e 44 b8 3e ae de 16 c0 d6 a9 08 3e 21 ab 34 3f
       0.35989422 -2.3573413 0.13346037 0.7057362
0003c0 88 ae 42 bc 29 8f 8a 3b f8 cb 41 bd 73 57 75 bc
       -0.011882432 0.004228492 -0.04731366 -0.014974463
0003d0 3b 9f 95 bd 14 1c d0 3b a6 1f b6 bc ab b2 6b 3d
       -0.073057614 0.0063510034 -0.022231888 0.057543438
0003e0 75 f5 5a 3d 01 ef 09 3d 5d 31 b5 bb f0 1f fb 3c
       0.053456742 0.033675198 -0.005529566 0.030654877
0003f0 e6 dd 22 bd 22 15 1f 39 d8 2c 9d 3c 57 7f ef 3c
       -0.0397624 0.00015171294 0.019186422 0.029235525

fcs1.bias f4 [256]
000000 9c 84 eb be 72 fe cb bd 13 b0 c5 bd 09 cc d9 bd
       -0.4599961 -0.09960641 -0.09652724 -0.1063462
000010 17 bc 4f be 24 e2 3b 3e e0 12 f4 3d ea 52 11 bd
       -0.20286594 0.18347985 0.119176626 -0.035479464
000020 fd 7e 8e bd ba 79 0d 3c 71 24 4c be 73 6d d1 3d
       -0.06957815 0.008634979 -0.19935776 0.10225954
000030 eb 4a 9c 3d 75 bd ef be 71 97 ab 3d f3 25 d8 be
       0.07631477 -0.46824232 0.083784945 -0.42216453
000040 c5 71 c7 3d f2 90 7d bd 0e 9e 3d be 03 9c 67 3e
       0.09738497 -0.06190581 -0.18517324 0.22618107
000050 96 cb dc 3c f8 65 85 be 39 fb 58 be 75 b5 0b bf
       0.026952546 -0.26054358 -0.21189584 -0.54573756
000060 6a 47 49 bd 81 e1 c2 3c dc 9a 23 be c2 29 c3 3e
       -0.04914037 0.02378917 -0.15977043 0.38117796
000070 0c 27 03 3e 79 99 a3 3d 3b 55 fa 3c e1 47 51 be
       0.12807864 0.07988257 0.03055822 -0.20437576
000080 63 a2 fe bd 73 25 1e be a6 ec 37 be f1 fe 5d bd
       -0.124333166 -0.15443973 -0.17961368 -0.05419821
000090 23 87 28 be 43 41 78 be 02 30 16 be 8d 61 a6 be
       -0.164578 -0.24243645 -0.14666751 -0.324963
0000a0 96 5f e8 be 6b ed c8 bd ae 1e 10 3e 12 0c 61 be
       -0.45385426 -0.09810909 0.14074203 -0.2197726
0000b0 2d 1c 2c be 7b dc d7 bd ed 35 22 be 57 19 10 3e
       -0.16807623 -0.105401 -0.15840884 0.14072166
0000c0 35 75 21 be 8c fb 03 be 6c a4 2d be 2b a0 b1 be
       -0.15767367 -0.12888926 -0.16957253 -0.3469251
0000d0 ef b7 1a be e4 cc 0c be eb 6a 32 3d 2a e8 76 bb
       -0.15109228 -0.13750035 0.043558996 -0.0037675002
0000e0 c6 be 43 be 5a af 19 be e9 c8 39 3e 50 5d 9c bc
       -0.19115743 -0.15008298 0.18143047 -0.019087464
0000f0 d8 a4 25 be c4 44 6e 3e 1e 01 3f be 85 91 41 be
       -0.16176164 0.2326842 -0.1865277 -0.18903168
000100 40 77 f1 bd e5 80 1f be 0b c4 f4 bd bf d0 10 be
       -0.11790323 -0.15576513 -0.11951455 -0.1414213
000110 4e 9f f8 bd c8 aa 08 be 2b bd bb bd 85 fc 3e be
       -0.1213976 -0.13346398 -0.0916694 -0.18651016
000120 25 d9 f5 3d d6 5c dc bd 0c e8 4f be 02 f6 56 be
       0.12004308 -0.107598945 -0.20303363 -0.20992282
000130 65 a5 a1 be 7c 1b 13 3e da 9b 77 bc 41 95 1d be
       -0.315715 0.14365953 -0.0151128415 -0.15388967
000140 3b 21 2a 3e 70 8f 08 be 53 4c 8d bc da 7a 57 be
       0.16614239 -0.13335967 -0.017248308 -0.21042958
000150 ab 80 4b be 6c 6b d4 ba fe e1 c1 be b9 e7 be 3d
       -0.19873302 -0.0016206331 -0.3786773 0.09321541
000160 1f bb 21 be c4 75 98 be d4 7c ed 3d 03 ec 79 be
       -0.15794037 -0.29777348 0.11596075 -0.24406438
000170 c2 75 9c be 49 39 26 be 7c e4 42 3d 24 e2 3c be
       -0.30558592 -0.1623279 0.04758118 -0.18445641
000180 51 c5 03 be 2f fa 05 bd 3d 2c 58 bc de a7 0f be
       -0.12868239 -0.032709297 -0.013194141 -0.1402888
000190 6f ed 78 be db e5 23 be 4f da 14 bd 4a 7a 2f 3d
       -0.24309324 -0.16005652 -0.036341008 0.042841233
0001a0 6b 62 34 be 4c a8 b2 be 7a bf 7f bd 9a 8e 13 be
       -0.17615668 -0.34894025 -0.062438466 -0.14409867
0001b0 8f e3 07 be 1f 40 e6 bd 82 bf 16 be 9f ff 10 be
       -0.132704 -0.11242699 -0.14721492 -0.14160012
0001c0 55 9b ce bd 9a 07 1e be eb 6a c1 bd 63 a3 24 be
       -0.10088221 -0.15432587 -0.09444221 -0.16077952
0001d0 21 77 39 be 5d c5 2a be f7 32 87 be a7 af a4 3c
       -0.1811185 -0.1667685 -0.2640607 0.020103289
0001e0 29 32 15 be 68 d2 02 bc 03 d3 9c be 47 47 79 bd
       -0.14569916 -0.007984735 -0.3062974 -0.06085899
0001f0 68 55 cb bd 70 f8 2b 3e 2d d9 79 3e 29 0c 18 3d
       -0.09928399 0.1679399 0.24399252 0.03712097
000200 ef 44 be be d6 bd ac bd 08 42 c7 bb 37 91 9c 3e
       -0.37161967 -0.08434646 -0.0060808696 0.3057954
000210 38 40 17 be ef b0 6f 3d e2 8d 84 be 3f 59 08 bf
       -0.14770591 0.058518346 -0.25889498 -0.5326118
000220 3f f8 4e be 1c 56 8d bd 4e 11 19 be 5c bb ec 3d
       -0.20211886 -0.0690119 -0.14948007 0.115591735
000230 0f ed 14 be 79 6d af 3d 9b fc 67 3d 79 b9 01 be
       -0.14543556 0.08565802 0.056637388 -0.12668408
000240 9a c9 84 be 16 2f c4 bc cc 7e 5d be b5 7b ad be
       -0.2593506 -0.023948234 -0.216304 -0.33883443
000250 80 a3 f3 bd cc aa 4f be ef d5 dc bd ce 01 2f be
       -0.118964195 -0.20279998 -0.10782992 -0.17090532
000260 46 04 8a be 14 d9 fc 3d 81 10 7c be 3a 8a d5 be
       -0.26956385 0.12346092 -0.2461567 -0.4170702
000270 26 ff f7 bd 69 40 37 be 33 1e 9c bd cf a4 d6 be
       -0.121092126 -0.17895664 -0.076229475 -0.41922614
000280 0a e1 45 3e b0 ae 88 bd 61 fd 4b bd d5 49 b9 bd
       0.19324127 -0.06673944 -0.049802188 -0.090472855
000290 0e 45 21 be 58 b0 ed 3d b6 62 23 be 10 45 d4 3d
       -0.15748999 0.116059005 -0.15955624 0.10364735
0002a0 fe e9 3c 3e d2 99 8c be c4 47 d9 bd b1 98 06 be
       0.18448636 -0.27461106 -0.10609391 -0.13144185
0002b0 98 e4 18 be 1e 73 48 be 93 ed 96 3d ac 06 e8 3d
       -0.14930952 -0.19575164 0.073695324 0.113293976
0002c0 d4 13 17 bd 8b 73 0c be 3e cb cc bd 98 f5 1c be
       -0.036884144 -0.13715951 -0.09999703 -0.15328062
0002d0 84 ae 34 be ea 66 27 be 3b a0 ac bd d0 5f f1 bd
       -0.17644697 -0.16347852 -0.08428999 -0.11785853
0002e0 b0 bb d4 bd cf 04 5d be 64 f7 99 3e 3f 9d 07 be
       -0.10387361 -0.21583866 0.30071557 -0.13243578
0002f0 c0 c2 2f bd 82 28 78 be 8c 64 71 3d 07 cf 45 3e
       -0.042910337 -0.24234203 0.05893378 0.19317256
000300 b4 6f 91 bb 9f db 87 be 19 19 57 3e ad 1a 9b 3d
       -0.004438365 -0.26534745 0.21005668 0.075734474
000310 0f 55 f2 3d 79 15 e4 3d ac 8e 65 3e c2 89 cb bd
       0.1183263 0.11136908 0.22417706 -0.099383846
000320 07 6c fd bd fb a6 d8 be 72 3c 30 be b6 f1 f6 bd
       -0.1237412 -0.42314896 -0.17210558 -0.120578215
000330 c5 d1 3d be 45 df 98 bd a8 50 99 be 2e 70 c0 3d
       -0.18537052 -0.0746446 -0.29944348 0.093963966
000340 fd a7 47 be d0 f0 07 be 35 98 b5 bd f2 82 85 3d
       -0.19497676 -0.13275456 -0.08866922 0.065191165
000350 85 8e a1 be 11 fd 53 3e 76 83 39 be a4 77 1f bd
       -0.31554046 0.20702006 -0.18116555 -0.038932458
000360 ce 08 07 be 09 ef c3 be bc a6 43 be 3d c4 40 be
       -0.13186952 -0.38268307 -0.19106573 -0.18824859
000370 55 ce 3e be 42 7b 4f be 2a 38 38 3e 1e 15 03 be
       -0.18633397 -0.20261863 0.17990175 -0.12801024
000380 b8 a3 74 be fe 86 50 be b8 79 26 be 54 8f 17 be
       -0.23890579 -0.20363995 -0.1625737 -0.14800769
000390 da 00 af 3c 80 47 2c be f0 6d 86 3d 47 75 86 bd
       0.02136271 -0.1682415 0.06563938 -0.06565338
0003a0 52 4e cb be 32 5b 77 be e0 30 55 be 5e e8 8c 3e
       -0.3970819 -0.24155882 -0.20819426 0.27521032
0003b0 00 37 a2 bd a3 55 f4 bd c6 cb 10 be ee 4b 10 be
       -0.07920647 -0.119303964 -0.14140233 -0.14091465
0003c0 3e 0e 44 be 14 e2 a0 bd 7c df 66 be fe b0 39 3d
       -0.19146058 -0.07855621 -0.2254619 0.04533481
0003d0 84 cd c6 bd e4 37 bc 3d 16 c6 a8 3d 0c d6 0c be
       -0.09707168 0.09190348 0.08240907 -0.13753527
0003e0 fd 55 8a bd 22 a0 9b bd a7 6a 79 be 11 75 3d be
       -0.06754682 -0.07598902 -0.24357091 -0.18501689
0003f0 e1 1d 0a be 2d 3f b4 bd 51 ce e4 bd bc 30 83 3d
       -0.1348796 -0.08801112 -0.11172164 0.0640578

fc2.weight f4 [256, 258]
000000 9c 96 62 bd 47 5d e7 3c f8 f7 d4 3c e4 44 35 3c
       -0.055319414 0.02824272 0.025997147 0.011063788
000010 28 85 72 bc 24 2c db 3b b5 12 06 3d 36 c9 06 3d
       -0.014802255 0.0066886116 0.032732684 0.032906733
000020 22 84 22 3d d1 fd 56 3d ca 88 5c bd 37 8a 2e 3a
       0.039676793 0.052488152 -0.05384139 0.0006658169
000030 82 d8 bb 3b e4 cd 33 bd 40 53 30 3d 82 32 82 bd
       0.005732597 -0.043897524 0.043048143 -0.0635729
000040 41 10 df bc ba 03 16 3d 60 2c 54 3b 7a 70 cd bc
       -0.02722943 0.036624648 0.0032375082 -0.025078047
000050 1a 96 bb 3c 04 49 97 bd 28 7b 71 bd f0 01 63 3c
       0.022898722 -0.073869735 -0.05895534 0.013855442
000060 4e e7 60 3d 11 eb 7b bc ac 32 c9 bc 80 08 7b bd
       0.05490809 -0.015375868 -0.024560295 -0.061287403
000070 d5 c9 6d bd 77 d0 12 3d ee 63 d3 3c bf 4d 11 bc
       -0.05805381 0.03584334 0.025804486 -0.008868634
000080 90 dc ff 3b fc b8 bd 3c 62 02 44 bd c9 a4 09 bd
       0.0078082755 0.023159496 -0.047853835 -0.033604417
000090 70 8a f6 3c 88 e1 24 bd 16 12 2c bd 30 1d ae 3b
       0.030095309 -0.040254146 -0.042009436 0.005313538
0000a0 de 0f 70 3d 29 6f f3 3c 9b 10 00 bd 90 49 de bc
       0.058608882 0.029716091 -0.031265836 -0.027134687
0000b0 88 ca 2f 3d ab b2 6b 3d 76 71 10 3d c9 b1 55 bd
       0.04291776 0.057543438 0.035264455 -0.052171502
0000c0 78 36 28 3c f2 13 7d bd ec 4f b6 bc 4a 3e 9e ba
       0.010266893 -0.0617866 -0.022254907 -0.0012073007
0000d0 00 67 a5 3a 48 5d 67 3d 5e 9d 3f bd ef a0 a5 3c
       0.0012619197 0.056485444 -0.046780936 0.02021834
0000e0 31 15 bb 3c c1 09 b9 bc d8 45 6f bd 84 7e 75 bd
       0.022837253 -0.022587659 -0.058416218 -0.059935108
0000f0 86 05 5a bd 11 8f e0 3c 4c 3d 6f bd ca b6 cd bc
       -0.053227924 0.02741197 -0.058408067 -0.025111575
000100 6c 0f 50 bd 4e 2c 08 bd d0 15 e9 3c 6a 5a 20 3d
       -0.050795957 -0.033245377 0.028452784 0.039148726
000110 2d d8 a1 b8 58 3d ef bc ac d4 e3 bc e0 5d 8f 3c
       -7.717344e-05 -0.029204056 -0.02781137 0.017500818
000120 1b 96 bb ba bd 43 21 bc 18 70 aa bc d4 e2 3f bd
       -0.0014311703 -0.00984281 -0.020805404 -0.04684718
000130 de 51 50 3d 06 82 bf bc 59 0f 82 3c ac 7d 52 3d
       0.050859325 -0.02337743 0.015876459 0.05138938
000140 08 3e 67 bd e0 e3 c2 bc d2 b6 08 bd f9 8d e8 bc
       -0.056455642 -0.0237903 -0.033377476 -0.02838801
000150 96 40 49 3d 44 86 59 3d 70 69 72 3a 4e 20 a3 bc
       0.04913386 0.05310656 0.0009247279 -0.019912865
000160 8a 56 3d 3d f4 db b1 bc 78 b2 20 3d 69 15 1d bd
       0.04622511 -0.021711327 0.0392327 -0.038350496
000170 62 5b 03 3d 82 5a 12 bd 7a 52 8b bd 50 5c 2e 3d
       0.03206957 -0.035730846 -0.068028405 0.042568505
000180 81 3a 56 bd b1 a8 89 bc 88 4d 2f bd c8 25 dd bc
       -0.052301887 -0.016804071 -0.04279855 -0.026995555
000190 2c 8f 51 b8 71 90 56 3c 5e 9d bf bc 68 28 68 bb
       -4.9962822e-05 0.013095961 -0.023390468 -0.0035424475
0001a0 a3 ec 0c bd 08 f5 c9 bc 17 7c 5c bb 29 23 80 bd
       -0.03440536 -0.024652973 -0.00336433 -0.06256706
0001b0 22 fc 70 3d a8 00 71 bd da 0f a9 3c 60 41 57 bb
       0.058834203 -0.058838516 0.020637441 -0.0032845363
0001c0 34 86 3d bb a6 dc 68 3d 0f e4 2e 3b c0 30 9d 3c
       -0.0028919103 0.05685105 0.0026686226 0.019188285
0001d0 00 c8 03 bb 80 f0 5a 3a 52 0f 74 bd 12 15 83 3a
       -0.0020108223 0.00083518773 -0.059584923 0.0010000786
0001e0 50 b4 df 3c c0 3c 0f bb b6 db f9 3c 5c 51 db 3c
       0.02730766 -0.0021856278 0.030500274 0.026772194
0001f0 8a 68 35 bd 67 c7 54 3d 78 65 56 3d 10 fa cf 3b
       -0.04428915 0.051947977 0.052342862 0.0063469484
000200 d6 19 76 3d a1 09 81 bd 4d cc 5b 3c 8f d4 e6 bc
       0.060083233 -0.06300665 0.013415408 -0.028177528
000210 df 20 e6 b9 d1 7e 81 3b d0 8d 74 3d 35 42 e5 3b
       -0.0004389351 0.0039518853 0.059705555 0.006996418
000220 e1 7e 9d bc 10 fc 7b 3c 29 a0 80 bd 40 6c 7a bc
       -0.01922554 0.015379921 -0.06280548 -0.015284598
000230 d1 ad 39 bd 61 31 7c bd ba 89 ce 3c a4 7e fb bc
       -0.04533178 -0.06157053 0.025212158 -0.030700035
000240 89 ed e9 3b 61 6d 80 bd 98 f1 2f 3d 2c ab be 3c
       0.007138912 -0.06270862 0.04295501 0.02327498
000250 4a 1a 1a 3d 60 3a f1 bc d8 d1 08 bd 2d da 76 bc
       0.037622727 -0.02944678 -0.033403248 -0.015066666
000260 c1 c3 0b 3d e0 5a 91 bb 6e 25 43 3d 97 b2 88 3c
       0.034122232 -0.004435882 0.047643118 0.01668672
000270 78 0b c4 3c 20 8e ae bb 6f 41 c0 ba 68 00 0a 3d
       0.02393125 -0.005327001 -0.0014667938 0.033691794
000280 4d e3 50 bd 1c 9b b3 3c 84 6d 74 3d 36 19 2c bd
       -0.05099802 0.021924548 0.059674755 -0.04201623
000290 f4 87 d0 bc 49 73 55 bd 50 e1 f0 bc 80 df 41 bd
       -0.025455453 -0.052111898 -0.029404312 -0.047332287
0002a0 a1 48 a8 3c ec 3b 21 3d 1a 96 7f bd 14 67 75 bd
       0.020542445 0.039363787 -0.062399007 -0.059912756
0002b0 00 db bc 3a 70 ba 0f bd 96 ad 90 3c f2 18 f5 3c
       0.0014408529 -0.03508991 0.017660897 0.029919121
0002c0 de 2f 1c 3d 22 63 6f 3d c9 0c ea 3c c0 05 fa bc
       0.038131587 0.05844415 0.02857055 -0.03052032
0002d0 b0 e2 96 3b d4 c4 1e 3d 85 fe 18 3d 00 72 3c bb
       0.00460466 0.03876193 0.037352104 -0.0028754473
0002e0 0a e7 0d 3d bc 71 1f 3d 92 b6 6b 3d 48 49 c4 bc
       0.034644164 0.038926825 0.05754716 -0.023960724
0002f0 3e b0 4b bd 55 94 8f 3c 88 fd 91 bc 3b 3f d0 3c
       -0.049728625 0.017526785 -0.017821088 0.025420776
000300 32 54 62 3d 2f d7 1a bb 88 81 df 3c dd a7 8f 3b
       0.055256076 -0.0023626795 0.027283445 0.0043840245
000310 f7 a4 dd 3c 02 da 69 bc 94 13 20 bd e0 02 0f bc
       0.0270562 -0.0142731685 -0.03908117 -0.008728713
000320 55 f5 22 3d 61 fd 4b bd 94 94 7f 3d 09 09 b0 bc
       0.039784748 -0.049802188 0.062397555 -0.021488683
000330 ab 24 75 bd 1b ec 57 3d c5 46 52 3d 5a 9f 4d bd
       -0.059849422 0.052715402 0.051337022 -0.050200798
000340 00 99 8c b9 e6 43 52 bd 2c 6c 17 bd bd 4e 18 bd
       -0.00026816875 -0.051334284 -0.036968395 -0.037184466
000350 c9 79 fb bc 65 1e f8 3c 2a fd e9 bb 7c 16 7a bd
       -0.03069772 0.03028793 -0.007140775 -0.0610566
000360 64 76 60 bd 4a c1 1d bd c8 8e 1b 3d 44 c9 d5 bc
       -0.054800406 -0.038514413 0.037977964 -0.026096947
000370 f0 3b 1b 3d ae 2c 90 bd 46 0d ca 3c 39 91 fb bc
       0.037898958 -0.07039772 0.024664532 -0.030708896
000380 ee 34 1b 3c 05 c7 e5 3c 20 d3 12 3c 50 a9 5f 3d
       0.009473069 0.028049001 0.008961469 0.05460483
000390 44 d9 c5 bc da b4 14 3c 08 68 2f 3c 53 03 76 3c
       -0.024151452 0.0090763215 0.010705955 0.015015441
0003a0 b0 b0 5d bd d9 82 b9 bb 54 64 d3 bc 05 3f ee 3c
       -0.05412358 -0.00566135 -0.025804676 0.029082784
0003b0 10 00 1c bd fb 70 74 3d b0 e2 38 bd 62 c9 1f bd
       -0.038085997 0.05967806 -0.04513806 -0.039010413
0003c0 b1 1a 93 bd d6 b8 77 bd 60 5d 5f bd 84 bb c7 3c
       -0.07182825 -0.060479008 -0.05453241 0.024381407
0003d0 b6 78 11 3d 00 88 40 b8 2c b2 4c 3d b1 37 4e 3d
       0.03551551 -4.5903027e-05 0.049974605 0.05034608
0003e0 cd ff e4 3c a0 31 f2 bb 28 4b 3a bc 34 5f 59 bd
       0.027954007 -0.0073911697 -0.011370458 -0.05306931
0003f0 00 68 87 39 1c ad 96 3c a7 56 89 3c 92 fa 43 bd
       0.00025826693 0.018393092 0.016764952 -0.047846384

fc2.bias f4 [256]
000000 90 22 af bd 48 c2 a4 bd 95 3c 8e bd 5b 7b 8c bd
       -0.08551514 -0.08044869 -0.06945149 -0.06859466
000010 bc 6c a5 be dc 6a 3d bd ac 8f 73 be f8 55 0a 3e
       -0.3230952 -0.046244487 -0.23785275 0.13509357
000020 e8 40 03 be c5 be da bd 70 af 51 3e be 2c ac bd
       -0.12817729 -0.10680918 0.2047708 -0.084069714
000030 09 e0 87 3e 5e d4 3c 3d b9 6e e8 bd 6c 5c 88 be
       0.26538113 0.046100967 -0.11349244 -0.26633012
000040 78 33 fb bd cb 76 9f bd eb a4 f7 3a 30 5f 92 bd
       -0.12265676 -0.0778633 0.0018893754 -0.07147062
000050 86 32 c9 bd 43 ca b1 bd 49 7f 3d 3e 9f ff 90 bd
       -0.0982409 -0.086811565 0.18505587 -0.07080006
000060 3c 21 8e bd 60 ba 7a bd 3a 44 b3 3e 49 71 80 bd
       -0.06939933 -0.061212897 0.3501299 -0.062716074
000070 45 b8 34 bd aa 55 82 bd 55 5b 8d be 2c d3 a9 bd
       -0.044121046 -0.063639954 -0.27608743 -0.08292231
000080 32 dd e0 bd 8e ad 47 3d 61 fd cb bd 1c e4 83 bc
       -0.1097969 0.0487495 -0.099604376 -0.016099982
000090 4e 7a 89 bc e1 57 b9 bd c5 2e 8f bc b4 e8 7e bd
       -0.016781952 -0.09049965 -0.017478356 -0.06223364
0000a0 b5 a2 d1 bd d2 0e cd bd 03 32 f9 bd b3 42 c5 bd
       -0.10236112 -0.100125924 -0.12167742 -0.096318625
0000b0 83 14 00 be df 90 1a bd 36 5e 52 bd cb 76 9f bc
       -0.12507825 -0.037735816 -0.051359378 -0.019465825
0000c0 a8 ce 11 bd aa ad 73 bd f2 ea ee 3d f6 83 78 bd
       -0.035597473 -0.05949179 0.11665906 -0.060672723
0000d0 49 df df bc ee f7 c8 bd 23 bb 58 bd 00 e6 67 bd
       -0.02732815 -0.09812914 -0.052912842 -0.05661583
0000e0 dc b3 8d bd 1f b2 ef bd 88 b9 2f be c7 ea b6 bd
       -0.06919071 -0.11703896 -0.17160618 -0.08931499
0000f0 c8 61 38 bd a6 5a 96 3e 3d f4 aa bd 85 95 f9 bd
       -0.045015126 0.29366034 -0.08347366 -0.12186722
000100 74 cc a1 bb 9a eb 30 bc 92 a6 a7 be 3c 88 20 bd
       -0.004937703 -0.010798359 -0.3274427 -0.039192423
000110 95 bb 63 bd c4 8a 2a bd f7 a8 07 bc 59 98 80 bd
       -0.055598814 -0.041636243 -0.00828003 -0.06279058
000120 d6 35 78 bd d9 10 30 bd c8 fb 02 3e 66 e4 c8 bd
       -0.060598217 -0.042984817 0.1279136 -0.098091885
000130 7d 7d 7a be 22 b4 b4 3e 47 7e e7 bd cb 9c 96 be
       -0.24461932 0.3529368 -0.11303382 -0.294165
000140 a8 69 54 bd ef 45 91 bd a6 64 dc bd 90 4c d7 bd
       -0.051858574 -0.07093417 -0.10761385 -0.1051265
000150 e7 bb b6 bd 52 e9 3a 3e 04 17 f6 bd 41 60 0a 3d
       -0.08922558 0.18253067 -0.12016109 0.0337832
000160 68 bb 0f 3f c8 45 cb bd 35 1f ab bd 8e cd 99 bd
       0.56145334 -0.09925419 -0.08355562 -0.075099096
000170 ba 44 28 bd 03 fb ce bc a1 d4 32 3e 1a 8b 44 bd
       -0.041081168 -0.025266176 0.17463924 -0.04798422
000180 da 6c e3 bd 9b f0 a8 bd 92 c2 e9 bd 93 bc ea bc
       -0.11104746 -0.08249017 -0.114140645 -0.028654372
000190 84 6d ff bd 57 16 08 be 88 37 c1 bd 12 75 b3 bd
       -0.1247206 -0.13289772 -0.0943442 -0.08762564
0001a0 02 7a b4 be c1 8f e8 bd 68 dc 03 be d0 09 55 bd
       -0.35249335 -0.11355544 -0.12877047 -0.05201131
0001b0 a3 d6 9e bd be 8c 38 be f4 e1 f1 bd f4 bc 59 bd
       -0.077557825 -0.18022439 -0.11810675 -0.053158715
0001c0 00 bd ae bd 4d bb 96 be 83 77 28 be fd 89 05 be
       -0.08532143 -0.29439774 -0.1645184 -0.1304092
0001d0 e3 2f 21 bd 99 d5 c2 bd 30 50 f1 bd 14 fe 8d bd
       -0.03935231 -0.09513397 -0.11782873 -0.06933227
0001e0 ed 62 85 bd 3d a2 62 be d2 14 2a 3e 34 e4 a1 bd
       -0.06513009 -0.22132201 0.16609505 -0.079048544
0001f0 d0 5e 89 bd 3b 61 3c bd 92 05 bb bd d1 91 cc bd
       -0.06707537 -0.045991164 -0.09131922 -0.0998875
000200 94 33 ec bd fd d0 cd bc a5 6e 05 bd f7 bb fe 3d
       -0.11533275 -0.025124067 -0.032576222 0.12438195
000210 c6 fb 2c be 83 d8 3b bd b3 61 d7 3d 0c 02 aa bd
       -0.16892919 -0.04586078 0.105166815 -0.08301172
000220 23 e8 bb bd e0 c8 68 3d 89 95 b5 3c bf 20 ae bd
       -0.09175136 0.056832194 0.02216603 -0.085023396
000230 8d 4b a1 bd de 8b a2 bd bf 6b 53 bb ab 46 e1 bd
       -0.07875738 -0.07936834 -0.0032260267 -0.10999807
000240 40 4e b8 bd 2a 85 02 3d b1 96 67 bd 0d 5f 45 3e
       -0.089993 0.031865276 -0.056540195 0.1927454
000250 d2 9f 29 bd e4 fa 96 bd a2 32 ba bd 1f 33 f9 bd
       -0.041412182 -0.07372072 -0.09091689 -0.12167954
000260 f9 0e 93 bd 40 50 13 be a1 09 81 bd 4d ee c7 bd
       -0.0718059 -0.14386082 -0.06300665 -0.09762249
000270 25 d3 e5 bc a0 c1 b7 bd 3b 67 bb bc 8b 3b b2 bd
       -0.028054783 -0.08972478 -0.022876373 -0.08702763
000280 13 3e bc bc e4 e0 fe bd 75 78 b6 3d b4 95 83 be
       -0.022978818 -0.12445238 0.08909694 -0.25700152
000290 e7 11 d3 bd 2e 3e 94 be 85 3f 65 bc 64 01 bd bd
       -0.10306149 -0.2895369 -0.013992195 -0.09228781
0002a0 2b 75 08 be 5a 92 81 bd cc cf 92 bd f3 61 45 be
       -0.13325946 -0.063267425 -0.0716854 -0.19275646
0002b0 b4 58 b3 bd e2 22 82 bd c1 91 b0 bd be a9 ac bd
       -0.08757153 -0.063543096 -0.0862155 -0.08430813
0002c0 c9 3f cc bd 00 3a af bd 86 97 06 bd 94 d0 03 be
       -0.099731036 -0.085559845 -0.032859348 -0.12872535
0002d0 a0 18 48 3e e0 79 a5 bd f1 04 79 bd ad 9d ad 3d
       0.19540644 -0.080798864 -0.060795728 0.0847734
0002e0 8d 3a ab bd 67 01 4f be ab c5 82 be 58 ab cb bd
       -0.08360777 -0.20215379 -0.25541434 -0.099447906
0002f0 4d df 83 bd 4d 39 6d bd a1 c6 af bd 1b 31 fe bc
       -0.064390756 -0.057915974 -0.08582807 -0.031029275
000300 51 18 7b be 2d e5 ed bd 96 6a bf bd d9 e3 4c bd
       -0.24520995 -0.116159774 -0.093465015 -0.05002198
000310 89 e2 f2 bd 3e 92 90 bd 68 a0 70 bd e9 04 8e 3d
       -0.118596144 -0.070591435 -0.058746725 0.0693453
000320 e3 02 eb bd c8 56 c1 bd da a9 1d bd a1 56 7b bd
       -0.1147516 -0.0944038 -0.03849206 -0.061361913
000330 1c 47 ec bd fb 25 cf bd 9d 8e 8e bd bb cc 1f bd
       -0.115370005 -0.10114666 -0.06960795 -0.039013606
000340 d5 c7 98 bd 45 0e 51 bd 6e 47 bf bd 04 b1 6f be
       -0.0745999 -0.051039 -0.09339796 -0.2340737
000350 04 37 41 be 5b dc 9f bd 20 8d ff bd 0f fb a3 bd
       -0.18868643 -0.07805701 -0.12478089 -0.0800687
000360 30 54 9b bd 55 6d 2b bd 4d 1b ab bc 0f 50 ad bd
       -0.07584417 -0.041852314 -0.020887041 -0.084625356
000370 5f 1a 7e 3d b1 10 57 be dd cb d0 bd 68 26 2d be
       0.06203687 -0.21002461 -0.10195134 -0.16909182
000380 eb 65 e1 bd 3c fb 55 be 89 90 80 bd 42 be b9 3a
       -0.110057674 -0.2089662 -0.06277568 0.0014171081
000390 07 bf 91 bd 3f 46 1f bd 39 0c a7 bd e3 2d c6 bd
       -0.07116514 -0.03888535 -0.08156628 -0.09676721
0003a0 60 b8 a5 bd ec 1f 34 bd 35 30 21 bc 6e fc 6d 3e
       -0.08091807 -0.043975756 -0.009838154 0.23240826
0003b0 87 cb 36 bd 21 fa b8 bd 48 5c 91 3e 6e 63 ac bd
       -0.044627693 -0.09032083 0.28390718 -0.08417402
0003c0 c1 14 b0 bd e2 cb c9 3e eb 0f c5 bc 21 12 7c bd
       -0.085977085 0.39413363 -0.024055442 -0.061540727
0003d0 1d 82 c2 3d 2a 24 ce bd 46 08 d2 bd 0c 0f f6 bd
       0.094974734 -0.100654915 -0.10255484 -0.12014589
0003e0 87 f1 a1 3e ef a6 a4 bc 54 be 4f bd db aa eb bd
       0.31629583 -0.020099131 -0.05071862 -0.115071975
0003f0 77 c0 a3 bd 87 ba c0 bd e4 18 d9 bd ce b4 bf bd
       -0.07995694 -0.09410577 -0.10600451 -0.09360658

fc3.weight f4 [128, 256]
000000 dd 31 dc 3c 9e df 79 3d 58 d2 af 3c b4 81 6c 3d
       0.026879245 0.061004274 0.021462604 0.057740882
000010 48 cd 89 bd a3 b4 32 bb a9 dd bc be ac ff ef bd
       -0.067286074 -0.0027268312 -0.36887863 -0.117186874
000020 80 9f 5d be 99 a6 0a bd 26 28 b3 3b e7 7b 88 bd
       -0.21642876 -0.033850286 0.0054674326 -0.066642575
000030 f5 66 a1 3e 3b 09 66 be 89 ed 69 3d fb 18 dc be
       0.31523862 -0.22464459 0.057111297 -0.4298781
000040 0d 01 a3 3c 89 5f 73 3d a1 8b 3c 3d 1f bb 11 b9
       0.019897962 0.05941728 0.046031598 -0.00013897986
000050 a8 cb 2f bd 82 93 95 3d cd 48 3c 3e d8 6c cb bd
       -0.04291883 0.073035255 0.18387146 -0.0993287
000060 4e 3e e5 bb ac 8e 2a bc 31 bb b2 3e 50 0e a6 bb
       -0.0069959527 -0.010409992 0.3490844 -0.005067624
000070 15 ed 97 bd 89 ae c2 bd 74 97 2d bf ea 47 9f bd
       -0.07418267 -0.09505946 -0.67809224 -0.077773884
000080 cc 82 64 bd b6 b1 3f bd 4f e7 41 bd e8 71 5f bd
       -0.0557888 -0.046800338 -0.047339734 -0.05455199
000090 26 fb 52 3c 20 92 95 bb 18 f3 5d bd db fe 32 bd
       0.012877261 -0.0045645386 -0.05418691 -0.04370008
0000a0 d0 01 01 bd 8d ef 85 bd 14 03 7a be 5f 9c b8 3d
       -0.03149587 -0.06539831 -0.24415237 0.090142004
0000b0 4c 1b 2b 3d ea 0a cd bc 10 d9 b7 3c 3f 88 67 bd
       0.04177408 -0.025029618 0.02244237 -0.05652642
0000c0 a2 4f f5 3c 62 b3 f4 bc 1e ab dd be 77 ee d4 bc
       0.029945198 -0.029870693 -0.43294615 -0.025992615
0000d0 d8 bc 68 bd a2 53 9f bc 8f c7 9a bc 1a 62 8b be
       -0.05682072 -0.019449059 -0.018893985 -0.27223283
0000e0 4e 41 08 3d dd fd ab 3d 7f 75 06 bf cf 74 91 3d
       0.033265404 0.0839803 -0.52523035 0.071023576
0000f0 6f 7e 92 3d ce 57 90 3d 03 44 1f 3d c2 f9 25 bf
       0.071530215 0.070479974 0.03888322 -0.64834225
000100 32 e6 82 bc 33 f8 46 bd cd 60 aa be f3 43 03 bd
       -0.015978906 -0.048576545 -0.33276978 -0.032047223
000110 b6 c3 36 3c fa 4d 3a bd bd 6a 85 bd 95 32 65 bd
       0.01115506 -0.04548452 -0.06514499 -0.055956442
000120 49 0c c3 bd 23 9d 16 bd 27 dd e8 3d f4 9e 97 3d
       -0.095238276 -0.03677095 0.113703065 0.07403365
000130 37 08 55 3e 44 84 89 be 9a ff ec bd 49 35 c3 bf
       0.20803915 -0.26858723 -0.1157219 -1.5250636
000140 1e b8 6e bc 47 a0 b8 3c df cf 41 3d 52 83 4e 3e
       -0.014570264 0.022537364 0.047317382 0.20167282
000150 ab 7e 3b bd 23 b9 14 3d 3e c6 c0 3d 32 a2 d4 3e
       -0.045775097 0.036309373 0.09412812 0.41529995
000160 d0 6b 06 3d e0 fc 24 bd ec c0 75 3c 10 08 6a bd
       0.03281766 -0.040280223 0.014999609 -0.057136595
000170 b4 41 be 3d 9a b1 81 3d f8 ab 93 be b0 5f b9 3d
       0.092898756 0.06332703 -0.2884214 0.09051454
000180 c2 cf a9 bd 16 e3 ee bc b1 5f 39 bd 16 75 0f bd
       -0.0829158 -0.029161017 -0.045257274 -0.03502377
000190 02 df e1 3c e9 ec 8a 3d 4c d6 84 3d 65 3e 8f bd
       0.027572159 0.06783468 0.064861864 -0.06994323
0001a0 e4 c4 4f 3e 0e 0e 0e 3e 2a 99 0b 3e ff 4c 7a 3d
       0.20289952 0.13872549 0.13632646 0.061108585
0001b0 d3 61 8d bd 80 b1 d7 bd d6 17 b6 bd 71 83 0a 3d
       -0.06903424 -0.10531902 -0.08891265 0.03381676
0001c0 56 f5 a2 bd 95 75 de bf b5 a8 d0 3b 19 b3 2f be
       -0.0795695 -1.7379633 0.0063677677 -0.17158164
0001d0 57 69 16 be c0 6a 4c bd 22 98 9e 3d b2 24 83 bd
       -0.14688621 -0.049906492 0.07743861 -0.064034835
0001e0 02 c3 74 bb 28 48 5c be 08 e0 57 bd a2 91 ac bc
       -0.003734768 -0.215119 -0.052703887 -0.021065537
0001f0 5d aa 1e be 3e fb 77 bd cd e7 a1 3d 1c 5b 85 bd
       -0.15494676 -0.060542338 0.079055406 -0.06511518
000200 ae 4f 4a 3d 25 0f 15 3e c0 52 89 3c 7c 9a 11 be
       0.049392395 0.14556558 0.016763091 -0.14219087
000210 fb 41 3c 3d c7 ce c9 bd 00 e5 a2 3e b5 4c b5 bd
       0.04596136 -0.09853893 0.31815338 -0.08852521
000220 e5 73 ed 3c 03 d6 cc be c8 07 8d 3d ee b4 77 3c
       0.028985927 -0.40007028 0.0688625 0.015118821
000230 0f f1 fa bc 5f 1a 40 bd 91 bb 1c 3c 16 4d 24 bd
       -0.030632524 -0.04690015 0.009566204 -0.040112577
000240 50 ec 39 3d 1f f0 d2 be 5f e0 90 3c fb 2b 20 bf
       0.04539138 -0.41198823 0.017685113 -0.6256711
000250 4b 58 23 be cf 09 d5 bc 25 0e 99 bc 5c d0 a1 bd
       -0.1595165 -0.026005654 -0.018683502 -0.079010695
000260 28 1f d6 3c 08 29 08 bf 11 e3 27 3d e2 9f 02 3c
       0.026137903 -0.5318761 0.04098803 0.007972689
000270 23 26 65 be e2 40 c4 3d eb 41 a0 3d 9f 49 af 3d
       -0.22377829 0.09582688 0.07825073 0.08558964
000280 09 14 a7 3c 67 8d a5 3d 16 59 8b be 8e 3f 67 be
       0.020395296 0.08083611 -0.27216405 -0.22582838
000290 2a 6d 9e bd 8b 18 5a be 6a 5a 36 3e 3c 7d 29 bd
       -0.07735665 -0.21298425 0.17807928 -0.0413792
0002a0 db 1a a0 3e 04 b7 76 3d 68 c7 54 bc 78 20 30 be
       0.3127049 0.06023313 -0.012986995 -0.17199886
0002b0 91 c2 e9 bd b7 b7 b8 bd ea 04 4e bd 07 ae 1b bd
       -0.11414064 -0.09019416 -0.050297655 -0.038007762
0002c0 35 9c ab 3c 12 0c e1 3d 7f c3 54 3d 27 74 a4 3d
       0.020948509 0.1098863 0.051944252 0.08029967
0002d0 6b d4 9c 3e 01 6c 0a bd d6 2e ac bd 60 25 62 bc
       0.30630812 -0.033794407 -0.08407371 -0.013802856
0002e0 73 57 75 3d 66 82 85 bf 14 1c e2 be 69 a3 13 bc
       0.05989785 -1.043042 -0.44162047 -0.009011128
0002f0 c4 a2 05 3e ee 8a b7 bd 8a c5 7e bd bb ea e1 3c
       0.13050371 -0.089620456 -0.062200107 0.027577749
000300 bb 83 bb 3b 76 0b c9 bd c4 7f b3 bd 34 d4 85 3d
       0.0057224906 -0.09816639 -0.08764604 0.06534615
000310 b9 d4 73 bd 79 cc 68 bc 4c a4 29 3d 55 53 a4 3d
       -0.05952904 -0.014208906 0.04141645 0.08023707
000320 f2 2d 95 bd e7 05 d5 3c f0 30 71 3d c3 8a aa 3a
       -0.07284154 0.026003791 0.05888456 0.0013011325
000330 24 ed 33 3d 39 8f 26 3d 04 38 a1 3d 0d 1d 10 3d
       0.043927327 0.04066393 0.07872012 0.035183955
000340 69 06 fc bd 84 44 46 bd 59 81 8b 3d 08 52 c0 be
       -0.1230591 -0.048405185 0.068117805 -0.37562585
000350 13 2d 63 bf 9a 51 3c bd ae bf f8 3d 6d ec 2a be
       -0.8874065 -0.04597626 0.12145935 -0.16691752
000360 f0 d4 55 bd 60 b8 25 3d ca 8d 14 bd 94 06 43 be
       -0.052205026 0.040459037 -0.036268033 -0.19045478
000370 2b a7 08 be df 7d ff bd e4 6c a0 bd 89 09 4f be
       -0.1334502 -0.1247518 -0.07833269 -0.20218481
000380 43 4e 7f bd a0 eb 81 be e3 d9 b1 bd 1a 1e d3 be
       -0.062330496 -0.2537508 -0.08684137 -0.41233903
000390 4d 31 19 bc c4 92 86 be 94 b0 ec bc 9a 97 2e 3d
       -0.009350133 -0.26283848 -0.028892793 0.042625047
0003a0 3a 1c 16 be 40 ed 24 3c f2 de 45 bc 2a 33 8f be
       -0.14659205 0.01006633 -0.01207708 -0.27968723
0003b0 33 dc d9 bc 97 3c 55 3c 59 4c 72 3d 96 3b 87 bc
       -0.026594257 0.013014934 0.059154842 -0.016507905
0003c0 77 ee 54 bd fa 51 ec 3e d5 66 85 3c 13 b0 c5 bd
       -0.05198523 0.46156293 0.016284386 -0.09652724
0003d0 5e dc 0a 3e 68 ba 88 bd a2 f2 8b bd e3 05 8e 3d
       0.13560626 -0.06676179 -0.06833388 0.069347166
0003e0 13 a6 2c be 19 eb 09 be 85 97 86 3d 23 3e d8 bd
       -0.16860227 -0.13468589 0.06571869 -0.10558727
0003f0 ae 06 fa bc 11 23 d6 bc 23 b3 04 be a1 00 5f 3d
       -0.030520763 -0.026139768 -0.1295896 0.05444396

fc3.bias f4 [128]
000000 d9 09 38 3e ec e7 d9 bd 77 6a 07 be 56 18 2a be
       0.17972507 -0.10639939 -0.13224207 -0.16610846
000010 86 9d 85 3e 92 02 cd 3d 2a d8 dd be 5b de f4 bd
       0.26096743 0.10010256 -0.43328983 -0.119564734
000020 bb 74 a5 3c 45 6d 18 be 62 ac a7 bd 40 86 12 be
       0.020197263 -0.14885433 -0.08187176 -0.14309025
000030 99 b3 21 3d 0c a9 2b 3d 15 e0 5f be d1 a5 23 be
       0.03947792 0.041909263 -0.21862824 -0.15981223
000040 3b dc df bd a6 c9 19 be 29 64 fc bd ed c3 18 be
       -0.109306775 -0.15018329 -0.123237915 -0.1491849
000050 62 ef 8d be 26 80 22 be 61 35 26 be c3 40 8c bd
       -0.27721697 -0.15869197 -0.162313 -0.0684829
000060 ef 16 c4 3d 06 10 36 be 7b dc d7 bd 1e f7 11 be
       0.09574687 -0.1777955 -0.105401 -0.14254424
000070 65 49 be 3c 56 af e4 bd 59 2e 8a 3e 63 81 8e 3d
       0.023228357 -0.11166255 0.26988485 0.06958272
000080 c9 d8 39 be a5 0e e0 3d 93 a9 9f bd c0 6e 03 be
       -0.18149103 0.10940293 -0.077960156 -0.12835217
000090 a2 4e a5 bd d1 4f 34 be 6c 8b 97 bd 43 7e 07 3e
       -0.08071639 -0.17608573 -0.073996395 0.13231759
0000a0 b5 36 c7 bd 5e d1 57 bd 69 79 1a be 1a a7 b1 bd
       -0.097272314 -0.052689902 -0.15085377 -0.0867445
0000b0 2c a6 8a bd f6 97 fa 3b 47 93 ee bd 7c a7 f6 3d
       -0.06769976 0.0076475097 -0.11649185 0.12043664
0000c0 e3 7d 96 bd da 4d 82 bd 7a 9d 30 be fc e5 20 be
       -0.0734823 -0.06362505 -0.17247573 -0.15712732
0000d0 2e 42 41 be dd 9c 18 be 76 26 3c be c5 91 77 bd
       -0.18872902 -0.14903589 -0.18374047 -0.06044175
0000e0 00 9b 91 3e 3b bd d7 bd 7d 82 8b bd 60 06 c5 3c
       0.28438568 -0.1053414 -0.06811998 0.024050891
0000f0 84 7e 75 bd 82 b8 b8 bd 7c 51 04 be dc 27 ec bd
       -0.059935108 -0.09019567 -0.12921709 -0.1153104
000100 0f 08 dc bd b6 68 22 be 1b c8 20 b8 f1 31 27 be
       -0.107437246 -0.15860257 -3.8333335e-05 -0.16327645
000110 e4 84 e3 bd d8 d3 f5 bd 45 7a 17 be e9 f4 5e bd
       -0.11109331 -0.120032966 -0.14792736 -0.054432783
000120 57 08 c8 3d 3d 89 3b bd c8 19 6a 3e 22 48 01 be
       0.09767216 -0.045785177 0.22861397 -0.12625173
000130 33 50 6e 3d 00 fc e8 bd 18 7c 89 3e 65 17 2b bd
       0.058181953 -0.1137619 0.2685249 -0.041770358
000140 51 4c 18 be bd 43 21 be 7f 21 35 3e 67 43 87 bd
       -0.14872862 -0.15748496 0.17688559 -0.06604653
000150 1a ba fc bd cd 75 18 be 3d d8 bd bd 17 98 c9 bd
       -0.123401836 -0.14888687 -0.0926976 -0.09843462
000160 cb 5a b2 bd 70 3b c1 bd 9f 62 79 bd f4 cd cf bd
       -0.08708724 -0.09435165 -0.060885068 -0.10146704
000170 ec c2 66 3e b8 f5 11 be fd ce ab bd a9 03 9d 3d
       0.22535294 -0.1425389 -0.08389089 0.07666714
000180 26 8b d4 bc 1e 35 6f bd a8 87 82 3c d0 6f c5 3d
       -0.025945257 -0.058400266 0.015933827 0.09640467
000190 0a 4c 01 be e9 4e d1 be e5 bc 3d be 12 73 09 be
       -0.12626663 -0.40880516 -0.18529089 -0.13422802
0001a0 28 44 90 bd cd 2c c8 bd d3 90 c5 bd ea 9f 42 3e
       -0.0704425 -0.0977417 -0.09646764 0.19006315
0001b0 7e eb 3f be 22 1b 1e be d0 62 9b bd b6 4f fc bd
       -0.18742177 -0.15440038 -0.07587206 -0.12319891
0001c0 59 2d ed bd 45 62 18 be 04 1c 34 bd 24 6e dd bd
       -0.11580915 -0.14881237 -0.04397203 -0.10812023
0001d0 cb 83 bb be dd c6 45 3e e5 b6 be bd 4f 70 40 be
       -0.36623988 0.19314142 -0.09312228 -0.18792842
0001e0 92 13 a6 3d 83 72 5e be a6 df 22 bd 0a 80 31 bd
       0.081092015 -0.2172337 -0.03976407 -0.043335
0001f0 80 f0 37 be 63 d5 1d be 49 e3 09 be 55 b8 50 be
       -0.17962837 -0.15413432 -0.13465609 -0.20382817

fc4.weight f4 [1, 128]
000000 90 8e 97 3d aa 5b 81 bc c5 8f 22 3c 03 0c 13 bd
       0.074002385 -0.01579078 0.009921973 -0.035900127
000010 fa 6e bd bd ee 0e 83 bd 97 ac 92 bd fb fe ea 3a
       -0.09249683 -0.06399332 -0.07161825 0.0017928773
000020 c2 d8 26 bd b7 b4 99 bd f0 1f fb bb 68 b6 de 3c
       -0.04073406 -0.07505172 -0.0076637194 0.027186587
000030 93 04 7a 3d da e5 38 be 1e d6 15 bd c4 a7 82 3c
       0.06103952 -0.18056431 -0.03658115 0.015949138
000040 96 3d bc 3c a1 43 30 3c 78 71 54 bc b2 48 44 bb
       0.022978585 0.0107583115 -0.012966506 -0.0029950556
000050 a0 12 ca bd 04 4b ec bc 60 85 43 3b 28 c4 41 3b
       -0.09866834 -0.028844364 0.0029834136 0.002956638
000060 f2 de e6 bd aa 68 cd 3b 8b 62 96 3c e0 2d 81 3e
       -0.11272992 0.0062685804 0.018357536 0.25230312
000070 37 83 1e 3e f0 2c 50 bb 60 14 5a 3d 18 de a5 bd
       0.15479742 -0.0031765066 0.053242087 -0.08099002
000080 77 cb 9a 3b 33 8a 46 3d 3d e8 2c 3b 0a 44 a3 3c
       0.004723962 0.04847164 0.0026383542 0.019929904
000090 0d 8c ce 3d ea ee a5 bc 06 93 b5 bc 9c db f2 3c
       0.10085306 -0.020255525 -0.022164833 0.029645734
0000a0 2e 7c 86 bc da 00 1d 3d 65 87 a7 bd a6 59 65 3c
       -0.016416635 0.03833089 -0.08180121 0.013998425
0000b0 77 3d a7 bd 4b 76 89 3d 05 31 02 be 37 ba d3 3d
       -0.0816602 0.06712016 -0.12714012 0.10338252
0000c0 e9 15 c4 bc 42 2b c5 b9 31 59 93 3c 93 71 c5 3c
       -0.023936229 -0.00037606998 0.017986866 0.024102008
0000d0 ca 0a 1c 3d 83 71 a9 3c de 47 91 3d b2 0c 80 3c
       0.038096227 0.02068401 0.07093786 0.015631054
0000e0 9d 5c ca bd b3 26 58 bc f2 c6 86 bc 93 de 1e 3d
       -0.09880946 -0.01319282 -0.016452286 0.038786482
0000f0 21 42 02 bc 46 9c 10 3c da c5 8a bc 2b 9b cf ba
       -0.007950337 0.008826321 -0.016940046 -0.001583909
000100 2d ec d7 bc 5f e0 90 3c 3d 39 8d be ec f9 83 bc
       -0.026357735 0.017685113 -0.27582732 -0.016110383
000110 84 44 c6 3c b5 f8 72 bd 6a ca 18 3c d9 c1 e0 bb
       0.024202593 -0.059319217 0.009325603 -0.006859046
000120 c3 f7 c1 bd b5 9b 2d 3c 63 f3 74 3d c1 51 02 3c
       -0.09471085 0.0105962055 0.059802424 0.007954062
000130 b5 03 93 bd 84 3e 17 3e 78 59 3b 3d 1e f0 c8 3c
       -0.071784414 0.14769942 0.04573962 0.02452856
000140 4c 59 1a ba fd fd 63 bc eb 0e 41 be 36 2f 1a bc
       -0.000588794 -0.013915536 -0.18853347 -0.00941067
000150 02 f4 81 3c f4 5b c6 3c 75 6c dc bb 6d 0d 90 3c
       0.015863422 0.024213769 -0.0067267963 0.017584527
000160 b9 6e e8 3c 1e 11 ae 39 6d e0 ac 3c 53 25 62 3c
       0.02837311 0.0003320062 0.021103108 0.013802844
000170 46 53 45 3d 33 83 42 bc 8e d4 66 3d f2 ae 1b bd
       0.04817512 -0.011872101 0.05635505 -0.038008638
000180 6f 03 7e bc 7d 31 6d bb df 63 7e 3d 54 51 95 bd
       -0.015503748 -0.0036192827 0.062106963 -0.07290903
000190 4e 31 99 3c b0 2a a9 3d d9 4a 5f bc d5 e9 f7 3c
       0.018700268 0.08260095 -0.013628685 0.030262867
0001a0 a4 fa 98 bb 77 4e 9a 3c f6 a3 8f bc 12 7b 50 bd
       -0.0046685506 0.018836243 -0.017534237 -0.05089862
0001b0 7a 8c ba 3c aa 8f b1 3c 6a 5c 15 be 2f f1 58 3c
       0.022772063 0.02167495 -0.14586034 0.013241096
0001c0 14 a6 19 bc ec 59 e3 3b 76 fa 52 3b d7 18 0d 3c
       -0.009377975 0.0069382098 0.0032192743 0.008611879
0001d0 b8 1f 0e 3e 1b 59 87 3d d2 02 4f bb 7c c3 0d 3c
       0.13879287 0.066087924 -0.0031587374 0.008652564
0001e0 fa b7 94 be c6 bd 86 3d 9c 80 00 be f6 94 6e 3c
       -0.29046613 0.06579165 -0.1254906 0.014561882
0001f0 76 4a f0 3d 26 cb a1 bd 71 11 01 3c c1 32 72 3b
       0.11732952 -0.079000756 0.0078776935 0.0036956521
