policy_based/DDPG_checkpoint_actor_300.pth (torch, 40351 bytes, 4 tensors)

fc1.weight f4 [256, 33]
0.09011605 0.053296734 0.5589333 0.097120374 0.07747577 -0.14639679 0.4303329 0.1697583
0.08546456 0.65401816 -0.15902025 -0.09294677 0.31759334 0.47383648 -1.0681477 -1.0140139
0.116765544 0.14008209 -0.097451575 0.09062663 -0.080433555 -0.15804172 0.7533051 2.1035652
0.03867141 0.0032750608 0.011720356 -0.1787531 -0.7664175 -0.006379612 0.11835412 0.01936479
0.662113 1.1635166 0.61762375 -0.39721859 -0.08319867 0.08180722 -0.008340184 0.034282867
-0.2890781 -0.42054948 -0.13579153 0.60548216 0.09737552 -0.34864393 -2.4056969 -0.17659318
0.5363634 -0.020799 0.024216497 -0.068991125 0.037725676 -0.22266334 -0.118344426 -0.4360124
-1.0155016 0.5174703 0.46452102 0.7582768 -0.020149998 0.06246173 -0.027228422 0.011514753
0.059804082 0.025008315 -0.14814554 0.3789908 0.1678833 -0.0106095625 -0.04816144 0.4854941
-0.15204011 0.22855525 -0.088056296 0.5277113 0.20878318 -0.03225123 2.2288566 0.23163636
-0.838676 0.45674518 -0.03209153 -0.030251393 -0.031811643 0.009983021 -0.8414383 1.2777946
0.12962009 0.630088 1.0571443 -0.8433527 -0.08378988 -0.16681342 -1.1421497 0.011333771
0.16279297 -0.040682174 -0.3516098 -0.4179546 0.12688889 -1.0837777 0.06746262 -0.017612396
-0.4919992 -0.14946721 1.4883938 0.65799266 -0.19433981 0.48254928 0.44687068 -1.7533051
-0.017592572 -0.16270013 0.4561819 -0.0044442825 0.008308723 0.1735 0.004824708 -0.40314388
0.26383615 -0.8730157 0.5998518 -0.8171713 0.118160814 0.7576725 0.3132051 1.0598307
-0.0018561482 -0.39825132 0.010743327 -0.761902 0.7178467 0.07399375 -0.4403414 0.40962747
0.52492064 -0.13997859 -0.0072780065 0.74666756 -0.14933345 0.013243192 0.106442295 0.14534123
-0.17041805 -0.6419924 -0.6228923 0.49671087 -0.06340635 -0.0748198 -0.038222447 0.009116306
-0.28636596 0.24461223 0.060674563 -0.16658945 -1.2305663 0.5504683 0.33065915 0.036431003
-0.39789897 0.04254947 0.06493101 -0.010445811 -1.9875896 0.4287689 0.09454137 0.6351642
-0.14464532 0.422832 1.031669 0.06650354 -0.5780706 -0.18622929 0.38155654 0.4882323
0.16084158 0.008381189 -0.9080516 -0.14715579 -0.16477658 0.16130605 0.06893379 0.11445975
0.4301646 -0.12814093 0.21826759 -0.050194338 -1.4437819 -0.8203024 -0.6810217 0.3192598
0.4022865 -0.2180518 0.017978854 -0.32635453 0.00573954 -2.5672626 -0.89011896 1.0647951
0.34393322 0.017016552 -0.2595282 0.16538961 -0.25161278 -0.10079139 -0.7273038 -0.48835957
-0.30631465 0.046600614 0.7316132 1.5034784 -1.7192113 0.9150542 -0.012619852 -0.14406613
-0.05188266 0.061082397 -0.08489617 0.17406209 0.34756377 0.4360355 -1.7270482 -0.11327608
0.17515121 0.086366475 -1.0685827 0.019246884 -0.09226492 0.017258331 0.19637813 0.2504876
0.17986506 0.40579075 -0.04659146 0.058419473 -0.17961094 -0.04863382 -0.7197596 0.36655435
-0.2176505 0.5001912 0.32838714 0.13808982 -1.258308 -0.2042014 -0.1357882 0.037824728
-0.06777677 0.027326241 0.059328534 -0.41189584 -0.022592166 -0.33296987 -2.0630822 -1.0688775
00000000: c38e b83d ad4d 5a3d 4116 0f3f 0ce7 c63d
00000010: 9eab 9e3d 0ae9 15be 9854 dc3e 1fd5 2d3e
00000020: 0b08 af3d bc6d 273f 34d6 22be e05a bebd
00000030: 989b a23e b29a f23e 10b9 88bf 35cb 81bf
00000040: c622 ef3d ae71 0f3e b194 c7bd 749a b93d
00000050: 59ba a4bd b0d5 21be 9ad8 403f d0a0 0640
00000060: ea65 1e3d 67a2 563b bc06 403c 0d0b 37be
00000070: f033 44bf 100c d1bb a563 f23d e8a2 9e3c
00000080: 3d80 293f 1dee 943f 971c 1e3f 3c60 cbbe
00000090: 1064 aabd 8b8a a73d 44a5 08bc 316c 0c3d
000000a0: 0b02 94be 4352 d7be ef0c 0bbe e100 1b3f
000000b0: d16c c73d 7581 b2be f0f6 19c0 d8d4 34be
000000c0: 1d4f 093f aa62 aabc ad61 c63c 384b 8dbd
000000d0: 3d86 1a3d dc01 64be 905e f2bd 043d dfbe
000000e0: f5fb 81bf ef78 043f b3d5 ed3e 6e1e 423f
000000f0: 9c11 a5bc dfd7 7f3d 240e dfbc 60a8 3c3c
00000100: 20f5 743d 3dde cc3c 77b3 17be 150b c23e
00000110: 9ae9 2b3e bbd3 2dbc ee44 45bd af92 f83e
00000120: 67b0 1bbe 630a 6a3e dc56 b4bd 1618 073f
00000130: 42cb 553e de19 04bd 96a5 0e40 1532 6d3e
00000140: 78b3 56bf 81da e93e 6872 03bd c5d1 f7bc
00000150: ed4c 02bd d38f 233c 8068 57bf c68e a33f
00000160: 21bb 043e 724d 213f 8150 873f f6e5 57bf
00000170: 079a abbd 23d1 2abe f631 92bf 48b1 393c
00000180: 33b3 263e 5aa2 26bd 3306 b4be 25fe d5be
00000190: 29ef 013e 3ab9 8abf d829 8a3d df47 90bc
000001a0: 52e7 fbbe ef0d 19be b083 be3f 3572 283f
000001b0: 0401 47be b310 f73e 3ccc e43e 4d6c e0bf
000001c0: 4c1e 90bc dd9a 26be ad90 e93e 58a1 91bb
000001d0: 4f21 083c fca9 313e 9618 9e3b e068 cebe
000001e0: 8815 873e f57d 5fbf e38f 193f 2332 51bf
000001f0: 4cfe f13d d3f6 413f 6b5c a03e 88a8 873f
00000200: 004a f3ba 99e7 cbbe c804 303c 020c 43bf
00000210: cdc4 373f 098a 973d 6e74 e1be b1ba d13e
00000220: 3361 063f 8c56 0fbe 587c eebb 9b25 3f3f
00000230: deea 18be f9f9 583c 6bfe d93d 55d4 143e
00000240: 1282 2ebe 9d59 24bf df75 1fbf e350 fe3e
00000250: 30db 81bd 203b 99bd 248f 1cbd 8f5c 153c
00000260: 8f9e 92be a17b 7a3e e485 783d 6d96 2abe
00000270: 3283 9dbf 7eeb 0c3f 284c a93e ad38 153d
00000280: 6ab9 cbbe 5a48 2e3d 8dfa 843d e824 2bbc
00000290: 5669 febf 9987 db3e e89e c13d 1f9a 223f
000002a0: e71d 14be 707d d83e bb0d 843f 0233 883d
000002b0: 6ffc 13bf e4b2 3ebe 615b c33e 96f9 f93e
000002c0: a8b3 243e 4151 093c 1276 68bf 02b0 16be
000002d0: 31bb 28be 6a2d 253e 292d 8d3d e069 ea3d
000002e0: 893e dc3e 6037 03be 8a81 5f3e 9498 4dbd
000002f0: d8cd b8bf 57ff 51bf 7057 2ebf 0576 a33e
00000300: 7ff8 cd3e f948 5fbe 6448 933c f117 a7be
00000310: c012 bc3b 084e 24c0 d6de 63bf 354b 883f
00000320: 0418 b03e 4c66 8b3c e1e0 84be e55b 293e
00000330: 64d3 80be b76b cebd 9530 3abf 440a fabe
00000340: 46d5 9cbe 49e0 3e3d 014b 3b3f fb71 c03f
00000350: 1e0f dcbf fe40 6a3f 7fc3 4ebc 1286 13be
00000360: e982 54bd 8931 7a3d 0bde adbd 553d 323e
00000370: e1f3 b13e 0c40 df3e ea0f ddbf 4afd e7bd
00000380: d75a 333e e8e0 b03d 51c7 88bf a4ab 9d3c
00000390: 64f5 bcbd 5861 8d3c 5917 493e e93f 803e
000003a0: 8c2e 383e cec3 cf3e b0d6 3ebd 4249 6f3d
000003b0: eeeb 37be 4234 47bd 2a42 38bf 03ad bb3e
000003c0: c6df 5ebe 880c 003f 5c22 a83e 6b67 0d3e
000003d0: 3d10 a1bf 2c1a 51be 100c 0bbe 1aee 1a3d
000003e0: 8cce 8abd 48db df3c 7a02 733d 03e4 d2be
000003f0: 3513 b9bc 077b aabe 8a09 04c0 fad0 88bf

fc1.bias f4 [256]
0.09542526 0.124107905 0.30801395 -0.24183503 -0.016369397 -0.51030105 -0.19655406 -0.3735629
-0.67795444 -0.23587811 -0.01792663 0.3983156 0.23993324 0.16330178 -0.506267 0.4228462
0.29714057 -0.069344126 0.18682198 0.17447889 0.12800866 -0.43168908 0.2950218 -0.2583992
-0.073181994 0.33870137 -0.033579156 0.042637058 0.048577677 -0.14538237 0.20341071 -0.40917563
-0.3097161 -0.25415036 -0.5896138 -0.62514025 -0.17704245 -0.6116866 0.0016559159 0.039383575
-0.10178611 -0.22713056 -0.5238947 0.07413576 -0.40083092 0.041584738 -0.21608014 -0.4087996
0.41023502 -0.13231125 -0.55734795 -0.030516421 -0.54696316 0.16334055 0.21167268 0.17975529
0.31594133 -0.21142711 -0.1753896 -0.29012772 -0.23379675 0.35990405 -0.49815023 0.16013245
-0.27200723 0.13426875 0.108804554 -0.2159593 0.005703114 0.1558018 -0.06294312 0.13556905
-0.3525284 0.12489023 0.012468628 0.19897398 0.06894005 0.26623806 -0.13063842 -0.079217106
-1.075435 -0.075669445 -0.39021608 -0.12750036 0.3473681 -0.1963087 0.12769878 -0.37309086
-0.20988886 -0.18890591 -0.5634554 -0.3072158 -0.54568946 0.045342345 -0.09852155 0.3715018
-0.3410225 -0.39909938 0.10110577 -0.26950285 -0.50449383 -0.7896499 0.25332755 -0.558233
0.20929092 -0.33427677 0.1938601 -0.15454859 0.085944034 -0.35027158 -0.42277554 0.08072094
-0.06837312 0.5352705 -0.095032446 0.43542838 0.21443336 0.0065475428 -0.092616096 -0.5088945
0.048250396 0.09296695 -0.886244 -0.61800593 0.052928533 -0.3054422 -0.09211893 0.40676752
-0.36602795 -0.08375765 0.16636953 -0.121112324 -0.3052967 -0.22020292 -0.21455196 -0.11466315
-0.13380244 -0.24502438 0.026242943 0.21656553 0.38724795 0.03271006 -0.19055353 0.2545617
0.3682513 -0.12610061 -0.04684236 -0.004713667 -0.23153374 -0.068449445 -0.30071867 -0.24051312
0.24222325 -0.2712266 0.27519572 0.31696558 -0.19875936 0.1619313 0.18046212 0.28695488
0.13001888 -0.1015892 0.023144284 0.17440198 -0.6289267 0.6035894 0.013249804 -0.14959529
-0.21945779 -0.37761852 0.22179534 0.20451345 0.2589955 -0.4981474 -0.37548232 -0.1397699
-0.3502263 0.1992845 -0.17654252 -0.21108118 0.27444607 -0.28269982 -0.091719255 -0.14604115
-0.10910609 -0.5517104 0.059382446 0.06604222 -0.21009628 -0.094579756 -0.3711352 -0.34829164
0.18942858 0.20763138 -0.40554935 -0.19875742 -0.4808186 -0.031741038 -0.149269 0.05001179
0.21024786 -0.06809252 -0.4434208 0.00013476863 0.124575846 0.2885869 -0.39640227 0.3769254
0.09252338 -0.21902648 -0.155004 -0.5755108 0.023952102 -0.4697394 -0.35551837 0.45046872
-0.3761557 -0.31415445 -0.2838522 -0.0012766195 -0.2811532 -0.37605923 0.16642559 -0.27435225
-0.16918501 -0.25369635 0.17842118 0.6532385 -0.4256865 0.05096537 0.068486154 0.35334516
0.1774067 -0.13166872 0.041306805 -0.689356 -0.15071192 -0.4297109 0.29336482 -0.08337868
0.20107777 -0.48887178 -0.41760778 0.07972799 0.3561609 -0.2686198 -0.15533833 0.17598233
-0.51732045 -0.44864374 -0.013800833 -0.41048726 -0.023356209 -0.799053 -0.507845 0.124242425
00000000: 526e c33d 492c fe3d 01b4 9d3e 9aa3 77be
00000010: 1d19 86bc 17a3 02bf 7845 49be a343 bfbe
00000020: 6c8e 2dbf 088a 71be deda 92bc 06f0 cb3e
00000030: 0fb1 753e 9538 273e b79a 01bf 4c7f d83e
00000040: cf22 983e 4b04 8ebd 434e 3f3e 98aa 323e
00000050: b414 033e 5a06 ddbe 190d 973e e64c 84be
00000060: 71e0 95bd 446a ad3e 4c8a 09bd 32a4 2e3d
00000070: 63f9 463d 1edf 14be e64a 503e 787f d1be
00000080: 1c93 9ebe ff1f 82be eef0 16bf 3109 20bf
00000090: 9e4a 35be 7e97 1cbf 510b d93a ac50 213d
000000a0: 3c75 d0bd ea94 68be f71d 06bf 7dd4 973d
000000b0: b639 cdbe c254 2a3d 1d44 5dbe 2e4e d1be
000000c0: 530a d23e 9a7c 07be 5bae 0ebf 93fd f9bc
000000d0: c705 0cbf bf42 273e b9c0 583e c511 383e
000000e0: 10c3 a13e 5980 58be 5599 33be 9f8b 94be
000000f0: 6a68 6fbe 5845 b83e 8c0d ffbe c3f9 233e
00000100: 8844 8bbe bf7d 093e ecd4 de3d 6f24 5dbe
00000110: 30e1 ba3b 828a 1f3e 53e8 80bd 9dd2 0a3e
00000120: 9a7e b4be 73c6 ff3d 3749 4c3c d6bf 4b3e
00000130: 7130 8d3d 5b50 883e 14c6 05be 943c a2bd
00000140: dba7 89bf 95f8 9abd 67ca c7be 748f 02be
00000150: 3bda b13e 2605 49be 78c3 023e c405 bfbe
00000160: 1bed 56be 8d70 41be 9d3e 10bf 644b 9dbe
00000170: 4eb2 0bbf e5b8 393d abc5 c9bd 7c35 be3e
00000180: 809a aebe c156 ccbe 8b10 cf3d 47fc 89be
00000190: 8226 01bf 7f26 4abf 26b4 813e 5ce8 0ebf
000001a0: 5c50 563e 5326 abbe 4383 463e fc41 1ebe
000001b0: 6d03 b03d cc56 b3be 0976 d8be 0551 a53d
000001c0: 3507 8cbd 7d07 093f 5fa0 c2bd 78f0 de3e
000001d0: 6b94 5b3e c58c d63b 82ad bdbd e946 02bf
000001e0: 35a2 453d 7565 be3d e3e0 62bf a335 1ebf
000001f0: 97cb 583d ec62 9cbe d9a8 bcbd d543 d03e
00000200: 0468 bbbe 2189 abbd c65c 2a3e bd09 f8bd
00000210: d94f 9cbe e07c 61be 82b3 5bbe 83d4 eabd
00000220: 8203 09be ace7 7abe 71fb d63c 5bc3 5d3e
00000230: 5d45 c63e fcfa 053d 7720 43be e955 823e
00000240: 6f8b bc3e 8520 01be c6dd 3fbd 1b75 9abb
00000250: 2e17 6dbe 392f 8cbd ccf7 99be 1249 76be
00000260: 5f09 783e 37de 8abe 74e6 8c3e 5049 a23e
00000270: 9387 4bbe 52d1 253e 10cb 383e c0eb 923e
00000280: ab23 053e 000e d0bd 1599 bd3c 6f96 323e
00000290: 5701 21bf d684 1a3f b515 593c 822f 19be
000002a0: 8bb9 60be 3757 c1be 511e 633e f96b 513e
000002b0: 0f9b 843e 2d0d ffbe 383f c0be d71f 0fbe
000002c0: dd50 b3be 3c11 4c3e 90c7 34be aa25 58be
000002d0: 3284 8c3e 08be 90be 4ed7 bbbd d08b 15be
000002e0: 0473 dfbd e53c 0dbf 023b 733d 2541 873d
000002f0: 7b23 57be 08b3 c1bd 6f05 bebe 4853 b2be
00000300: 91f9 413e 529d 543e 2aa4 cfbe 1187 4bbe
00000310: db2d f6be e402 02bd f9d9 18be 2ad9 4c3d
00000320: 374b 573e 1774 8bbd 0d08 e3be ae50 0d39
00000330: 9f21 ff3d aac1 933e 3df5 cabe 5efc c03e
00000340: e67c bd3d 7a48 60be 5eb9 1ebe ad54 13bf
00000350: 3337 c43c af81 f0be 8106 b6be d6a3 e63e
00000360: 7b97 c0be dad8 a0be 1355 91be 3e54 a7ba
00000370: 50f3 8fbe d68a c0be 786b 2a3e e677 8cbe
00000380: d63e 2dbe 7de4 81be 0bb4 363e a33a 273f
00000390: 95f3 d9be 10c1 503d 7842 8c3d a8e9 b43e
000003a0: 1aaa 353e 2ad4 06be 5331 293d a379 30bf
000003b0: 3a54 1abe 1103 dcbe ea33 963e 71c2 aabd
000003c0: 55e7 4d3e 674d fabe b0d0 d5be 6e48 a33d
000003d0: b95a b63e 8988 89be 0311 1fbe b634 343e
000003e0: 1d6f 04bf a2b4 e5be e41c 62bc 632b d2be
000003f0: 8555 bfbc bd8e 4cbf 2102 02bf d072 fe3d

fc2.weight f4 [4, 256]
1.0419794 -1.1990483 -0.93051213 1.2239984 -2.7675297 -4.3318863 2.2426934 0.27928647
-2.1330595 1.651235 0.64037687 0.6066293 -1.6606114 -1.3121171 3.8673272 -0.27278206
-0.66847885 0.8719379 -0.008083252 0.66298705 -0.9199015 -0.06684702 -1.3565743 1.4851464
-0.6935924 -0.6692138 -0.068759516 2.4212039 -0.25638443 -2.2319002 -0.17441194 -2.183311
2.0339766 -1.9051176 -0.36291757 2.770466 0.78643227 -2.822338 -1.9995667 1.5791696
-0.6923298 2.387854 -3.1374002 2.2037992 -2.395262 -1.0517807 -1.5776753 -0.4109905
-0.36776793 -1.1619079 4.009438 -0.31535372 0.9712653 -1.100578 0.105822705 -0.9076853
-0.54816043 -2.6622448 -1.8414475 -1.6340891 0.12656885 1.0799041 -0.101592064 1.7816746
-0.40078774 0.4831875 -1.2237533 1.7406332 -1.294376 -1.5429535 -1.0541906 0.62243766
-3.4891436 0.4242509 1.5465828 -0.36069578 -0.15376525 1.4111398 -3.3205187 0.92239916
2.0546093 2.3086598 1.8973458 -0.46174446 -2.32598 0.56866485 0.401461 0.19942978
0.79438275 -3.531053 -1.5527842 -0.7321671 -3.5059009 1.8877201 2.9713852 -2.86467
1.653173 2.1380887 -1.5114833 0.45861492 2.159163 0.9399061 -1.3362689 0.2684452
-0.4074443 2.587174 -0.8877607 0.46779066 -0.48565075 -2.474627 1.249033 0.9441512
-8.361265 -1.5142083 -1.5219375 0.57366663 1.1920382 -0.92766094 -1.2895128 2.391853
2.4184952 1.32957 -1.6193619 2.131876 1.4974346 -0.20418957 -0.026122058 -0.42546898
2.318537 0.31535172 1.2411325 -1.2708004 1.1066715 -3.7963014 2.451626 -0.32916898
-0.19931269 0.3272276 -1.2942183 -0.74806297 2.5216112 0.9204908 -1.1843425 -1.8063807
0.38346758 -0.0060747517 -0.56689286 -0.54546887 -0.33800322 0.997425 2.0449414 1.1528212
1.7313709 -1.8520701 -0.43044636 -0.81371677 -0.08069332 -1.9427451 -0.26575178 0.91702056
2.1537201 -0.9571812 -0.30596223 -0.7156657 1.6263926 0.58411646 -3.2567303 -2.1571262
0.45278406 0.19564164 -0.6773186 -0.34650582 0.104414396 -0.62645596 0.24047652 -0.9292753
-1.359183 -1.151684 -0.46776402 -3.5947356 2.1209595 -0.30455083 0.013791186 0.5062815
0.71838206 3.9682748 -1.5265135 1.1737453 -1.1424203 0.68008757 -4.6518016 3.0531704
-0.89098233 0.32689008 0.60245615 -0.56435436 0.44616643 0.5743667 -0.45728445 0.66774905
0.11504902 0.19755842 -2.386085 0.13834731 1.8889929 -1.3011594 1.0384972 -0.45339105
0.42969188 2.45103 1.2906083 2.4914167 -0.26961115 -1.2127455 1.1398041 0.09355783
-1.8820442 2.4734552 2.6332111 0.14965814 0.68166953 -0.41603282 0.77146167 0.8312289
2.0200803 4.0380993 -0.15505636 1.0081503 -3.2609527 1.4534705 2.4050012 0.47973835
-0.67248726 1.0592618 2.3649426 0.034301266 0.4233204 -2.0354652 -0.31580454 0.72066075
-0.43097124 -0.9235452 -0.28126556 1.5236362 -1.363865 3.0416048 -1.0436678 0.89906657
1.6041968 -0.26564088 0.1474015 -1.6612992 0.6188223 -3.7969425 -0.674703 0.42698136
00000000: 955f 853f 6a7a 99bf 0b36 6ebf fbab 9c3f
00000010: 351f 31c0 d09e 8ac0 4a88 0f40 a3fe 8e3e
00000020: 0c84 08c0 ab5b d33f bdef 233f 0f4c 1b3f
00000030: ea8e d4bf 74f3 a7bf 4a82 7740 17aa 8bbe
00000040: 6e21 2bbf 5237 5f3f 9e6f 04bc 85b9 293f
00000050: aa7e 6bbf 17e7 88bd 3aa4 adbf 4719 be3f
00000060: 468f 31bf 9851 2bbf cad1 8cbd 01f5 1a40
00000070: d244 83be 74d7 0ec0 0b99 32be 5ebb 0bc0
00000080: ac2c 0240 e5da f3bf 55d0 b9be 514f 3140
00000090: a053 493f 30a1 34c0 cdf1 ffbf 3b22 ca3f
000000a0: 873c 31bf 9ad2 1840 2acb 48c0 0c0b 0d40
000000b0: f94b 19c0 c0a0 86bf 44f1 c9bf 596d d2be
000000c0: 144c bcbe 66b9 94bf 514d 8040 0b76 a1be
000000d0: d8a4 783f bddf 8cbf 93b9 d83d 105e 68bf
000000e0: 3e54 0cbf 3862 2ac0 8db4 ebbf d529 d1bf
000000f0: 449b 013e 4c3a 8a3f 800f d0bd ea0d e43f
00000100: 0d34 cdbe 5a64 f73e f3a3 9cbf 12cd de3f
00000110: 1dae a5bf 807f c5bf b8ef 86bf 1358 1f3f
00000120: 214e 5fc0 6a37 d93e 6df6 c53f 1ead b8be
00000130: a374 1dbe 3ba0 b43f 6183 54c0 5a22 6c3f
00000140: b87e 0340 15c1 1340 3adc f23f c569 ecbe
00000150: dbdc 14c0 0594 113f 4c8c cd3e 5237 4c3e
00000160: ab5c 4b3f c6fc 61c0 a2c1 c6bf 4e6f 3bbf
00000170: ae60 60c0 d0a0 f13f 2d2b 3e40 c156 37c0
00000180: 2c9b d33f 72d6 0840 4978 c1bf 93cf ea3e
00000190: ba2f 0a40 b09d 703f dc0a abbf a671 893e
000001a0: 8a9c d0be 4294 2540 4944 63bf 4282 ef3e
000001b0: 37a7 f8be 4a60 1ec0 50e0 9f3f e5b3 713f
000001c0: bec7 05c1 94d1 c1bf d9ce c2bf d1db 123f
000001d0: b594 983f 307b 6dbf c10e a5bf 1f14 1940
000001e0: a0c8 1a40 5a2f aa3f 4047 cfbf a870 0840
000001f0: f0ab bf3f 1217 51be edfd d5bc 12d7 d9be
00000200: e962 1440 c875 a13e 6edd 9e3f 96a9 a2bf
00000210: 69a7 8d3f 9af6 72c0 71e7 1c40 d688 a8be
00000220: a018 4cbe 608a a73e f2a8 a5bf 0e81 3fbf
00000230: 1462 2140 49a5 6b3f 8998 97bf 7c37 e7bf
00000240: dd55 c43e b60e c7bb e41f 11bf d9a3 0bbf
00000250: c20e adbe 3f57 7f3f 52e0 0240 a58f 933f
00000260: 909d dd3f a210 edbf 7763 dcbe be4f 50bf
00000270: 8a42 a5bd dfab f8bf 9e10 88be dcc1 6a3f
00000280: 8dd6 0940 d409 75bf 15a7 9cbe de35 37bf
00000290: a22d d03f a888 153f 456e 50c0 5b0e 0ac0
000002a0: 50d3 e73e 4856 483e c064 2dbf 3669 b1be
000002b0: 37d7 d53d 6b5f 20bf 7a3f 763e fce4 6dbf
000002c0: b5f9 adbf 626a 93bf c47e efbe 2610 66c0
000002d0: cdbd 0740 16ee 9bbe 6df4 613c aa9b 013f
000002e0: e3e7 373f 37f8 7d40 cb64 c3bf 493d 963f
000002f0: d43a 92bf 381a 2e3f 8fdb 94c0 2567 4340
00000300: 6b17 64bf 235e a73e 913a 1a3f 8779 10bf
00000310: ed6f e43e b209 133f 3021 eabe 9af1 2a3f
00000320: d29e eb3d c14c 4a3e 9eb5 18c0 ebaa 0d3e
00000330: 85ca f13f 648c a6bf 7aed 843f df22 e8be
00000340: 9300 dc3e addd 1c40 a732 a53f 5f73 1f40
00000350: 790a 8abe 3f3b 9bbf 1ae5 913f 3f9b bf3d
00000360: d3e6 f0bf 174d 1e40 8886 2840 fc3f 193e
00000370: e581 2e3f 4102 d5be 837e 453f 6bcb 543f
00000380: ff48 0140 1c38 8140 18c7 1ebe 120b 813f
00000390: 73b3 50c0 520b ba3f 8aeb 1940 44a0 f53e
000003a0: 2028 2cbf e495 873f 385b 1740 7c7f 0c3d
000003b0: 74bd d83e 1045 02c0 22b1 a1be 397d 383f
000003c0: 43a8 dcbe 756d 6cbf 0a02 90be 8306 c33f
000003d0: 2193 aebf a7a9 4240 e896 85bf 3a29 663f
000003e0: 5256 cd3f 1502 88be 6bf0 163e 74a5 d4bf
000003f0: 236b 1e3f 1b01 73c0 56b9 2cbf 4d9d da3e

fc2.bias f4 [4]
-0.16951828 0.09830562 0.14568657 -0.015344533
00000000: 3396 2dbe 7554 c93d dc2e 153e a367 7bbc
