policy_based/DDPG_checkpoint_critic_300.pth (torch, 436431 bytes, 7 tensors)

fcs1.weight f4 [256, 33]
00000000: 92e4 15bf 0f1b c13f da8d 923f e923 3fc0
00000010: 305a 90bf 74e1 9c3f fb28 c5bf 63c0 a83f
00000020: 7b55 0140 773d e0be b1fe a3bf 379b 6640
00000030: cd65 a740 6414 6b3f d13d 64bf 4c96 5c40
00000040: a842 3cbf 11dd bc3e cdd8 bc3e 4376 2f3b
00000050: 6032 953f f2f3 973f ba7b 0bbf 2225 61c0
00000060: 939c 8ac0 7c6d fc3f 4e7b dd3f 0745 4f3f
00000070: f9b1 d4bf 9015 b73b dd1d 37bf 680d 3dbd
00000080: 8440 bac0 6a43 1840 2343 c0be 650a 97bf
00000090: f5f1 7b3e e1f5 dc3e 3d4a 8abf 243a 763f
000000a0: bd72 883e 4445 103f 5cc2 e83e 0fee 1540
000000b0: 15e9 963f 1d93 35c0 1f8d a9be 180f 6dbe
000000c0: 08df 50bf 1de1 a4bc d0b9 c43e f5a2 b5be
000000d0: cceb b8be a825 99be 60aa 683e 96c2 133e
000000e0: 4bc6 05c0 e549 c53e b1a5 33c0 e951 a6bf
000000f0: ff84 83bf d533 b03f bcac 473d 839d 7d3f
00000100: 2014 c4bc 36be 0fc0 7c91 5dbf 3192 89be
00000110: dda3 3e3f 7367 2a3e cec2 3dbe 5080 c9bf
00000120: 079e 463f b068 4dbf e934 583f 3195 dabd
00000130: 071f 7bbf 84bd 3fbf 3801 413e 099e 1bbf
00000140: 6eb2 9c3f 3897 f9be 50fb fcbd 938f 45bf
00000150: 42ff 8e3e de2b 303f cdf4 ed3e b5b0 08bf
00000160: 7736 9bbe 8fac 203f 4ae1 e63f 74c2 fb3e
00000170: 4672 d83e bf7f a13f 6dd7 9a3d a869 b3bc
00000180: 9d6c a7bf ea5a 393d c5db 20c1 ea0f 79c0
00000190: b431 6ebf cdde fd3f 6446 b0be 5917 a03b
000001a0: c7d4 1dbf 4465 64bf d78e cfbe 8c42 753f
000001b0: 9f4a 3b3f f82e 10c0 6d38 70bf f90e 44bf
000001c0: 7bd6 af40 76f3 c83e 3d11 07c0 16eb 43bd
000001d0: c5c5 593e 7c77 06bf 8dc2 513e 023b 01bf
000001e0: f23b 3f3f ebef d5bd 4277 f940 ba5c cdbf
000001f0: 67fe 0bc0 aed0 183f b97b 653f 713c 4e40
00000200: a470 d33c a986 51bf bc45 35bd 284a 50c0
00000210: 9fa6 2ec0 33b8 c1bf f378 53bf d026 b1be
00000220: d674 7dba a86a 2a3e 15c6 093f d56d e23e
00000230: f357 2ebf 5c00 0ec0 daf8 bbc0 70aa 28bf
00000240: 774d 9a3e 739d 6c40 0495 f63f b378 bf3f
00000250: 6267 9ebe fca1 813b afda 49be bf38 b53e
00000260: 07d2 523f 08ed 88bf 64b0 86bf 2883 e440
00000270: c336 ca40 f0a8 df3f 882c 03c0 4eef 7cbe
00000280: e4c0 e5be c60a 1abd 4ee1 693e 00af c43a
00000290: a130 f93e 102c c2b9 3f60 80bc d2c7 503d
000002a0: 5202 163d c1d6 06bd f190 e8bc c5e2 00bd
000002b0: e199 c9bc 3f26 c7bc e285 80bc 4d69 bbbc
000002c0: 5394 943b 6eb1 283d 08df cebc 3506 b73c
000002d0: 3c28 293d c23e 0bbc 7d58 8fbb e90d 3fbd
000002e0: 53bf 083c 1932 b0bb f9a2 233d 26fa efbb
000002f0: a6d6 563a 1e80 78ba d7e9 ccbc 3499 403c
00000300: 47b8 b93d 4d49 a4bc c0a7 8a3a 7d3e 30bc
00000310: 20fa ff3c 332a 7ebd 1873 15bd 34be e63c
00000320: f700 6a3c f43d 803d 9102 913c f87e c8bc
00000330: ece9 b9bb 5a8d 90bd a0ce 36bd b855 21bd
00000340: 21ee 163d 3d2f 44bd 9d72 893d 356a 8fbd
00000350: 4fda 73bd 231b 0dbb f402 36bb 9cbd 273c
00000360: 1120 a1bd f5ff 463d 7891 1ebd 9a3b bb3c
00000370: 679a 243d d199 bf3b 14dc 753d ca47 2fbc
00000380: b91b a7bd 01bb a33d ced5 1dbc a077 c6bb
00000390: eb77 aebd 009c ddba 9e50 fc3c 012d d4bf
000003a0: 65af 1e40 2c7c ae3f e66c 33bf 05d6 8f3f
000003b0: c81e 193f 36c1 2d3f 8089 ec3f 22c7 103f
000003c0: 71fe bf3c 237a 8f40 7bf6 4140 390d ebbe
000003d0: b077 d33f 6203 50c0 7039 52c0 8545 873e
000003e0: 5bbe 323f 2290 5e3e e7de 11be b21b 3dc0
000003f0: 1510 2cc0 59a9 c43e ff4d 3b41 43b3 e03f
-0.58551896 1.5086383 1.144954 -2.9865668 -1.1277523 1.2256303 -1.5403131 1.3183712
2.0208423 -0.43796894 -1.2812101 3.6032236 5.231177 0.9182799 -0.89156824 3.4466734
-0.7353921 0.3688741 0.36884156 0.002677337 1.1655998 1.1871321 -0.54485667 -3.5178914
-4.331613 1.9720912 1.7303255 0.809647 -1.6616813 0.0055872872 -0.7152994 -0.046155363
-5.8203754 2.3791146 -0.3755122 -1.1800047 0.24604018 0.4315634 -1.0803906 0.96182466
0.26650038 0.5635569 0.45460784 2.342655 1.1789881 -2.837104 -0.3311548 -0.23150289
-0.8159032 -0.020126874 0.38423014 -0.3547589 -0.361174 -0.29911542 0.22721243 0.14429697
-2.0902278 0.3853294 -2.806988 -1.2993747 -1.0274962 1.3765818 0.048748717 0.9906847
-0.023935378 -2.2459846 -0.86550117 -0.26869348 0.74468786 0.16641025 -0.18531343 -1.5742283
0.7758488 -0.80237865 0.84455734 -0.10672987 -0.9809422 -0.7489855 0.18848121 -0.6078802
1.2241952 -0.48748183 -0.123526216 -0.771722 0.2792912 0.68816936 0.4647583 -0.53394634
-0.3031499 0.62763304 1.8037503 0.49171793 0.42274684 1.261711 0.075606205 -0.021900967
-1.3080021 0.045252718 -10.053655 -3.8915963 -0.9304459 1.9833618 -0.34428704 0.0048855958
-0.616528 -0.8921702 -0.40538666 0.9580467 0.7316074 -2.2528667 -0.938361 -0.76585346
5.4949317 0.39248246 -2.1104271 -0.047831617 0.2126685 -0.5252607 0.20484371 -0.50480664
0.74700844 -0.10446151 7.795808 -1.6043923 -2.1874025 0.5969342 0.8964191 3.222439
0.025810547 -0.818461 -0.044255957 -3.2545261 -2.7289197 -1.5134338 -0.8260643 -0.34599924
-0.0009668594 0.16642249 0.53817874 0.4422442 -0.6810295 -2.218772 -5.8741274 -0.65885067
0.30137226 3.69711 1.9264226 1.495871 -0.3093825 0.0039560776 -0.19712327 0.35394856
0.82351726 -1.0697336 -1.052258 7.1410103 6.319185 1.7473431 -2.049593 -0.24700662
-0.44873726 -0.03760793 0.22839853 0.0015005767 0.48669913 -0.00037035393 -0.015670894 0.050971813
0.036623307 -0.03291965 -0.028389426 -0.031466264 -0.024609508 -0.02431023 -0.01568884 -0.02287736
0.004534283 0.041184835 -0.025252834 0.022341827 0.041298136 -0.008498849 -0.0043745623 -0.046644125
0.0083463965 -0.005377066 0.039950345 -0.007323521 0.0008195437 -0.000947954 -0.025013847 0.0117552765
0.09068351 -0.020054484 0.0010578558 -0.010757086 0.031247199 -0.062051963 -0.036486715 0.028166868
0.014282457 0.062618166 0.01770142 -0.024474606 -0.0056736376 -0.07058211 -0.044630647 -0.03938839
0.03684819 -0.047896612 0.06711314 -0.07002679 -0.059534367 -0.0021531067 -0.0027772756 0.0102380775
-0.07867444 0.048583943 -0.03871295 0.022855569 0.040186312 0.0058471938 0.060024336 -0.010698268
-0.081595846 0.079946525 -0.009633495 -0.006056741 -0.08518966 -0.0016907454 0.03080016 -1.6576234
2.4794552 1.3631644 -0.7008804 1.1237189 0.59812593 0.6787294 1.8479462 0.5655385
0.023436757 4.4836593 3.030669 -0.45908526 1.6520901 -3.2502065 -3.2847557 0.26420227
0.6982171 0.2173467 -0.14245187 -2.9548154 -2.6884816 0.38410452 11.706542 1.7554706

fcs1.bias f4 [256]
00000000: 1804 55bf fd58 893f 431d 8dbf c741 3fbf
00000010: 36c6 433e 54b2 33be 3fbe 64be 7548 d8bf
00000020: 2043 3d3d 2dde 5abe 6b04 1b3e e9af 83bf
00000030: 2926 19c0 fd20 1abe 88fa eebd 61dc 45bf
00000040: 5df1 7ebf 7249 3cbe 1ebe 35bf 990e 8ebf
00000050: 1e94 11c0 3f24 cbbd 2b35 b5bf d48a 6a3e
00000060: 3383 07bf 0129 5cbe 3d1e c2bf e204 6fbe
00000070: ff37 debe 4aa1 a1be f8de edbf d1eb fbbe
00000080: 4cd9 26bf 08e3 9abf 935a 28be 563f 46bf
00000090: c319 c5bd 056f 2fbf 32c2 52bf 5f82 82bf
000000a0: 5ae5 25be cbcd 9cbf f9e8 26be 547c 2bbf
000000b0: c916 e5be 6808 20bf 86f4 20bf 561a 02bf
000000c0: f3f9 2ebd 5740 9abf 3b2e 57bd 07c9 60bd
000000d0: 4767 b2bf 37f4 f9bf dee0 e23c 4b14 92bf
000000e0: 90a4 2ebf 2e2c 28bf a340 aabf df2c 6abf
000000f0: c288 7b3d 19c1 a0be 5666 b1bf 9d5f 8dbf
00000100: 2255 713e 1487 61be a81f d2be 6eba 9abf
00000110: 95ff f63e 94c1 8fbe 5dad 32bf 0626 ca3f
00000120: 44f6 2b3e 7cc3 4fbf 19aa 3abe b196 a6be
00000130: 084c d9bc 8945 313e fd77 82bf 84b1 86bf
00000140: b55e aabf eb98 57bf bd5d 08c0 a942 3bbf
00000150: 4bb8 d4be f1a3 37bf c72c 60bf f223 41be
00000160: c5f8 6fbf cd8c 2ebe 6257 dcbf 5487 7ebe
00000170: 9066 80be e59b 18bf e948 d1be aa29 f1be
00000180: 916d 28bf 4ffb ad3e a813 4abf a3b2 94be
00000190: f603 1b3e d3f4 33bf 203b 7e3e 01e5 19c0
000001a0: 53a2 26bf 54a7 63bf d589 973e 04d0 51be
000001b0: e0ef dbbd 9b28 a7bf 8e85 73bf 7354 9abe
000001c0: d44d 07be 15fd cdbe 204c ea3f 5b5e dc3e
000001d0: 9c88 24be aecd a8bf 67ac b6be bb07 9fbf
000001e0: da68 0dbf 8362 79bf 46f4 c5bf fa8c 5cbe
000001f0: a10c efbe c451 b6be 42ef 50bf e397 d3be
00000200: a61b c3bf 427b 4ebe 5be5 04bf fb82 7abf
00000210: 1d6f 92bf a9d3 47be 9368 42bf ef72 b3bf
00000220: d5f4 613f ef33 91be 57ae a0be 718c 8d3e
00000230: 9381 673d 61a5 ff3d d5cf 8ebf 19d5 a83d
00000240: f0a3 99bf 5028 b5bf 5e61 23bf 78e8 aabf
00000250: ce56 bfbf 6f8c 99bf ff2e e4bf f7e5 a4bf
00000260: 6e77 1cbf 0c73 abbe 82ac 0dbe 519a b2bf
00000270: 1d51 1dbf f8e9 8e3e 5166 6bbf 8b67 223f
00000280: c1cd 3ebe 0cc5 b4bf 7068 cf3e 6eaa a1bc
00000290: 6e4e 88be 72ac 5fbf a8f8 1dbe e39d e5bf
000002a0: d4d0 19be e562 34be 6c77 21c0 2bed 01bf
000002b0: 831e d6bf a32a 24bf 8bf8 25bf f3f2 4bbb
000002c0: c880 a5be 3df4 96bf cf84 8ebe 3f40 743f
000002d0: 624a 0c3f 84fd 29be 9ce5 2bbf 112c 1abf
000002e0: 3349 79bf 6173 79bf 5342 82be ac25 eebf
000002f0: 4258 563e 1563 a0bf 7499 cabf 6774 d6be
00000300: fcc5 273e 304d 8fbf a6e6 9e3e c2fd 68bf
00000310: f29c 32be e169 46bf 389e 5239 cd04 91bf
00000320: cf1c bbbf 3b4b 12be ffd1 a2be f156 3d3f
00000330: aac7 91bf 0580 05bf 4be3 c8bd e61e c9bf
00000340: 4681 0b3f 0c5a b5bf 03ef 11bf b7d2 92bd
00000350: bb26 56bf 53d7 93bf ff4b ecbe f99f 8bbf
00000360: 5d6b 80bf 4b97 3b3e a0ed a4bb 5bb5 1abe
00000370: 8eb2 a7be 527f 32be 995b d63e a6c6 cfbd
00000380: 16ff 8cbf 2fdd 17c0 d334 ff3e 94b5 74bf
00000390: 43b0 19be 75e2 63bf cf11 e9be 6f83 adbd
000003a0: cb79 1ebe 0603 5f3e 6e8c 30be c147 c1bf
000003b0: 23db 87be 6282 78be 692e b1be 07b2 91bf
000003c0: 5f7b ddbe 866b a3bf 6f29 3abd 5023 8abf
000003d0: 1f36 59bf 673c c8be a669 e0bf a4a8 dbbd
000003e0: 6d65 9b3e da0a 13bf ecf5 02c0 00ea cbbf
000003f0: 3d97 09bf 39be e1be 3012 debd eee8 22be
-0.8320937 1.0730282 -1.1024555 -0.74709743 0.1911858 -0.17548496 -0.22338198 -1.6897112
0.046206594 -0.21373816 0.15138404 -1.0288059 -2.392954 -0.15051647 -0.11668879 -0.77289397
-0.9958704 -0.18387392 -0.7099322 -1.1098205 -2.2746654 -0.09919023 -1.415685 0.22904521
-0.5293457 -0.21500017 -1.5165478 -0.23341706 -0.43402097 -0.31568366 -1.858367 -0.4920335
-0.6517532 -1.2100534 -0.16440801 -0.7744039 -0.09624054 -0.6852878 -0.8232757 -1.0196036
-0.16200772 -1.2250303 -0.1629981 -0.66986585 -0.44743946 -0.62512827 -0.62873113 -0.50821435
-0.04271884 -1.2050885 -0.052534323 -0.054879215 -1.3937768 -1.9527653 0.027695116 -1.1412443
-0.6821985 -0.6569241 -1.3300976 -0.9147472 0.06140972 -0.31397322 -1.3859355 -1.1044804
0.23567632 -0.22024184 -0.41039777 -1.2088144 0.4824187 -0.28077376 -0.6979578 1.5792854
0.16793162 -0.8115766 -0.1822895 -0.32536843 -0.026525512 0.17311682 -1.0192868 -1.0522923
-1.3310152 -0.8421771 -2.1307213 -0.7314859 -0.41546854 -0.7173453 -0.87568325 -0.18861368
-0.9373897 -0.17045899 -1.7214167 -0.24856311 -0.2507825 -0.59612876 -0.4087594 -0.471021
-0.65792185 0.33980796 -0.78936243 -0.2904254 0.1513823 -0.7029545 0.24827242 -2.4046023
-0.6509144 -0.889272 0.29597345 -0.20489508 -0.10739112 -1.3059267 -0.95125663 -0.30142555
-0.13213283 -0.4023215 1.8304482 0.43040738 -0.16067737 -1.3187768 -0.35678408 -1.2424234
-0.55238116 -0.9741594 -1.5465171 -0.21538153 -0.46689323 -0.35609257 -0.8161508 -0.41326818
-1.5242813 -0.20164207 -0.5191247 -0.9785611 -1.1440159 -0.19514336 -0.7594082 -1.401945
0.8826421 -0.28359935 -0.3138301 0.2764621 0.056520056 0.124827154 -1.1157175 0.0824377
-1.2003155 -1.4152927 -0.63820446 -1.3352194 -1.4948366 -1.1995982 -1.7826842 -1.288268
-0.61119735 -0.3348621 -0.13835338 -1.3953344 -0.61451894 0.2791288 -0.91953 0.63439244
-0.18633176 -1.4122634 0.40509367 -0.019734588 -0.26622337 -0.87372506 -0.15426886 -1.7938808
-0.15021068 -0.1761585 -2.522914 -0.50752515 -1.6728061 -0.6412756 -0.6483237 -0.003112015
-0.32324815 -1.1793286 -0.278357 0.9541053 0.54801 -0.16600615 -0.6714723 -0.6022349
-0.9737732 -0.9744168 -0.25441226 -1.8605247 0.20932105 -1.2530237 -1.582808 -0.41885683
0.16384119 -1.1195431 0.31035346 -0.91012204 -0.17442682 -0.7750531 0.00020086102 -1.132959
-1.4618167 -0.1428651 -0.3180084 0.7396079 -1.1389058 -0.5214847 -0.09808978 -1.5712554
0.5449413 -1.4168105 -0.5700533 -0.07169097 -0.8365285 -1.1550087 -0.4615173 -1.0908195
-1.0032765 0.18319432 -0.00503321 -0.15108244 -0.32753414 -0.17431381 0.41866758 -0.10145311
-1.1015346 -2.372875 0.4984499 -0.95589566 -0.15008645 -0.8901742 -0.455214 -0.084723346
-0.15476148 0.21778497 -0.1724107 -1.5100023 -0.26534376 -0.24268487 -0.3460572 -1.1382455
-0.43258187 -1.2767189 -0.04544967 -1.0792027 -0.8484821 -0.39108583 -1.7532241 -0.10725525
0.3035082 -0.57438433 -2.0462599 -1.5930786 -0.53746396 -0.4409044 -0.10843313 -0.15909168

fc2.weight f4 [256, 260]
00000000: 02c6 f13f cb65 10c0 ec39 b73f 823d a1c0
00000010: 4813 5440 c5ad 89bc ecb0 97bd 902f 713f
00000020: d12e 26c0 447b 733c 558f c6bf 147c ff3e
00000030: b3b1 17c0 abfa b23e d45c 15bf fa28 27bd
00000040: f333 0f40 6fba 72bd 6032 ee3e 9ef2 693f
00000050: fbd1 13c1 e6d6 2b3d 99d7 ae3f b610 413f
00000060: 6137 69bf a6c2 923f d3ed 6e3f 38a9 2440
00000070: 45d5 53c0 6f19 95c0 9e03 acbf 3909 a93f
00000080: 0757 5ac0 1d1f a3bf 5b65 fcbc ffeb 93c0
00000090: f943 6fc0 f060 ccbf ab47 1dc0 0226 773f
000000a0: c0a9 babe 4c84 0d40 0bc7 cdbc 1eb1 803f
000000b0: c125 49c0 9d7b b8c0 1d95 e23d 2628 3440
000000c0: 8119 77c0 05c8 22bf 3a9a 3040 1837 9c40
000000d0: 0370 e4bf 9e14 aabf 6d3a 0040 f31a edc0
000000e0: 6d2f a1bf e2e1 0140 66ae 9b40 8bd3 053e
000000f0: 848c 3cbe 4e7f 673f c99b 613d a73f c6c0
00000100: 1f30 c73e dbf4 9cbd 9b21 8ac0 8f66 c4bf
00000110: aa0b 57be a856 fd3f fb7e 6f3f bc43 80be
00000120: ee06 49c0 943d dcbd e511 ebbc 4677 1840
00000130: 0083 0ebe 928f 833d 7d32 6bc0 7ab7 37be
00000140: da37 8e3f 3060 1cc0 f2a7 dac0 f027 443f
00000150: 0003 cac0 8d68 14c0 17dd 62c0 c462 b23f
00000160: 1dda 2240 4118 033d 762a 6dc0 1cde cd3c
00000170: e71a 2c3f 23de a8bf a853 e43e c452 0ebf
00000180: 240c 40c0 ce09 23c0 9c61 6bc0 1ce7 a7c0
00000190: 3a59 68c0 b56f a0bf 9b9b d23d 1900 5f40
000001a0: fcf9 2dc0 7644 f7be 8619 073e 17a4 32bb
000001b0: 2845 b8bc 9e87 4ac0 5522 0ac0 bb84 6dc0
000001c0: 01a8 0640 0f37 3ec0 f121 3d40 3213 933f
000001d0: 1f11 8b3d eff9 99bf 425d 123f e9af 8fbf
000001e0: 3181 4b40 4cec 8dc0 0de3 1a40 7222 1bbd
000001f0: fa1b ca40 c709 aa3f d14a e83e bef4 abbe
00000200: a163 ba3a f044 1c3d a24e 7c40 045a c23e
00000210: 380e 063f 3eb6 4040 a12b 9f40 a1f0 0a3f
00000220: 4afe 4ac0 e471 5740 bab8 afc0 5232 86c0
00000230: ebf0 00c0 53a9 02bf 4102 d63f ab9d 83c0
00000240: 2307 7cbf 28b0 0140 2bb7 7b3f 7edc 34c0
00000250: d510 f93e 274f 8dc0 699f 56c0 c50a d53f
00000260: 97d2 1b40 ded3 d73e 2ae9 01bd 579b 17c0
00000270: 8257 49bf ecb3 f53d 0239 ba3f f636 d73f
00000280: 22a8 56bd f744 b23f ef06 13c1 abd7 41bf
00000290: 6a1a c0bc f695 0dbe e81e e33b 891a 00bf
000002a0: 8215 31bd e657 00bd 9b34 80c0 88ac cb3f
000002b0: 734f c23f cb2d 323d 1389 c23f c71e 1540
000002c0: d384 03c0 431a 72bf 9b6e ebbf 8714 9abf
000002d0: fe35 21bd d3c2 2e3d 415a 2cc0 89ea 2fc0
000002e0: cf25 b93f 7c38 37bf 444c 96c0 b87e 3140
000002f0: f63e 14c0 f495 353f 12d5 5e40 36b6 a8c0
00000300: eb02 a73e ffad 23bf 9a87 e9bf f650 90bf
00000310: 5410 993c d03c 74c0 9be2 fdbe 1578 ccbf
00000320: a2a6 8340 83a7 323c 00f8 8cc0 054c b83e
00000330: 7f14 1b3e e900 8ac0 570b 42bc ce58 8540
00000340: 37ee a8bf 842d 81bf 3f2d 4e3e 1ecd 22c0
00000350: 84fe fabf dfd3 2cbe 0827 f13f b67a 5f3f
00000360: 22a2 81c0 5eab abbe fc85 8bc0 e082 0cbb
00000370: 74c1 28bf f2e4 bac0 36a2 1bc0 37a8 313d
00000380: 6020 6040 8b3d 0b40 52bf b3bf 1665 4140
00000390: 1754 80bd f29b a7c0 9487 06c0 897d 5f40
000003a0: 719e 63bf 2d18 97bc bbe1 e73b 72d2 2b40
000003b0: 3db9 bb40 4277 3cbd 47ad 74bf 3889 1dc0
000003c0: 1e83 57c0 ac64 b4c0 a277 203e b46d b6be
000003d0: fbb7 ce40 135a 2c40 66ce b6bf 3342 d440
000003e0: 15ae 1e40 fcdd 7c3c a777 a2c0 ee96 9940
000003f0: 2ce9 be3e 3201 9a3f e486 4bc0 e395 ac3c
1.8888552 -2.256213 1.4314551 -5.0387583 3.3136768 -0.016806493 -0.07406792 0.942132
-2.5966074 0.014860932 -1.5512491 0.49899352 -2.370221 0.3495687 -0.5834477 -0.040810563
2.2375457 -0.05925983 0.46522808 0.9138583 -9.238765 0.04195299 1.3659545 0.75416124
-0.91100127 1.1465652 0.9333164 2.5728283 -3.309892 -4.6593547 -1.3438604 1.320594
-3.4115617 -1.274387 -0.030810049 -4.622558 -3.7385237 -1.5967083 -2.4574993 0.9654237
-0.36457634 2.2111998 -0.025119325 1.0054052 -3.1429293 -5.7650895 0.11063597 2.8149505
-3.8609316 -0.63586456 2.7594132 4.8817253 -1.7846683 -1.3287542 2.003566 -7.4095397
-1.2592598 2.0294118 4.865039 0.13068978 -0.18412977 0.90428627 0.05508021 -6.19527
0.389039 -0.0766389 -4.316602 -1.5343798 -0.21000543 1.979207 0.9355313 -0.25051677
-3.141048 -0.107539326 -0.028695056 2.3822799 -0.1391716 0.06423868 -3.6749566 -0.17941085
1.1110795 -2.4433708 -6.833001 0.7662344 -6.312866 -2.3188813 -3.5447443 1.3936391
2.5445626 0.032005552 -3.7057166 0.025130324 0.6722855 -1.3192791 0.44595075 -0.5559504
-3.000741 -2.5474734 -3.6778326 -5.2469616 -3.630446 -1.253409 0.10283586 3.484381
-2.7183828 -0.4829442 0.1319333 -0.002725845 -0.022493914 -3.1645274 -2.1583455 -3.7112262
2.1040041 -2.9721105 2.9551966 1.1490233 0.06790375 -1.2029399 0.5717355 -1.1225559
3.1797602 -4.435095 2.420108 -0.037874646 6.315915 1.3284234 0.4536958 -0.3358516
0.0014220366 0.03815168 3.9422994 0.379593 0.52365446 3.0111232 4.974076 0.5427342
-3.1717706 3.3663263 -5.4912996 -4.1936426 -2.0147045 -0.5103962 1.6719438 -4.1129966
-0.9844839 2.0263767 0.9832637 -2.8259578 0.48645654 -4.415912 -3.3534796 1.6643912
2.4347284 0.4215383 -0.031716503 -2.3688562 -0.7864915 0.11997208 1.4548647 1.6813648
-0.052406438 1.3927296 -9.189193 -0.7571971 -0.023450095 -0.13826737 0.0069311745 -0.5004049
-0.043233402 -0.031333826 -4.0064216 1.5912027 1.5180496 0.043500703 1.5198082 2.3300035
-2.054982 -0.9457132 -1.8393129 -1.2037514 -0.03935813 0.042666268 -2.6930087 -2.74869
1.4464663 -0.71570563 -4.69681 2.7733593 -2.3163428 0.70931935 3.4817548 -5.2722425
0.32619414 -0.6393737 -1.8244507 -1.1274707 0.018684544 -3.8162117 -0.4958695 -1.5974146
4.114091 0.010904196 -4.4052734 0.35995498 0.15144537 -4.312611 -0.011843524 4.1670904
-1.3197697 -1.0092015 0.20134448 -2.5437694 -1.9608922 -0.16877697 1.8840036 0.8729662
-4.0510416 -0.3352918 -4.3601055 -0.0021440312 -0.65920186 -5.8404474 -2.4317756 0.043373313
3.501976 2.1756313 -1.4042761 3.0217948 -0.06266039 -5.2377863 -2.102025 3.492037
-0.8891364 -0.018444145 0.0070764697 2.6847196 5.866362 -0.04601217 -0.955769 -2.4615002
-3.3673778 -5.637289 0.15670636 -0.35630572 6.4599586 2.6929977 -1.4281738 6.633081
2.4793751 0.015433785 -5.077106 4.799674 0.3728727 1.2031615 -3.180108 0.021067565

fc2.bias f4 [256]
00000000: ae32 5dbf f559 20be 7b47 cc3d a501 d4bc
00000010: 5892 cc40 d27f 31c0 1989 24be af80 efbd
00000020: 85e4 c2bd 4412 29be 4e3c 0abe d6a8 e13f
00000030: eecd 87bd 4d4c e4bd 27c6 81bd 270d 79be
00000040: 6c2a 73be f1ef 07c0 1992 c240 2539 16be
00000050: 3608 3cbd 91f3 d4be b19d 3540 ed7a 08be
00000060: 49af 1dbe 43ff 0cbe 11f3 01c0 cc7b 8340
00000070: 2103 dfbd 4309 1ebd 9157 e9bd 2979 2440
00000080: 51b5 f2bd 3328 e9bf 823a 9ebd a128 c4bd
00000090: ab6c a1bd 785c 99c0 dd6f 22be b71b d6bd
000000a0: 0367 f7bd 1d5f 14be 2117 c5bd 325e bcbb
000000b0: de7b 00be ca51 12c1 495e 82c0 0bc0 c540
000000c0: a402 143c 48e7 81c0 c1cb 5440 73d7 a4bf
000000d0: 897a 80bd 6a3f e4bd da05 8b40 4656 9cbf
000000e0: bbca a5bd 9f9c 95bd 15fc 32be 1d80 5140
000000f0: 0880 98bf 0032 923f fffb 15be 581e 5140
00000100: e27c d5bd 7d87 9640 ee80 ffbd 0393 27c0
00000110: 22e2 0dbe d16f 0cbe 66ea 9f40 298b 22c0
00000120: 22b3 c6bd e509 91c0 6966 2ebe d50d 99bd
00000130: 0516 a8bd ff30 e0bd ae5e 0240 5bfe 94c0
00000140: f98b d140 ba91 9abd 8d5d 1cbe f378 1ebe
00000150: ad69 9240 e753 ddbd 331c 603f d9aa ccbd
00000160: fc7a 6ac0 949b 3ac0 7cbc 8340 a715 cf3e
00000170: bcdb 94be 3363 e43f ab84 3ac0 fdbe 3cbf
00000180: 44ce 98bc 22ba 8940 7a6c 98c0 a053 db40
00000190: f3a9 1dbe d6b0 1ebe dc69 f4bd aae8 03be
000001a0: 5e2d 7d40 8e3c b7c0 ffc4 03be c304 04be
000001b0: 1e13 403c 7dd4 01be 2fbf 9a40 a9e2 31be
000001c0: 946d d3bd 4254 5cc0 59e0 9640 d4be e3bd
000001d0: 9370 db40 91ab 1fbe 88b5 eebd 4da1 10c0
000001e0: ab9f 3cbc 041a 3d40 1398 15bd 1b72 2bbd
000001f0: c4e7 2bbe ae09 9c40 d0f6 17be ddd7 b6bd
00000200: fdd8 47c0 f150 2941 e8d3 23be fe36 03c0
00000210: c9a3 bdbd e90d 92c0 659b 98c0 dbae 01be
00000220: 7429 9cbe 7dab 37be 606e 3d40 5e59 72c0
00000230: b822 57c0 4a8e 33be 1b6d 0ec0 0edf 02bf
00000240: 6144 8940 6484 31be b7ff 6940 083e c03f
00000250: fff5 9b3e 33ab c740 6589 07be 7a0f b440
00000260: c342 4fbd 1020 b0bc c913 fbbd 9f36 5abf
00000270: 252b 97c0 ab30 403f f68d 6abe eafc 29be
00000280: 688a adbd 9dd7 6dbf a82d 11be 717b 92bd
00000290: 18a7 ffbf f73c d53a 452f 8e40 9e60 25be
000002a0: 7d17 53be 0e17 28bd b9b7 2d3f 9fed 3341
000002b0: 97f1 ad40 6d6f d4c0 149d 23c0 2f9c 19be
000002c0: d1f1 83bc d39a 01be ad56 f23f 1a17 0a3b
000002d0: b033 f9bd fff9 4ac0 3215 10be 34d1 e03f
000002e0: 24d4 52bd 3dc3 593f bc8e 8f3f a346 24bf
000002f0: 4c9c c240 7381 0240 8636 5ebe b043 b7bd
00000300: 066f b5bd 8a56 4dc0 3a22 1abe 0760 eabc
00000310: eb8c 9d40 7d7b c940 fb1d 1e3d 9472 8dbf
00000320: 98ed c1bf f1a6 22be 458f 9b40 d20d 95bd
00000330: 8f82 0f40 601d 72be d048 973e b343 1a40
00000340: c046 2d40 3d75 08be 7280 10be 8fe4 aebe
00000350: da6e a3c0 ea1f 0fbe 9212 2740 9ba7 0abe
00000360: eef9 08c0 7f2d da40 a650 0bc0 4f0e 8640
00000370: b8d1 56c0 d0d3 e4bd a6aa 05be f99e 29be
00000380: 09a9 3b40 df4d 873e 96e3 4fc0 5f75 3840
00000390: 5a26 8540 e235 96bd 4f2f 4240 d932 c0bd
000003a0: 9b61 013f c914 3840 d346 02be f872 e0bd
000003b0: 3b89 b2bf f8f7 89bd e8fc 0fc0 5169 d53f
000003c0: 37dd 913f 3b8c 90bd 3835 bf3f 8920 bfc0
000003d0: 2c64 8540 a755 febd 46be 18be a8f9 0bbc
000003e0: ecfc 22be 7193 6040 a137 1d40 ba2a f640
000003f0: 8398 9fbd c088 adbf 2a3e b73e 4212 3ebe
-0.86405456 -0.15659316 0.09974571 -0.02587969 6.392864 -2.7734265 -0.16067924 -0.11694466
-0.09516243 -0.16510874 -0.13499567 1.762965 -0.06631075 -0.11147366 -0.06336623 -0.24321423
-0.23746651 -2.1240199 6.080334 -0.14670236 -0.045906268 -0.41592076 2.8377497 -0.13328142
-0.15398897 -0.1376925 -2.0304606 4.108862 -0.10889269 -0.03858305 -0.11393655 2.569895
-0.118509896 -1.8215393 -0.07726003 -0.09578062 -0.07882055 -4.7925377 -0.15862985 -0.10454505
-0.12080195 -0.14489408 -0.09623552 -0.0057485336 -0.12547252 -9.144968 -4.0740094 6.1796927
0.009033833 -4.0594826 3.3249362 -1.287825 -0.06273372 -0.11144908 4.3444643 -1.2213829
-0.080953084 -0.07305264 -0.17478974 3.2734444 -1.1914072 1.1421509 -0.1464691 3.267477
-0.1042421 4.704039 -0.12475763 -2.618348 -0.13855794 -0.1371453 4.997363 -2.5397437
-0.097021356 -4.532458 -0.17031254 -0.074733414 -0.08207325 -0.10946845 2.0370288 -4.6560493
6.5483365 -0.075473264 -0.15270062 -0.15475826 4.5754 -0.10807019 0.8754303 -0.09993524
-3.6637564 -2.9157457 4.1167583 0.40446207 -0.29073894 1.7842773 -2.9143474 -0.73728925
-0.018653043 4.3039713 -4.763242 6.853958 -0.15396862 -0.15497145 -0.119342536 -0.12881723
3.955894 -5.726142 -0.12868117 -0.12892441 0.011723308 -0.12678714 4.835838 -0.1737162
-0.10323635 -3.4426427 4.714886 -0.11120382 6.857492 -0.15592791 -0.11655718 -2.259845
-0.011512677 2.9547129 -0.036521982 -0.041856866 -0.1678763 4.8761816 -0.14840245 -0.089278914
-3.122619 10.582261 -0.15998805 -2.0502315 -0.09259755 -4.564198 -4.768969 -0.12664358
-0.30500376 -0.17936511 2.9598618 -3.7867045 -3.361494 -0.17534748 -2.2254093 -0.51121604
4.289597 -0.1733566 3.6562326 1.501893 0.30461118 6.2396483 -0.13236006 5.626889
-0.05060078 -0.021499664 -0.12259633 -0.85239595 -4.7240167 0.7507426 -0.22905716 -0.16600385
-0.084736645 -0.92907125 -0.14177573 -0.07152451 -1.9972868 0.0016268779 4.44327 -0.16150138
-0.20614429 -0.04103761 0.67858464 11.245513 5.435741 -6.638602 -2.5564623 -0.15000986
-0.016106518 -0.12656717 1.8932701 0.0021070899 -0.12168062 -3.1715086 -0.14070585 1.7563844
-0.051471844 0.85063535 1.1215434 -0.64170283 6.081579 2.039151 -0.21700487 -0.08948457
-0.08859067 -3.208407 -0.15052119 -0.028610243 4.923452 6.2963243 0.03860281 -1.1050591
-1.5150633 -0.15883996 4.861239 -0.07278027 2.2423437 -0.23644018 0.2954774 2.410382
2.7074432 -0.13325973 -0.14111498 -0.3415875 -5.1072817 -0.13977018 2.6105084 -0.13540499
-2.1402545 6.8180537 -2.1767974 4.1892467 -3.3565502 -0.111732125 -0.13053378 -0.1656455
2.932192 0.26426598 -3.2482657 2.8821638 4.1609316 -0.07334496 3.0341375 -0.093846984
0.5053956 2.8762686 -0.1272233 -0.109594285 -1.394813 -0.067367494 -2.2498112 1.6672765
1.1395634 -0.07057997 1.4938116 -5.9727216 4.168478 -0.12418681 -0.14916334 -0.008543409
-0.15916795 3.508999 2.4565203 7.6927156 -0.07792761 -1.3557358 0.35789615 -0.18561652

fc3.weight f4 [128, 256]
00000000: 9b0c f7bd b044 5d3c 9a01 91bd cc48 62bb
00000010: f151 b2bd dff6 623c 6bac 993d 8b8e 47bd
00000020: e6b0 5e3d e10f a13d 30f4 ddbb 67af ccbc
00000030: e9b9 cfbc 40b9 153d 3b83 703d a9ec 93bd
00000040: a0b0 823d 811e abbd 36e4 a1bd bafc 553d
00000050: f8b7 933c b668 1cbe c512 23be 1f3b ad3d
00000060: e90b af3d 371c a23d 4e65 fa3c bfcb b2bd
00000070: e896 4e3c 8f11 67bd 25ef 09bd ac88 b73b
00000080: b3ad 3ebc a4a4 4f3d effc 70bd cc31 95bd
00000090: dd86 97bd 5ab1 a1bd ae43 643d 4b6e 993d
000000a0: d719 a8bd e2a4 143d d646 113d 2a42 f63c
000000b0: 6481 c3bc 7df1 3ebe 32a8 04be 18cd 8fba
000000c0: ed9a 66bd 5099 34bd 494d 9a3d d856 ba3c
000000d0: 592c 9c3d 845f 803c acd1 85bc 0f8b 9bbd
000000e0: 98e6 013d 04d7 5fbd 0025 ff3c ea04 6c3b
000000f0: 3665 d3bd 5cd7 01bd 20f5 be3b 761c 82bd
00000100: 2957 19bd 60fe b0bd 6e65 563d 44de 18bd
00000110: 2022 de3c 6c15 953c da9d 4ebd 86b8 9d3c
00000120: a48c aa3c 37c6 55be 3c82 a93c 7159 07bc
00000130: 2f1a 72bd 8f3d 16bd 641a 09bb 4d87 61bd
00000140: 8e3c b4bd 473b ae3d 904b a13c 7de5 a23d
00000150: 439b 9ebd c02c e7bb ea91 9dbd 6239 f4bc
00000160: c39f 40be 216c 623d e452 16be 3295 68be
00000170: 9535 c9bd f03f 33be c1ab 43bd a945 26be
00000180: 7f91 1dbd 1954 0abd 5356 25be e988 373b
00000190: 56f0 2f3d b5cb 8bbd 67b7 a5bd 287a 0dbc
000001a0: 3f0f f9bd 1285 7aba 6ad0 9dbd c612 4cbd
000001b0: b075 acbd 0eff 6a3d 27a4 683d bcb8 d13c
000001c0: 6a7b 7b3d 5fa2 e6bc c289 7fbe bbcc 893d
000001d0: ac51 84bc 6647 353d f86d 92bc 500a 0abd
000001e0: 37d4 b03d 397e a03c 237d 8c3c 7ede 633d
000001f0: 4a86 73bd 2bff eebc a939 813d 2697 8e3c
00000200: fb2b 6ebc 8a05 12bf f4f9 8ebd 6bdf 30be
00000210: 4279 663d 697e 2abe ff7a 0cbe 60bd 90bb
00000220: 048c ef3c e80d e2bc 4663 2fbc ef8c d7be
00000230: f67a bebd 60bf ee3c 9d0a e6bd 4d3d 88ba
00000240: 28fe d6bd e219 373d 5d3a 33bc 1332 18bd
00000250: aa09 72bd f1fa 1dbe 21a2 b33d d82f b8bc
00000260: c4ff a5bd 402e 60bc f6fd 033d f8a1 193d
00000270: 7bac a5be c617 273c 1c34 923c a053 b1bb
00000280: fa2e 1f3d bcbe 9c3d f474 35bd ae05 3fbd
00000290: e8f7 6cbe 52b1 76bd a523 04bd ba77 2a3d
000002a0: 9714 1fbd 363e a6bd 69d3 04be 5bc9 bebe
000002b0: e859 4bbd 9d44 07be af9a dbbc 02f8 4e3d
000002c0: b92f 2c3c eb55 2dbd 8426 573d 72d9 503d
000002d0: 81b9 8b3d d2e2 f7bc 27b4 a3bd 12fb 70be
000002e0: 6412 0cbd 6904 af3d 4dc5 18bd eba0 fa3c
000002f0: 9a22 b0bd bd05 50bd 01a7 b43d e801 0ebc
00000300: c3e6 833d 90fc 72bd b8cd 5cbd d587 91bd
00000310: a8f3 b1bc abb1 97bd 8e7e 8fbd 0949 563a
00000320: 6902 2cbd b60e 243d 375c b3bd 189c a9bc
00000330: 2c9f f7bd 3d93 933c 52a4 6cbd f3a3 8dbd
00000340: 742b c6bd 78e0 68bd 66a4 063d 5f85 a8bd
00000350: 184d 09be 3c02 aabd 257e 09be 1051 90bc
00000360: fe3e 163d e5c3 dabd 298b 14be e1c5 c4bd
00000370: cf25 c9bd 7be7 a8bd 2b4d 7abd e6d0 253d
00000380: 3922 283d 2180 4c3d 33cf 2abe 529f 87bd
00000390: 1839 88bd 3223 4bbd c9db a8bc e5f6 a53d
000003a0: 7710 a73d a639 123e b9d0 a13d e4d6 b9bc
000003b0: ee06 9bbe 08c0 fb3c d284 04bd d510 53bd
000003c0: ea37 24be bac6 92bd 7be8 453d 178a 1dbe
000003d0: d92e 03bd 2025 cb3b 4eae 383d 9ebf d53c
000003e0: a83a 503c a2fe 76bd 3740 74bd d4e4 75bd
000003f0: e88b 8cbd f2c3 19bd 62cd a4be c1ce 813d
-0.12062951 0.013505146 -0.070803836 -0.0034528254 -0.08707035 0.013852804 0.07503589 -0.048719924
0.054367922 0.07864357 -0.006773494 -0.024985982 -0.025357204 0.03655362 0.0587189 -0.07222874
0.06381345 -0.083554275 -0.07904856 0.052242972 0.01803206 -0.15274319 -0.15925129 0.08458542
0.085471936 0.07915538 0.030565884 -0.08730268 0.012609221 -0.05641323 -0.03367533 0.0056010094
-0.011638093 0.050694123 -0.058834966 -0.072848886 -0.0739877 -0.07895155 0.055728607 0.0749174
-0.082080536 0.036290057 0.035467945 0.030060846 -0.02386541 -0.18646808 -0.12954786 -0.0010971157
-0.056300092 -0.044091523 0.07534272 0.022746488 0.07625646 0.015670545 -0.01633533 -0.07594883
0.031714052 -0.054648414 0.031145573 0.0036013671 -0.10322039 -0.031699523 0.005827561 -0.06353085
-0.037436638 -0.08642268 0.052342825 -0.037321344 0.027115881 0.018198691 -0.050443508 0.019253027
0.020819016 -0.20876394 0.020691983 -0.008261071 -0.059107002 -0.0366798 -0.002092027 -0.055060674
-0.088006124 0.085074 0.019689351 0.07953928 -0.077444576 -0.007054895 -0.076938465 -0.029812519
-0.18810944 0.0552789 -0.14680058 -0.22713163 -0.09824673 -0.17504859 -0.04777122 -0.1623751
-0.038468834 -0.033771608 -0.16146211 0.0028005189 0.04295381 -0.068259634 -0.08091622 -0.008635081
-0.12161111 -0.0009556572 -0.077057675 -0.04982259 -0.084208846 0.057372145 0.056797173 0.025600784
0.061396994 -0.028153596 -0.24954894 0.06728502 -0.016152225 0.044257544 -0.017874703 -0.03370124
0.08634227 0.019591438 0.017149514 0.055632107 -0.05945424 -0.029174408 0.06309826 0.017406058
-0.014536853 -0.570397 -0.069812685 -0.17272727 0.056267984 -0.16649784 -0.13718794 -0.0044171065
0.02924157 -0.027594522 -0.010704821 -0.4209971 -0.09300797 0.02914399 -0.11232493 -0.0010394246
-0.10497695 0.04470242 -0.010939208 -0.03715713 -0.059091248 -0.15427758 0.08771158 -0.022483751
-0.08105424 -0.013682902 0.032224618 0.03750798 -0.32358155 0.010198539 0.017847113 -0.00541158
0.03886316 0.07653567 -0.04430099 -0.046636276 -0.23141444 -0.0602277 -0.032260556 0.041618086
-0.038837995 -0.081173345 -0.12971272 -0.37262997 -0.04964629 -0.13209768 -0.026807157 0.050529487
0.010509425 -0.042318266 0.052526966 0.050988622 0.068224914 -0.030259524 -0.07993346 -0.23533276
-0.034197226 0.08545763 -0.037297536 0.03059431 -0.0860035 -0.050786722 0.08820916 -0.008667447
0.06440499 -0.059322894 -0.053907126 -0.07105986 -0.02172263 -0.07406934 -0.0700656 0.0008174335
-0.041994486 0.040053092 -0.08757823 -0.020704314 -0.120909065 0.018014545 -0.057773896 -0.069160365
-0.09676257 -0.056854695 0.032871626 -0.082285635 -0.13408315 -0.083012074 -0.13427027 -0.017616779
0.036681168 -0.10681895 -0.1450621 -0.09608055 -0.098216645 -0.082472764 -0.06110875 0.040482424
0.041048262 0.04992688 -0.16680603 -0.06622185 -0.06651515 -0.04959411 -0.020612614 0.08103732
0.08157437 0.14279804 0.07901139 -0.022685476 -0.30278724 0.030731216 -0.03235323 -0.051529724
-0.16036955 -0.0716681 0.048317414 -0.15384708 -0.0320271 0.006199494 0.045088105 0.026092347
0.012709297 -0.06030143 -0.059631553 -0.06003268 -0.068626225 -0.037540384 -0.32187945 0.06338263

fc3.bias f4 [128]
00000000: 26ce 8bbf bcc7 2cbf d643 49bf 42ed 4fbf
00000010: 691b cbbf 0d93 e4bf dab4 86bf 779b 76bf
00000020: 3b3a 4ebf 330f 4bbf e251 01c0 fe55 59bf
00000030: 73b2 80bf 9739 5cbf 7200 45bf d217 4bbf
00000040: ed2f 91bf 438c 57bf 9fdf 68bf fcc2 60bf
00000050: 3273 7cbf 1cfb 7ebf 513d 86bf 10e6 5dbf
00000060: 0002 5abf 7c7d 32bf 7141 39bf 828e a6c0
00000070: 61ca 68bf add8 73bf 8163 4abf cf1b 2dbf
00000080: b60d babf 66e0 1fbf 64f3 2dbf bbc0 b0bf
00000090: a6b3 2cbf fdbe 65bf 5083 89bf 055f 70bf
000000a0: 4786 d7bf 083e 66bf 2c71 36c0 e9ce 76bf
000000b0: adb7 1fbf b908 a0bf 9ef3 ecbe 3d5b 2ebf
000000c0: 8509 28bf c985 4abf f673 ddbf e586 1fbf
000000d0: 4e4f f0bf b6f9 e0bf 68ae e4bf 3d3d 2dbf
000000e0: 18a6 0dbf ea27 25c0 be95 61bf 2227 2abf
000000f0: 2835 85bf 3bcc 49bf 4c6b febf ebf9 42bf
00000100: 9ecc 94bf e5c6 0bc0 d5cb 28c0 2dba 63bf
00000110: b290 6ebf 80ec 20bf e39b b6bf 62ea 20bf
00000120: af1e 32bf 3362 8bbf ddb0 44bf d72a 3cbf
00000130: b5f9 21c0 9c93 5140 0eba 75bf 0d78 69bf
00000140: 4a01 63bf 5fa5 43bf f7e9 a8bf a236 8ebf
00000150: f00b 57bf 7cb9 67bf df95 41bf 93c1 2dbf
00000160: d9e0 4abf 5fed 59bf 27fb 57bf 7a36 2341
00000170: 91ac 35bf 06fa d4bf f585 d9bf b032 d7bf
00000180: 9e47 85bf 950f e1bf 8402 5bbf c57b e1be
00000190: 84bb 29bf a189 88bf fa98 2fbf 66d6 84bf
000001a0: 8ff1 b0bf bf6d 3abf 09c3 1dbf c023 25bf
000001b0: 0779 62bf 8570 f0bf b66f 31bf 81f6 60bf
000001c0: 4b62 78bf 4707 80bf 7de9 a0bf ec9a 56bf
000001d0: cd00 54bf 9c04 3bbf b176 70bf 9a54 03c0
000001e0: 3e85 80bf 4cec 58bf 0ec2 9fbf 87ac 74bf
000001f0: 749d 60bf c780 49bf 5379 83bf e5bd 3abf
-1.0922287 -0.6749227 -0.78619134 -0.812214 -1.586774 -1.7857376 -1.0523942 -0.9633097
-0.805576 -0.7932007 -2.0206227 -0.8489684 -1.0054458 -0.86025375 -0.76953804 -0.7933322
-1.1342751 -0.841984 -0.9096622 -0.8779752 -0.98613274 -0.9960191 -1.0487462 -0.8667917
-0.851593 -0.69722724 -0.7236548 -5.204896 -0.90933806 -0.95252496 -0.7905808 -0.6762056
-1.4535434 -0.6245178 -0.6794951 -1.3808817 -0.6746162 -0.8974455 -1.0743198 -0.9389499
-1.6837853 -0.899384 -2.8506575 -0.9640947 -0.6238964 -1.2502662 -0.46279615 -0.6810797
-0.65639526 -0.7911039 -1.7301013 -0.6231521 -1.8774202 -1.7576206 -1.7865725 -0.6767157
-0.55331564 -2.5805612 -0.88119113 -0.6646596 -1.0406847 -0.78827256 -1.9876494 -0.76162595
-1.1624944 -2.1840146 -2.637441 -0.88955957 -0.9318954 -0.6286087 -1.4266323 -0.6285764
-0.6957807 -1.0889343 -0.7683237 -0.7350287 -2.530866 3.2746344 -0.9598702 -0.9119881
-0.8867384 -0.7642421 -1.31964 -1.1110423 -0.8400259 -0.905174 -0.7561931 -0.67873496
-0.7924934 -0.85127825 -0.84367603 10.2008 -0.7096644 -1.6638801 -1.6994005 -1.6812344
-1.0412481 -1.758288 -0.85550714 -0.4403974 -0.6630175 -1.0667001 -0.685928 -1.0377929
-1.3823718 -0.7282371 -0.61625725 -0.64507675 -0.88465923 -1.8784338 -0.6931108 -0.87876135
-0.97024983 -1.0002221 -1.2571255 -0.8383014 -0.8281372 -0.7305391 -0.9393111 -2.0520387
-1.0040662 -0.8473556 -1.2481096 -0.95575756 -0.87740254 -0.78712124 -1.02714 -0.72946006

fc4.weight f4 [1, 128]
00000000: 8167 79bc 9437 73bc 562a e33c 34e4 b73b
00000010: e02b d33a 8113 41bc f738 17bc 60fc 773c
00000020: 831f 79bc ca89 c33c ba31 903d ba7c ae3c
00000030: 79a6 84ba b58a 64bb f7b3 babc fd91 cd3c
00000040: 15d1 bcbc 26c1 71bc a97a 8dbc fec9 f1bc
00000050: 1705 0fbc 73b6 793c 324b a2bc 9847 c8bb
00000060: 3ead a63b 8a03 ef3a d692 a23b e108 3bbb
00000070: 493c 9cbc 16d6 3c3a 7cf0 91bc 43b3 afbc
00000080: 5c77 673c 5853 233a 4548 a239 c757 13bc
00000090: c206 6fbc 9f1a d53c 427e d6bc 7acb 95bc
000000a0: c8d5 9339 97f6 3d3c 31c0 f63b cbe8 273c
000000b0: caf9 e83b 3778 08bd a255 0f3c 8881 f73c
000000c0: 8e72 e03c 3aeb 213b 3ade 97bc f486 c7b9
000000d0: 47ff 4bbc e0c3 0fbc 3c7a 52bc 7a34 983b
000000e0: dc90 34bc 87b1 ee3c ef82 b3ba c267 f4bc
000000f0: 9d92 2e3c ae21 debc c99e 023c d91f b6bb
00000100: a19e 713c 9764 413c 1e66 713d ff94 e43b
00000110: bd0b 443b 9257 e33c 3c94 cc3c 66dc 823c
00000120: 9130 26bd daef 3bbc fe43 ff3c 7423 683c
00000130: 30c2 aebc a6ac 99bc e3b4 8e3c 5270 2d3c
00000140: 1e8d 4cbc dc4b 16bb 544f 6b3c 76fa 453c
00000150: 2571 ad3c 23c3 86bc f2d6 28ba de4b 9cbc
00000160: be47 8abc 76bf a9bb 7c21 943c 312f 023d
00000170: db3f d53c e926 f63c 602b 003c 01af 8f3c
00000180: 0eb5 b43c af37 90ba 602f 2cbc 6d19 e73c
00000190: f54c 993c c807 46bc f17a e23c 68de 063c
000001a0: 4403 a6bb 21c6 c53a b0ac c2bc 6f18 0f3c
000001b0: f306 adbb d598 98bb 76e3 ac3b acaf b63c
000001c0: 685f 9bbb 9183 afbc 4726 f93b 9f55 fdbb
000001d0: 907d c23c 58b3 a33c 969f ba3c fb9e aab9
000001e0: cc95 f23c 4a5e 25bc 1898 a1bc 94a8 4a3c
000001f0: 3ad8 ce3c 12eb 99bc 25de cebb ad39 f1bb
-0.015222431 -0.014844794 0.027730148 0.0056119207 0.0016111098 -0.011784435 -0.00922989 0.0151358545
-0.015205267 0.023869414 0.070407346 0.021299709 -0.0010120413 -0.0034872715 -0.022790892 0.025094027
-0.023048917 -0.014755523 -0.017270403 -0.029515263 -0.008729241 0.015241253 -0.019811247 -0.0061120503
0.00508657 0.0018235308 0.004961352 -0.0028539228 -0.019071715 0.0007203532 -0.017814867 -0.021447783
0.014127579 0.0006230376 0.00030952893 -0.008993096 -0.0145890135 0.02601367 -0.026183251 -0.018285502
0.00028197304 0.011594436 0.007530235 0.010248373 0.0071098553 -0.03331777 0.008748444 0.030213133
0.027398374 0.0024706856 -0.018538583 -0.00038056786 -0.012451 -0.008774728 -0.012846526 0.0046449276
-0.011020865 0.029137386 -0.0013695637 -0.029834632 0.0106550725 -0.02711567 0.007972428 -0.0055579958
0.014747293 0.011803768 0.058935277 0.0069757695 0.0029914223 0.027751718 0.024973027 0.015974235
-0.04057366 -0.011470759 0.03116035 0.014168609 -0.02133283 -0.018759083 0.017420238 0.010585861
-0.012484817 -0.00229334 0.014362175 0.01208364 0.021172116 -0.01645047 -0.0006440721 -0.019079145
-0.016879912 -0.0051802946 0.018082373 0.031783286 0.026031425 0.03004785 0.007822841 0.017539503
0.02205899 -0.0011002923 -0.010509342 0.028210366 0.018713454 -0.012086816 0.027646514 0.008231737
-0.0050663073 0.0015088954 -0.023763984 0.008733853 -0.0052803694 -0.004656891 0.005276139 0.022300564
-0.004741598 -0.02142504 0.00760344 -0.007731154 0.023741513 0.019982979 0.022781175 -0.00032543376
0.029612444 -0.010093281 -0.019725844 0.012369294 0.02524959 -0.018788848 -0.006313103 -0.007361612
