multi_agent/checkpoints/Multi_checkpoint_actor_30_20_local_2500_run1.pth (torch, 29087 bytes, 4 tensors)

fc1.weight f4 [256, 24]
00000000: 807a 1cbe 8cdc cabe ea1d d33d 49e7 00bf
00000010: a077 1dbd a886 853e b0e9 d43d 39f0 0dbf
00000020: ea30 e6bc 07f9 cabe c1db 1a3e 0fa7 8cbe
00000030: 81c8 003d ce3e 553d b980 293e 9ecd 99be
00000040: ada2 3dbd cce6 b0be a9ba 5e3d bab2 ec3d
00000050: 1da8 343e 5ca7 88bd b3cd 0d3d 6956 323e
00000060: 72a8 13be f727 07bf d89b b9bd a582 5cbe
00000070: 4081 82bc 23b7 f93e a993 45be 1bfd 25be
00000080: d5e2 a8bd 5b12 e3be e760 323e a9d8 6f3c
00000090: 95c5 e83b 324d 803e 0d26 693e b452 27bd
000000a0: 7af4 293d 4f5c 4fbe 8f6c cfbd ddfd b0bd
000000b0: 8837 51be be1d 6ebd 532d 85bd 6a5b a8bc
000000c0: b90e ecbd 8efc 52bf 06e6 593d 80b0 acbe
000000d0: ab7c 8a3e bf35 b0be 5967 c5bc c044 a7be
000000e0: af43 cabd 60b4 52bf e6e6 203c f5a8 2abc
000000f0: 4b6b b63e 0023 05bf bede a7bd e0c4 a0bc
00000100: c15d 87bd 1d25 31bf d23f 64bc 004f 3b3e
00000110: 34ba 0e3f 603a 7fbf 44a4 ecbc c6dc 0c3e
00000120: cd7b adbe d8ac ed3e 2b6e 9d3d b951 033f
00000130: 950e c6bd b51c d3be 1797 d33d 4d73 073f
00000140: 6cda 34be c137 253f 07ea 153e 0f36 9e3e
00000150: 9d90 2f3d 357f 32bf 58a4 163e 2d8d b33e
00000160: d239 a8bd a18e 233f f948 243e 5c38 f93d
00000170: 0d8a 413e c889 92bf 89ad 5b3e 8984 4a3e
00000180: 9048 5abc 1099 79bc 14cb 20bd 804c 9cbb
00000190: f245 6abd 9c09 2d3d bcd4 5c3d d08d 883c
000001a0: ba1d 723d daf2 003d 26b2 293d f672 6c3d
000001b0: 3402 30bd c0ac a0bb d859 c03c d40b 89bc
000001c0: a098 35bd c0c3 a0bc 04cf fdbc 5c93 b3bc
000001d0: 4605 43bd 9071 9abc 24af 123d 4cb8 e0bc
000001e0: 185c 443d 597d 2e3e 7567 35bd 12d8 0dbf
000001f0: e683 ce3c c01a b6be 42ae b63c 3bb4 0cbf
00000200: 3a3a a33c 15ad d83d 2865 293e 4ca4 41bf
00000210: c672 b23c 4f1c 8bbe 987f 393e 2356 42bf
00000220: 94ff 343e 4168 3c3e e688 62be bb66 10bf
00000230: 20e8 413c 9b47 62be 4ab5 10be 5996 0ebf
00000240: 8861 e63d efe6 66bd 816e 9cbd 1687 683e
00000250: 738d 1f3d 0d96 e83e ae6c 34bd 9fa3 353e
00000260: 31f8 e63d 05d4 b63c 1033 77bd 5ba3 1b3d
00000270: b883 69bd 443e 063f 7619 33bd 0a8f a23d
00000280: f352 833e edff 463e 600c 163d c5c8 71be
00000290: 40b0 f4be 5c07 053f 6deb a33d 3713 63be
000002a0: 8ee7 f73d a2fb 243e 1d82 113d adba db3d
000002b0: 70a4 08be 6b22 1bbe e7c1 4b3b 696d 993d
000002c0: 8c15 503e 39f5 fb3d 259a 703d fba7 abbd
000002d0: abae 6bbe f5a5 91be 1f6d b53d 535b 01bb
000002e0: 5472 753e 2540 1c3e a1cc b13d ac00 babe
000002f0: 5e77 87be fff1 12bf 2b56 943d 8af6 c0be
00000300: 7693 3dbe 0196 08bf c592 943c efef c63c
00000310: fd1d 3b3c 687b 613f eae7 afbd f8f3 823a
00000320: c6b4 05be 0f6f 11bf 185d d6bd 62e2 e7bc
00000330: bdee 5b3c eee4 653f d48c 63bd 9bbc 53bc
00000340: 0473 983d cffc 26be c4eb a6bd 3938 a2b8
00000350: 7ed4 cdbe 8d15 e23e fc50 e1bd 8a69 a73d
00000360: b890 43be 81dc cc3e 0844 023e 90ba bb3a
00000370: 37fb 10be 271d e8be dd5c 763e 213a bbbb
00000380: 33f8 34be a170 923e 17fb 863d 9787 47be
00000390: 0f86 3bbe c57f 01bf 98a2 f83c d83c 85be
000003a0: 07c0 72be 3110 853e 7966 fabc 9238 0ebe
000003b0: 6bf3 01bd 5c83 90be 7c0d 1739 d012 04be
000003c0: cb1d c6bd e399 c6be 6bd8 603c 9be0 ce3d
000003d0: b388 03be c071 283f 8cda e5bb 8173 bd3d
000003e0: b342 b8bd 52e7 eebe c9f3 33bd d297 fa3c
000003f0: 9380 31be 8b64 593f d892 babd e284 81bc
-0.15281105 -0.3962139 0.1030844 -0.50352913 -0.03844416 0.26079297 0.10396135 -0.55444676
-0.028099496 -0.39643118 0.15122892 -0.27471206 0.031441215 0.05206185 0.1655301 -0.30039686
-0.046297718 -0.34551084 0.05437723 0.11557527 0.17642255 -0.06672546 0.03462 0.17415775
-0.14419726 -0.52795357 -0.09062928 -0.21534212 -0.015930772 0.48772535 -0.19294609 -0.16209833
-0.0824639 -0.44349942 0.17419778 0.014639058 0.0071036317 0.25058895 0.22768421 -0.040850356
0.041492917 -0.20250057 -0.10128128 -0.086421706 -0.2043134 -0.058133833 -0.065027855 -0.020551402
-0.115262456 -0.8241662 0.053197883 -0.3372841 0.2704824 -0.34416005 -0.024097132 -0.3266964
-0.09876191 -0.8230648 0.0098206755 -0.010416259 0.35628733 -0.5200653 -0.081967816 -0.019625127
-0.06609679 -0.69197255 -0.013931232 0.18291855 0.55752873 -0.9969845 -0.028886922 0.13756093
-0.33883515 0.46420932 0.076870285 0.51296574 -0.0967075 -0.4123284 0.103315525 0.5291031
-0.17661446 0.645382 0.14640056 0.30900618 0.042862523 -0.6972535 0.1471113 0.35068646
-0.08214153 0.6388951 0.16043462 0.12168953 0.18900318 -1.1448298 0.21452917 0.1977712
-0.013322964 -0.015234247 -0.03925617 -0.0047698617 -0.05719561 0.042245492 0.053913817 0.016669184
0.05911038 0.0314816 0.04142966 0.057726823 -0.04297085 -0.004903406 0.02348034 -0.016729273
-0.044335008 -0.01962459 -0.030982502 -0.021920852 -0.04761245 -0.018852979 0.03581156 -0.02743163
0.04793939 0.17040004 -0.044288117 -0.5540782 0.025209378 -0.35567284 0.02229989 -0.5496251
0.019925226 0.10579888 0.16542494 -0.7564132 0.021783244 -0.27170035 0.1811508 -0.75912684
0.1767562 0.18399145 -0.22122535 -0.56406754 0.011835128 -0.22097628 -0.14131656 -0.5569816
0.11249071 -0.05637258 -0.076382644 0.22707781 0.038953256 0.4542698 -0.044048958 0.17738198
0.112778075 0.022317896 -0.06035143 0.037997585 -0.057010382 0.5243876 -0.043725453 0.07937439
0.25649223 0.19433565 0.036632895 -0.23611744 -0.47790718 0.51964355 0.08003888 -0.22175299
0.121047124 0.16111615 0.035524476 0.10728965 -0.13343978 -0.15149848 0.0031090917 0.074915715
0.2032072 0.12302632 0.058740754 -0.08381649 -0.2301585 -0.28446928 0.08858704 -0.0019738271
0.23969394 0.15258844 0.08681608 -0.36328638 -0.26458257 -0.57400507 0.07242998 -0.37688094
-0.18513283 -0.5335389 0.018136391 0.024284331 0.011420724 0.8807893 -0.08589156 0.0009990921
-0.13057241 -0.56810087 -0.10466975 -0.02830619 0.013423619 0.89802444 -0.055554226 -0.012923385
0.074438125 -0.16307376 -0.081504375 -7.735234e-05 -0.4020118 0.44157067 -0.11001775 0.08174427
-0.19098175 0.4001198 0.12721264 0.0014322568 -0.14158331 -0.4533474 0.24058862 -0.0057137166
-0.17672805 0.28601554 0.0659086 -0.19485317 -0.18312858 -0.50585586 0.030350968 -0.26022983
-0.23706065 0.25988916 -0.03056644 -0.13888767 -0.031726282 -0.2822522 0.00014405505 -0.12897801
-0.09673651 -0.3878928 0.013723473 0.10101434 -0.12845115 0.6579857 -0.007014578 0.09250546
-0.08997097 -0.46660858 -0.043933664 0.030589972 -0.17334203 0.8491904 -0.091100395 -0.015810434

fc1.bias f4 [256]
00000000: eb51 46bc 8978 6f3c 6cc8 9cbd f913 be3c
00000010: 17bc 4fbe e5ea 4fbd 033b a33d f444 2bbe
00000020: 74c7 d13c 5073 8c3e c284 53bb 493c 773e
00000030: a215 f33c 8cb3 f33d 1936 8d3e 6d93 823d
00000040: a4f3 4c3d 806d 70be 0e9e 3dbe d926 1e3d
00000050: 1006 5b3e addd 843d 8c61 ef3d 4a10 cbbd
00000060: f9c4 403d 3cc9 0e3e dc9a 23be b0ed 7b3e
00000070: bbb9 053c 3875 383d f1e3 6f3e 057c bb3d
00000080: d08f 43be 720c 083e d3cc 5c3e 35e7 3c3d
00000090: ce80 323e 7c80 9abc 0230 16be 2a48 c83d
000000a0: 6701 af3d 4fa7 723e 7bfb 993e 6370 4abe
000000b0: 3e9a 6f3e 9e6a 333d d55c 12be 436f 733e
000000c0: 4d97 23be 4fc3 d6bd 254f 31bd d5ea 913c
000000d0: dbb9 1abe a388 2fbd 9aef 9d3e 3565 593d
000000e0: bc17 263e 8202 123e 89f1 6b3d 3011 aa3c
000000f0: 6dfe 1cbe 77da 553e 454d 23be c170 043c
00000100: c22a e1bd efb2 823c d2da 683d b2b7 fab9
00000110: a09e f8bd 5399 b7bd efea 703e 4824 9a3d
00000120: c876 873e 8c17 073e 0ce8 4fbe 87eb 50be
00000130: b16a 023d f180 473c c55f 213e 816d d1bc
00000140: 8edd f93d 9b3b 563d 427e 943d c41d 643d
00000150: 0b51 4fbd f3a9 183d 3b4a 863b 5945 143e
00000160: 1fbb 21be 6274 e63d 55e7 c43d c692 033e
00000170: 0027 b63d 2f04 e8ba ff68 8d3e b7b2 8abb
00000180: 184c d9ba 3e11 2d3e 3447 4d3c b247 9c3d
00000190: 9ec0 4ebe b2ab 593e c5b5 2fbe d34c 333e
000001a0: fe13 213d 9136 1ebd c1cd b0bd 434c f53a
000001b0: 3601 07be a8f2 9ebc 904b 1e3e 1edf 5e3e
000001c0: c835 e43d d26f 1f3c 7aee fe3d 9712 a83c
000001d0: ebe9 25be 9c89 1ebe dc86 013e 3487 4e3d
000001e0: de1c 453d c1ca d93d a979 3bbd ddf5 4abc
000001f0: 2d82 80bd 2fec 983d c212 f73d 6082 023d
00000200: 8c5f 67be e875 233e 6b65 5f3e 4f88 e83d
00000210: 19bd a03d a23e 973d eab4 733d d391 623b
00000220: 7201 adbd b514 fbbc d356 fd3d ad9b a83d
00000230: 9a7c 413d 63ae 493d 4abc 6b3e 9071 413e
00000240: eedd 503e 9a36 d03d 1423 6bbc e181 1e3e
00000250: f224 8cbd 2c6d 9a3d 527a 6c3d fd3c 8a3e
00000260: 2432 153d 7174 c23c 5595 cc3d fa5b 1e3e
00000270: 3497 693e ea2d fa3d 0327 a03d 63cd 9cbd
00000280: da6d 22bc 618e 1e3d 12b7 66be 6e52 3c3e
00000290: 5262 943c cf9b 3a3e 024f 9dbe 1b95 953e
000002a0: a6de ba3d e690 0a3e 4662 21be 113a 823e
000002b0: 98e4 18be c972 48be 63fb f33d 7e09 873e
000002c0: 6609 5e3c 3260 c9bd c7c5 413e 8972 a33d
000002d0: 84ae 34be 8c4b 45bd b71d 0f3e 5a2b 173e
000002e0: f378 75bd d097 07bc ccc1 303e 15f3 e03d
000002f0: 7e2c ec3d 6ecc 273e 0b48 8c3e 3fb9 9a3e
00000300: 5883 f93d e5cc 103d b17c 263c 4606 f33d
00000310: 16e3 093e 5969 e73d 2a24 ff3d 1af8 3d3d
00000320: 0451 1c3e fea2 eabc 723c 30be b6f1 f6bd
00000330: c5d1 3dbe a494 ba3d 975a d03d 0c56 ecbc
00000340: c23b 40be d0f0 07be 1f54 ec3d aa6f c4bc
00000350: 9e93 44bd 1dc0 fc3d 1855 75bd 6055 8bbc
00000360: 34d6 bfbd 76bf dc3d bca6 43be 3dc4 40be
00000370: 9859 f4bc 1b28 4d3e bcd9 6a3e 6c1d 39be
00000380: 1603 3a3e 6466 e33d 0216 1d3e e517 ca3c
00000390: c82d 423e 8047 2cbe 40b8 0f3d 1d6d c23d
000003a0: daf0 22be c001 a83c 115f 38be dd04 733e
000003b0: 53ee f93d 8917 13bd 0e7f 733e 6704 75bd
000003c0: 8037 593e 64f4 3abc 4479 bb3d 6a33 6a3e
000003d0: 0120 803d 7120 1b3e f395 393d c105 743d
000003e0: 4e51 813e 0b75 6f3e 922c 02be d7f0 ef3d
000003f0: 7bd6 cabd b4a8 c5bc 653f 5f3d 4cd0 363e
-0.012104492 0.01461614 -0.07655415 0.023202883 -0.20286594 -0.050761122 0.0797024 -0.16725522
0.025607802 0.27431726 -0.0032275175 0.2414409 0.029673401 0.1189948 0.27580336 0.063757755
0.05003704 -0.23479271 -0.18517324 0.038611267 0.21389031 0.06487594 0.116885275 -0.09915216
0.047062848 0.13943952 -0.15977043 0.2460239 0.008161957 0.045033664 0.23426796 0.09154514
-0.19097829 0.13285998 0.21562509 0.046118934 0.17431948 -0.018860094 -0.14666751 0.09779389
0.08545189 0.23696636 0.30074677 -0.19769435 0.23398682 0.04380285 -0.14293225 0.23772912
-0.15975685 -0.10486471 -0.04328837 0.017812172 -0.1510996 -0.042854916 0.30846864 0.053075034
0.16219991 0.14258769 0.057603393 0.020760149 -0.1533143 0.20884119 -0.15947445 0.008083523
-0.109944835 0.015954463 0.05684931 -0.0004782058 -0.1213963 -0.08964791 0.2352712 0.07526451
0.2645781 0.13192576 -0.20303363 -0.20402347 0.03184003 0.012176738 0.1575919 -0.02556491
0.12200461 0.052302938 0.07250644 0.05569245 -0.050614398 0.03727145 0.0040982044 0.14479579
-0.15794037 0.11252667 0.096144356 0.12848958 0.088941574 -0.0017701442 0.27619168 -0.0042327303
-0.0016578464 0.16901109 0.012529183 0.07630862 -0.20190665 0.21256903 -0.17159183 0.17509775
0.039325707 -0.038626257 -0.086329944 0.0018714744 -0.13184056 -0.019402817 0.15458512 0.217648
0.111430705 0.00973125 0.124478295 0.020516677 -0.16202514 -0.15482181 0.12649101 0.05042191
0.048123233 0.10634375 -0.04577032 -0.01238772 -0.06274829 0.074669234 0.12064125 0.031862617
-0.22595042 0.15962946 0.21816032 0.11354124 0.078485675 0.07384993 0.059498705 0.0034571781
-0.08447541 -0.030649522 0.12370076 0.08232818 0.04723797 0.049238574 0.23021045 0.18890977
0.2039716 0.101666644 -0.014351625 0.15479232 -0.06842984 0.07540354 0.05773384 0.26999655
0.03642477 0.023737164 0.0998942 0.15464774 0.22811586 0.12215789 0.07819941 -0.07656362
-0.009913886 0.03871 -0.22530773 0.1839082 0.018113289 0.18223499 -0.3072434 0.2921532
0.09124498 0.13531837 -0.15760145 0.25434926 -0.14930952 -0.19575037 0.119131826 0.2637443
0.013552045 -0.09832801 0.18923102 0.0798083 -0.17644697 -0.04816775 0.13976179 0.14762631
-0.0599298 -0.008275941 0.17261428 0.10983864 0.11531924 0.16386577 0.27398714 0.30219457
0.12183255 0.035351653 0.010161565 0.11866431 0.13465533 0.1129939 0.124580696 0.046379186
0.1526528 -0.028642174 -0.17210558 -0.120578215 -0.18537052 0.09110382 0.10173529 -0.028849624
-0.18772796 -0.13275456 0.11539482 -0.023979027 -0.04799234 0.1234133 -0.059895605 -0.017008483
-0.09367028 0.10778706 -0.19106573 -0.18824859 -0.029827878 0.2003483 0.22934622 -0.1807763
0.1816524 0.11103514 0.15340427 0.024669597 0.18962777 -0.1682415 0.035087824 0.09493468
-0.1591219 0.020508647 -0.18005015 0.23732324 0.1220366 -0.035911117 0.23778936 -0.05981865
0.21212578 -0.011410806 0.09153989 0.22871175 0.06256104 0.15149094 0.04530902 0.0595758
0.25257343 0.23384492 -0.12712315 0.117158584 -0.0990419 -0.024128295 0.054503817 0.17852896

fc2.weight f4 [2, 256]
00000000: 0ed1 2e3e 3be7 38be 65c7 04bf 717f 8f3e
00000010: 94c4 f93a 27b4 163f eaef 08bf 5119 56bf
00000020: 1b48 eabe e4f6 583e e85f d9be 1dac 783e
00000030: bdc6 973e 748c 3b3e 7679 98be 74b2 d03d
00000040: 3938 91be 602d 7abf e8c8 c03a fb02 8cbe
00000050: 3c61 553e cd61 9d3e 49d0 26be 2a39 b13e
00000060: 198a 22bf 8c46 d8be 44e7 553a 917c 6f3e
00000070: e660 5a3e 10c9 103e 1053 653e 09fe 1bbf
00000080: f751 2cbf 8045 ebbe 0969 e5be 4969 893e
00000090: 533d 843e d240 813e 8211 3b3b 56c4 cabe
000000a0: 670d 90be db00 f1bd ef48 533e bf7f d7ba
000000b0: e76b ab3d 5c10 d4be 9c1a 283b accc 5e3e
000000c0: 6d0a 1dba 5afd 673e d102 d0be ab1b 00bf
000000d0: 22e8 5839 cbca 95be 3714 4d3e fd56 7d3e
000000e0: f5cf 0bbf b6c6 69be 0212 e8bd 7a41 ea3d
000000f0: 1047 1c39 30a5 9ebd 1053 05b9 415a 613e
00000100: 51f4 26be 17d3 a4bd fa83 cebe 08dc abbe
00000110: 10dd 993a dbf9 6ebf fb13 e4be 32e8 9c3e
00000120: e1ff 423e 29db eebe 286d cbb9 8270 123b
00000130: 8032 a0bd 36ed 123c 241b 703e dd75 823e
00000140: ea7f e43d b2f8 38bf b2b1 ec3e 8b6b bfbe
00000150: 987f 913d c6e3 7f3d d5a8 163e b612 703e
00000160: 8488 203a 7376 f53d 9ad0 833e b363 563f
00000170: 0f73 cd3a 88e7 bebe cd43 c9be f8cc 73be
00000180: bd15 433e 5b47 03bf 7fd4 42bd a2a4 a63e
00000190: f6c5 e739 f792 6a3e b20f 5bbf 8be0 04bf
000001a0: 85be 313e f02b 29bf 0478 eebe 0e50 c43e
000001b0: ce16 2a3e dbb0 60be 1f9a 99be bc71 b83d
000001c0: 6817 0cbf 0559 26be 5a8c ff3d b85f 593e
000001d0: 7cf4 003a 306c 45b9 f75e cfbe 6f75 c0be
000001e0: 734a 433e 019d 80be c1af 1bbf cd04 05bf
000001f0: 36cd 3bbf 2fdd 063e 0ef3 4dbe 6802 473e
00000200: 2dcf d5be 97d4 a5be d851 783e 5dc3 4c3e
00000210: 7e3c a8be 2085 9ebe 90ff 1a3f 589c e6bd
00000220: 3408 bcbe 8751 1f3e 65c2 5c3e 5eda bc3e
00000230: 914c 8a3e 2f8d 4a3e 1bf1 cfbe 8ea5 a63e
00000240: eaad 11bf af4f 1bbf bd2b a53e f498 c43e
00000250: 8588 85be 28fd 96be 13ec 2dbf d6cb 643e
00000260: af7b 713e 3b9d 413e 77f3 f53d 6887 d03e
00000270: 001a 7c3e 9aec aebe 0fee ebbe 85c8 a0be
00000280: f2fd 943f 67e1 5cbf 9206 75be 3a52 543e
00000290: b686 f1be 5355 8bbe 9f05 04bf 7717 703e
000002a0: 2622 31bf b8b8 f2be a6f7 18bf bb3f 5b3d
000002b0: 80be 0bb8 3c2b 883a 1306 633e 4256 6f3e
000002c0: 1995 963f c722 193d ffb7 3c3f 0e7f 903e
000002d0: f8e5 ac3a f799 0cbf e0d0 8ebe 35b5 f73e
000002e0: a0fc 93be c145 6abe 48b2 a6be 04b5 28bf
000002f0: d5be bb3e 99e9 03bf e9c8 713e f0a5 5b3e
00000300: 3120 66be 2f91 0ebf cb7c a63e d3c4 1f3e
00000310: 1395 663e 69a2 c4be cdd9 ec3d a198 673e
00000320: e818 353e 1822 153e a098 13b9 88e4 65ba
00000330: f0e2 dcb9 9bde e0be aa10 bbbe a9ae 07bf
00000340: 019e 90ba 38b6 703a c87e 10bf 83c6 a33e
00000350: 18ba febe 989f e2be 877e 24be 0f36 8bbe
00000360: d4ae 51ba 7529 873e 5ec0 0e3b 7ac3 e2ba
00000370: 31c9 3fbf 223b 973e 8603 1f3e 6bff 60bf
00000380: 1481 703e fe6c 6abe cfc2 b7bc 3ccf d23e
00000390: 156d bb3e 30eb 02bb b90c 143f 5a5b 2d3e
000003a0: d611 18bb d46d 73be b28f 34bb 6783 583e
000003b0: 6def bb3e 01e6 d3be e7e2 4e3e 6b70 cabe
000003c0: 04d2 5c3e 84d3 acbe 110f 503e 405b 67be
000003d0: 38b7 6b3d b8c2 bdbe a386 e7be ed3b 5c3e
000003e0: 076b 683e 773d 16be 67dd 01bf 897b d5be
000003f0: 5295 443b 8c68 a6be 6c9a 11bf 9bfb 0a3e
0.17071936 -0.18056957 -0.5186675 0.28026918 0.0019055777 0.5886864 -0.5349108 -0.8363238
-0.45758137 0.21187931 -0.42455983 0.24284406 0.29643813 0.18315297 -0.29780167 0.10190287
-0.28363207 -0.97725487 0.0014708312 -0.27346024 0.20837873 0.3073868 -0.16290392 0.34613925
-0.6349197 -0.42241323 0.00081597664 0.23387362 0.21326026 0.141392 0.22394967 -0.609345
-0.6731257 -0.45951462 -0.44806698 0.2683814 0.25828037 0.25244766 0.002854437 -0.39602917
-0.28135225 -0.11767741 0.2063329 -0.001644127 0.0837019 -0.4141873 0.0025650626 0.21757764
-0.0005990628 0.2265524 -0.4062715 -0.5004222 0.00020685841 -0.2925628 0.20027243 0.24740215
-0.5461419 -0.22829708 -0.1133156 0.1143827 0.00014903792 -0.07746351 -0.00012714812 0.22007085
-0.16304137 -0.08048075 -0.40335065 -0.33566308 0.0011738855 -0.9335 -0.44546494 0.306459
0.19042923 -0.4665158 -0.00038800505 0.0022344892 -0.07822132 0.008967688 0.23447853 0.25480548
0.1115721 -0.7225448 0.4622932 -0.37386736 0.07104415 0.06247308 0.14712842 0.23444638
0.0006123858 0.11985483 0.25745088 0.8374588 0.0015674549 -0.3728602 -0.3930954 -0.23808658
0.19051261 -0.51280755 -0.047565933 0.3254748 0.00044207246 0.22907625 -0.85570824 -0.51905125
0.17357834 -0.6608267 -0.4657594 0.38342327 0.16610262 -0.21942465 -0.30000398 0.09006068
-0.54723215 -0.16244896 0.12477942 0.2122792 0.00049192435 -0.00018827687 -0.4050214 -0.37589595
0.19071369 -0.25119784 -0.60815054 -0.5196045 -0.7336 0.13170312 -0.2011225 0.19434512
-0.41759625 -0.32388756 0.24249971 0.199964 -0.32858652 -0.3096094 0.6054621 -0.11260289
-0.36725008 0.15558444 0.2155853 0.3688535 0.2701154 0.1978042 -0.40613636 0.32548183
-0.56905997 -0.6066846 0.32259932 0.38397944 -0.2608072 -0.29490018 -0.67938346 0.22343382
0.23582338 0.18907635 0.12009328 0.40728307 0.24619293 -0.34164888 -0.46080062 -0.31402984
1.1639998 -0.86281437 -0.23928288 0.20734492 -0.4717309 -0.27213535 -0.5157108 0.23446451
-0.6919273 -0.47406554 -0.5975288 0.053527575 -3.33176e-05 0.0010388861 0.22170286 0.23372748
1.1764251 0.037386682 0.73718256 0.28221935 0.0013191095 -0.5492243 -0.27893734 0.48380437
-0.28903675 -0.22878172 -0.32557893 -0.6590121 0.3666903 -0.51528317 0.23611797 0.21450019
-0.22473218 -0.5569028 0.32517084 0.15602426 0.22517805 -0.3840516 0.1156498 0.22616817
0.17685282 0.14563787 -0.0001407587 -0.00087697105 -0.00042130752 -0.43919834 -0.3653615 -0.53000885
-0.0011033417 0.0009182426 -0.5644345 0.3198739 -0.49751353 -0.44262385 -0.16063891 -0.2718968
-0.00079987687 0.26398817 0.002178214 -0.0017300688 -0.7491637 0.29537302 0.15528688 -0.87889737
0.2348674 -0.2289314 -0.02243176 0.41173732 0.3660666 -0.0019976608 0.57831913 0.16929379
-0.002320399 -0.23772365 -0.002755147 0.21143876 0.36706105 -0.41386417 0.20203744 -0.39538893
0.2156449 -0.33755124 0.20318247 -0.22593403 0.057547778 -0.3706262 -0.45219907 0.21507235
0.22697078 -0.14671884 -0.5072846 -0.41695812 0.0029996228 -0.32501638 -0.56876254 0.13572542

fc2.bias f4 [2]
00000000: c5c5 5a3d f555 563e
0.053411264 0.20931228
