multi_agent/checkpoints/Multi_checkpoint_critic_30_20_target_4000_run3.pth (torch, 425167 bytes, 7 tensors)

fcs1.weight f4 [256, 24]
00000000: f93e 283f 502d 083f f87d 5b3b 3196 73be
00000010: 95c6 933e e8f4 6fbe 1066 bdbb 5de5 70be
00000020: d5d1 0f3f a5e3 923e 3a03 22be d1c6 98be
00000030: 7c62 8e3e 137d 87be 2e90 18be 463a 9abe
00000040: 9c72 bc3e 5f7f 383d 361d bcbe 2614 28be
00000050: f059 913e c3ec 2ebd ed7f b1be 6287 19be
00000060: 27a9 4f3e 6de6 0f3f 6505 fabc 9fd1 bc3d
00000070: 46a6 8bbf 0e98 8ebf cb15 223d c8ba 6f3d
00000080: 9bc0 b83d d9c0 c03e 6ea1 39bd dbca 25bd
00000090: 3f1a fdbe 8c0f 013f 1392 d83c 7707 5cbd
000000a0: 5d72 a53e e999 623e 6410 463c b945 a3bd
000000b0: f315 2d3e b2e6 0a40 d70c b7bd 39eb 2cbd
000000c0: a420 3d3d 7c6f c63c c6fb 2cbd 6611 ac3b
000000d0: d12a babc edf2 50bd cbb5 c63c 24cb c7bc
000000e0: 6c03 a03d 9239 6bbd 9d8e 8e3b d917 fd3a
000000f0: 8ee5 dcbb 00d3 1c3d bb45 76bc f842 c33c
00000100: dc14 a13d 92d6 02bd e0c4 4abd 77e7 87bd
00000110: 5866 a53c b2f4 fcbb 30cb 1c3c 69b0 5fbc
00000120: ff75 063f 72d1 713f 13ee 313d cf1f edbe
00000130: 3fa9 a73e 3169 f5be ab78 733d 97ba e6be
00000140: 0aea d63e d2dd 533f 02d7 423e 1896 bf3e
00000150: 7ef5 cb3e 3b55 a73d a5f1 523e a8d7 ce3e
00000160: 8d3d 0f3f 07e0 463f efda 69be 3f1c 2fbf
00000170: 23c6 2bbe e0f8 cc3f 636b 52be 5ce0 15bf
00000180: 1e19 3a3d b090 e43b aca5 f93c 2836 78bc
00000190: 8c67 ce3c aacb 2b3d b6c7 173d c436 63bc
000001a0: 9cd0 953c 54b5 793d c070 4bbc d682 23bd
000001b0: 0690 5e3d 9623 013d 283e 753d 9850 bfbc
000001c0: b0cc 6e3c aeee 20bd 9bc9 44bd c0a6 30bc
000001d0: e224 24bd be44 623d d651 653c 1ca6 9abc
000001e0: 91c2 72bd 1ed7 78be b7d5 b23c a7f2 2b3c
000001f0: 7582 093e 3fd4 c73f f72b b3bc 800d 5bbd
00000200: 957e 3abd ed7a 95be df8d 993c 444b 37bc
00000210: e8ca 8c3e 69d6 173f d7ef 9ebc 96a4 523d
00000220: b247 0b3e fbac 9cbe fba9 8fbc 03cf 83bd
00000230: cc4d febe 4247 3ec0 362f 113d 66b7 33bd
00000240: c35b c6bd 164a febc 81ae e53b 83cb b7bc
00000250: 015f bf3f 29e9 d53d cb48 08bc 5538 3dbd
00000260: 9074 923d 7e9c 73bb 19f2 853b 3b43 d1bc
00000270: e6b7 ed3e 96c1 6ebe 0d7d aaba 7636 3ebc
00000280: ee80 4d3d 944f cabc 71b7 d73a 7188 1bbc
00000290: d0f9 f0bf 7702 aa3e 61ea 1cbc ce2c 8e3d
000002a0: cbc6 4c3e c000 08bf d3d3 c9bd 50d7 06be
000002b0: 1056 093f 3913 b2bf 32fe 18be 2c17 cbbd
000002c0: a233 bd3e 2ea2 19bf b93b 6cbc 9bc6 6d3e
000002d0: bb2a a73e a4ee 89bf 0f52 50bd d212 a53e
000002e0: 9a66 be3e 361a 15bf c595 cfbd bdb3 cd3e
000002f0: 4727 003f a4e3 0ac0 9f51 83bd 6d7b cf3e
00000300: 7699 bf3c 1b3c f5bc a90d b93c 56f5 223c
00000310: 5e86 4abd 6245 95bc 87e1 24bd af49 4bbd
00000320: 759f be3c bc6c 5a3d 0d01 23bc 8b46 a93b
00000330: 4475 633d 5d42 2bbd 2403 22bd 5b82 d9bc
00000340: fff1 653d e7fa 5dbd d83d 93bc 65ce 5a3d
00000350: 5695 5dbd c783 a4bb 88b9 39bc f592 19bd
00000360: ef85 f83d 67fd 82be 14a1 5dbc 1504 2cbe
00000370: f732 84bd 0178 ed3e 4f65 3fbd 3298 0fbe
00000380: ff4a 533e 86bc afbe a0c3 23be dddc 9cbd
00000390: 149b 873e 209e 22be 06a6 e1bd ec02 1dbe
000003a0: fe73 003f fbb1 78be 0cb3 673e 0076 133f
000003b0: 78b9 543e 84eb 4cc0 bd36 483e 072b 0a3f
000003c0: 88ae 42bc 298f 8a3b f8cb 41bd 7357 75bc
000003d0: 3b9f 95bd 141c d03b a61f b6bc abb2 6b3d
000003e0: 75f5 5a3d 01ef 093d 5d31 b5bb f01f fb3c
000003f0: e6dd 22bd 2215 1f39 d82c 9d3c 577f ef3c
0.6572109 0.5319414 0.0033491831 -0.23787762 0.28862444 -0.23433268 -0.005779989 -0.23524995
0.56179553 0.28689304 -0.15821543 -0.29839185 0.27809513 -0.26462612 -0.1489875 -0.30122584
0.3680619 0.045043346 -0.36741036 -0.16413936 0.2838893 -0.042706262 -0.34667912 -0.1499305
0.2027937 0.56210977 -0.03052015 0.092196696 -1.0910118 -1.1140153 0.039571565 0.058527738
0.090211116 0.3764713 -0.045319967 -0.04047666 -0.49434087 0.5041435 0.026436841 -0.053718057
0.32313815 0.22129025 0.012088869 -0.07972283 0.16902904 2.1703305 -0.08937996 -0.042216513
0.046173707 0.024223082 -0.042232297 0.0052510975 -0.022725495 -0.051012922 0.024256608 -0.024388857
0.07813153 -0.05742795 0.004350497 0.0019309475 -0.0067412322 0.038287163 -0.0150312735 0.023835644
0.07865307 -0.03194291 -0.04950416 -0.06635945 0.020190403 -0.0077195996 0.009569928 -0.013652899
0.525238 0.94460213 0.043439936 -0.4631333 0.32746312 -0.47931817 0.05944125 -0.45064232
0.41975433 0.82760346 0.19027331 0.374192 0.39835733 0.08170553 0.20599993 0.40398908
0.55953294 0.7768559 -0.22837423 -0.68402475 -0.16774802 1.6013451 -0.20548777 -0.5854547
0.04543411 0.006975256 0.030474506 -0.015149631 0.02519586 0.041942276 0.037055694 -0.013868038
0.01828795 0.060963944 -0.012417018 -0.039919697 0.05433657 0.031528078 0.05987373 -0.02335386
0.0145751685 -0.039290123 -0.04804383 -0.010781944 -0.040074237 0.05524134 0.013996562 -0.018878035
-0.059267584 -0.2430081 0.021830423 0.010494865 0.13428672 1.5611647 -0.02187155 -0.05347967
-0.045530874 -0.29195347 0.018744407 -0.011187378 0.27498555 0.5931154 -0.019401474 0.051426493
0.13601568 -0.30600724 -0.017537108 -0.06435969 -0.4966873 -2.9730992 0.035445414 -0.043876074
-0.09685471 -0.031041186 0.007009328 -0.02243591 1.4950868 0.104448624 -0.008318136 -0.0461963
0.07151139 -0.0037172134 0.004087698 -0.025544753 0.46429366 -0.23316035 -0.0013007239 -0.011609664
0.050171785 -0.024696149 0.0016457868 -0.009492979 -1.8826237 0.33205006 -0.009577365 0.069421396
0.19997708 -0.53126144 -0.098548554 -0.13168073 0.53646946 -1.3912116 -0.14940718 -0.09916529
0.36953455 -0.6001309 -0.014418536 0.23220293 0.32649788 -1.0775952 -0.050859507 0.3224092
0.37187654 -0.5824312 -0.10135988 0.40176192 0.5005993 -2.170144 -0.06412052 0.40523854
0.023388606 -0.029935887 0.022589521 0.009946188 -0.04944455 -0.01822156 -0.040254142 -0.049630817
0.023269394 0.053326353 -0.009948981 0.00516588 0.055531755 -0.041811336 -0.039553776 -0.026551416
0.05613899 -0.054194357 -0.017973825 0.05341949 -0.054097496 -0.005020592 -0.011335738 -0.037493665
0.12134921 -0.25583956 -0.013527174 -0.16798432 -0.06455033 0.46380618 -0.046727475 -0.14022902
0.20634077 -0.3432352 -0.15992594 -0.07659314 0.26485503 -0.15880632 -0.110179946 -0.15333146
0.5017699 -0.24286644 0.22626895 0.5760193 0.20773876 -3.2018747 0.19552131 0.53971905
-0.011882432 0.004228492 -0.04731366 -0.014974463 -0.073057614 0.0063510034 -0.022231888 0.057543438
0.053456742 0.033675198 -0.005529566 0.030654877 -0.0397624 0.00015171294 0.019186422 0.029235525

fcs1.bias f4 [256]
00000000: af63 0dbf cf51 89be 13b0 c5bd c7e6 78be
00000010: 17bc 4fbe 0357 253e edb6 583d 8bdb 0dbe
00000020: fd7e 8ebd fef9 88bd 7124 4cbe 46a4 803d
00000030: 0d49 4a3d 073f 3ebf efde a83d 600d 19bf
00000040: f13c 8b3d f290 7dbd 0e9e 3dbe feab 563e
00000050: 0720 1dbe d0e1 f3be 60c6 90be f499 54bf
00000060: 0b56 b5bd 483a e53c dc9a 23be 3c3b d63e
00000070: b6e0 173e f971 74be 6631 6b3d c616 bebe
00000080: 63a2 febd 9ff8 59be 7203 90be e32e 06be
00000090: 2387 28be b618 51be 0230 16be 1102 01bf
000000a0: 0d17 19bf bb93 5fbe 4f74 1b3e 120c 61be
000000b0: 33e0 50be 7bdc d7bd ed35 22be f7ec 323e
000000c0: 3575 21be 8cfb 03be 6ca4 2dbe 002e 1fbf
000000d0: efb7 1abe e4cc 0cbe 8865 073e c7bf 85ba
000000e0: 39f5 d5be 1295 50be de33 a63d 6550 adbc
000000f0: d8a4 25be fc32 1a3e 1e01 3fbe ceb1 bbbe
00000100: 4077 f1bd 528e 75be 0bc4 f4bd bfd0 10be
00000110: 4e9f f8bd c8aa 08be 2bbd bbbd 85fc 3ebe
00000120: b19e 013d d65c dcbd 0ce8 4fbe 02f6 56be
00000130: 939e a8be 7975 533e de77 67bd 61dc a3be
00000140: 8c2f cc3d 708f 08be 147b a6bd 4b9a a7be
00000150: ab80 4bbe d488 5f3a e3b2 cfbe 070e 6ebd
00000160: 1fbb 21be 58d3 a5be a104 ce3d 8c7f c4be
00000170: 3b4b 0ebf 4939 26be 43da f1bc 24e2 3cbe
00000180: d03f c8bd 9997 cdbd 4785 3bbe dea7 0fbe
00000190: 6fed 78be 38b8 97be 665f 23be d063 d63d
000001a0: 33de 92be 8251 00bf 4551 76be 4e5b 0fbe
000001b0: 8fe3 07be 1f40 e6bd e486 b1be 9fff 10be
000001c0: 51ac 0fbe 9a07 1ebe 0d82 afbe 40ee 29be
000001d0: 2177 39be 5dc5 2abe 326b f5be 868a 4cbe
000001e0: 3ea0 2fbd 81fd cbbd 7563 04bf 4747 79bd
000001f0: e948 26be 0db4 463e b710 7b3e f67d a13d
00000200: cb88 06bf 8523 3abe da5b 8ebd dd0f 723e
00000210: f954 5fbe 8d6a 643d 80c7 b7be e0a6 08bf
00000220: 3ff8 4ebe 1c56 8dbd 217e aabe dbc0 3ebc
00000230: bf88 b2be 211e b6ba 783c 17be e1c4 cdbd
00000240: 37f6 96be cc0f 5e38 4cc6 86be c0ae 33be
00000250: 80a3 f3bd ccaa 4fbe 921f 5bbe 46ed cfbe
00000260: 90fc febe 8714 843d 3998 9fbe 36a0 30bf
00000270: 26ff f7bd 9a30 57be 4bbf 39be d709 bbbe
00000280: 42a6 513e b0ae 88bd 61fd 4bbd acab 4abe
00000290: 400a 26be 4513 113d b662 23be 6223 ce3c
000002a0: 8cf0 153e 445d 99be c447 d9bd 2af7 aabe
000002b0: 98e4 18be 1e73 48be 41cd 413c 50ce 90bd
000002c0: 06e8 22be 8b73 0cbe 322d c3be 5d34 7fbe
000002d0: 84ae 34be ea66 27be 4212 63be d05f f1bd
000002e0: b0bb d4bd cf04 5dbe 7f4b 513e 3f9d 07be
000002f0: c805 ea3d c99e 19be b6d0 ccbd 313e 3f3e
00000300: 68db 81bd 20a7 b0be 0a95 3c3e c139 883c
00000310: 0bfa ed3c f6f0 56bd d1ab 363e 2616 d9bd
00000320: ef60 a9be d05e 28bf 723c 30be b6f1 f6bd
00000330: c5d1 3dbe 45df 98bd e16c 17bf 2156 093e
00000340: fda7 47be d0f0 07be 7271 1ebe bf31 fd3c
00000350: 3d24 c9be 7912 403e 2897 5ebe b4ad a6bd
00000360: ce08 07be 4b4f e9be bca6 43be 3dc4 40be
00000370: 55ce 3ebe cb6f b0be 0f88 8b3e ed92 3dbe
00000380: 391a f2be 13e5 60be b879 26be 548f 17be
00000390: 8390 87bd 8047 2cbe 12df 963d a554 a93d
000003a0: b7e8 0ebf ca96 8fbe e030 55be 9e4b 843e
000003b0: 9b56 33be a355 f4bd 0355 31be ee4b 10be
000003c0: 75bb 95be 14e2 a0bd 1e7e 8bbe 78cf 9abc
000003d0: 47f1 15be bef9 ba3d b575 083e 654c 01bd
000003e0: 9f91 10be 9aa8 f83c f20f 21be a6b4 bfbe
000003f0: e11d 0abe 2d3f b4bd a87f a3bd fa99 443e
-0.5523023 -0.26820228 -0.09652724 -0.24306785 -0.20286594 0.16146474 0.052908827 -0.1385328
-0.06957815 -0.06688307 -0.19935776 0.06281333 0.049386073 -0.7431492 0.08245646 -0.59786034
0.06798733 -0.06190581 -0.18517324 0.20964047 -0.15344249 -0.4763322 -0.28276348 -0.83047414
-0.08854302 0.027981892 -0.15977043 0.41842067 0.14831814 -0.23871602 0.057420157 -0.3712675
-0.124333166 -0.21286248 -0.2812763 -0.13103823 -0.164578 -0.20419583 -0.14666751 -0.5039378
-0.598008 -0.21833698 0.15181087 -0.2197726 -0.20398025 -0.105401 -0.15840884 0.17473207
-0.15767367 -0.12888926 -0.16957253 -0.62179565 -0.15109228 -0.13750035 0.13222325 -0.0010204249
-0.41788653 -0.20369366 0.08115362 -0.0211565 -0.16176164 0.15058511 -0.1865277 -0.36659092
-0.11790323 -0.23980072 -0.11951455 -0.1414213 -0.1213976 -0.13346398 -0.0916694 -0.18651016
0.03164548 -0.107598945 -0.20303363 -0.20992282 -0.32933483 0.20650281 -0.0565108 -0.32004073
0.09970006 -0.13335967 -0.08128944 -0.32734904 -0.19873302 0.0008527164 -0.40566167 -0.058118846
-0.15794037 -0.32387805 0.10059477 -0.3837856 -0.5558354 -0.1623279 -0.02952302 -0.18445641
-0.09777796 -0.100386806 -0.1831256 -0.1402888 -0.24309324 -0.29632735 -0.1595436 0.104682565
-0.2868515 -0.5012437 -0.2405444 -0.13999674 -0.132704 -0.11242699 -0.34673226 -0.14160012
-0.14030577 -0.15432587 -0.34278908 -0.16594791 -0.1811185 -0.1667685 -0.47933346 -0.19974717
-0.04287743 -0.099604614 -0.5171426 -0.06085899 -0.1623875 0.19404621 0.24518095 0.07885353
-0.5255248 -0.18177612 -0.06951113 0.23638864 -0.21809758 0.055765677 -0.35894394 -0.5337963
-0.20211886 -0.0690119 -0.33299354 -0.01164266 -0.34869954 -0.0013894477 -0.14769161 -0.10047317
-0.29484722 5.2943637e-05 -0.26323164 -0.1754713 -0.118964195 -0.20279998 -0.21398762 -0.40610713
-0.49802065 0.06449228 -0.31170824 -0.6899446 -0.121092126 -0.21014634 -0.18139379 -0.36530945
0.20473579 -0.06673944 -0.049802188 -0.1979205 -0.16214848 0.035418767 -0.15955624 0.025163356
0.14642543 -0.2995397 -0.10609391 -0.33391696 -0.14930952 -0.19575164 0.0118287215 -0.07070601
-0.15908822 -0.13715951 -0.3812042 -0.24922319 -0.17644697 -0.16347852 -0.22174934 -0.11785853
-0.10387361 -0.21583866 0.20438956 -0.13243578 0.11426884 -0.15001978 -0.10000746 0.18676068
-0.063406765 -0.34502506 0.18416229 0.016629102 0.029049894 -0.052475892 0.1783898 -0.105999276
-0.33081767 -0.6576967 -0.17210558 -0.120578215 -0.18537052 -0.0746446 -0.5915051 0.13411762
-0.19497676 -0.13275456 -0.15472963 0.03090751 -0.3928546 0.18757047 -0.21737349 -0.081386
-0.13186952 -0.45568308 -0.19106573 -0.18824859 -0.18633397 -0.3446029 0.27252242 -0.18513079
-0.4728563 -0.21962385 -0.1625737 -0.14800769 -0.0661936 -0.1682415 0.07366766 0.08268098
-0.55823845 -0.2804473 -0.20819426 0.2583894 -0.17513506 -0.119303964 -0.17317586 -0.14091465
-0.2924458 -0.07855621 -0.27244657 -0.018897757 -0.14642821 0.09129666 0.13326152 -0.031566996
-0.1411805 0.030353833 -0.15728739 -0.3744251 -0.1348796 -0.08801112 -0.07983333 0.19199362

fc2.weight f4 [256, 258]
00000000: 9c96 62bd d395 bd3c f8f7 d43c e444 353c
00000010: 2885 72bc 242c db3b efa2 fa3c 36c9 063d
00000020: 2284 223d d1fd 563d ca88 5cbd 73c9 7ebb
00000030: 82d8 bb3b e4cd 33bd 4169 1e3d 8232 82bd
00000040: 4110 dfbc ba03 163d 602c 543b 7d31 edbc
00000050: d12a ba3c 0449 97bd 2289 7dbd f001 633c
00000060: 4ee7 603d 11eb 7bbc ac32 c9bc 7111 81bd
00000070: d5c9 6dbd e41d d13c ee63 d33c bf4d 11bc
00000080: 90dc ff3b fcb8 bd3c 6202 44bd c9a4 09bd
00000090: 708a f63c 88e1 24bd 1612 2cbd 301d ae3b
000000a0: de0f 703d 296f f33c 841b 0dbd 9049 debc
000000b0: 88ca 2f3d abb2 6b3d 7671 103d c9b1 55bd
000000c0: 7836 283c f213 7dbd ec4f b6bc 4a3e 9eba
000000d0: 0067 a53a 485d 673d 5e9d 3fbd efa0 a53c
000000e0: 3115 bb3c c109 b9bc d845 6fbd 847e 75bd
000000f0: 8605 5abd 118f e03c 4c3d 6fbd cab6 cdbc
00000100: 6c0f 50bd 4e2c 08bd d015 e93c 6a5a 203d
00000110: 2dd8 a1b8 583d efbc acd4 e3bc e05d 8f3c
00000120: 1b96 bbba bd43 21bc 1870 aabc d4e2 3fbd
00000130: de51 503d 0682 bfbc 590f 823c ac7d 523d
00000140: 083e 67bd e0e3 c2bc d2b6 08bd 121b 02bd
00000150: 9640 493d 4486 593d 3269 8238 4e20 a3bc
00000160: 8a56 3d3d f4db b1bc 78b2 203d 6915 1dbd
00000170: 4120 ce3c 825a 12bd 7a52 8bbd 505c 2e3d
00000180: 239f 6bbd b1a8 89bc 884d 2fbd c825 ddbc
00000190: 2c8f 51b8 7190 563c 9e79 eebc ec68 04bc
000001a0: a3ec 0cbd 08f5 c9bc 177c 5cbb 2923 80bd
000001b0: 22fc 703d a800 71bd da0f a93c 6041 57bb
000001c0: a5e2 e3bb a6dc 683d 0fe4 2e3b c030 9d3c
000001d0: 00c8 03bb 80f0 5a3a 520f 74bd 74d4 f5bb
000001e0: 50b4 df3c c03c 0fbb b6db f93c 5c51 db3c
000001f0: 8a68 35bd 67c7 543d fc62 213d 10fa cf3b
00000200: d619 763d a109 81bd cb09 0e3c 8fd4 e6bc
00000210: df20 e6b9 d17e 813b d08d 743d 3542 e53b
00000220: e17e 9dbc 10fc 7b3c 29a0 80bd 406c 7abc
00000230: b342 45bd b68f 86bd bb9f bc3c a47e fbbc
00000240: 89ed e93b 616d 80bd 78e6 003d 2cab be3c
00000250: 4a1a 1a3d 603a f1bc d8d1 08bd 3e7c a2bc
00000260: c1c3 0b3d e05a 91bb 6e25 433d af92 1b3c
00000270: 780b c43c 208e aebb 6c03 20bc 00eb df3c
00000280: 42f9 69bd 1c9b b33c 846d 743d 3619 2cbd
00000290: f487 d0bc 4973 55bd 50e1 f0bc 80df 41bd
000002a0: a148 a83c ec3b 213d 1a96 7fbd 155b 77bd
000002b0: 00db bc3a 70ba 0fbd 12d2 313c f218 f53c
000002c0: de2f 1c3d 2263 6f3d e084 9c3c c005 fabc
000002d0: b0e2 963b d4c4 1e3d 85fe 183d 0072 3cbb
000002e0: 0ae7 0d3d bc71 1f3d 92b6 6b3d 4849 c4bc
000002f0: 3eb0 4bbd 5594 8f3c 88fd 91bc 3b3f d03c
00000300: 3254 623d f22d 95bb 8881 df3c dda7 8f3b
00000310: f7a4 dd3c 02da 69bc 9413 20bd e002 0fbc
00000320: b302 173d 61fd 4bbd 9494 7f3d 0909 b0bc
00000330: ab24 75bd 1bec 573d 38f0 393d 1228 4ebd
00000340: 0099 8cb9 e643 52bd 2c6c 17bd 7f01 2ebd
00000350: c979 fbbc 651e f83c 2afd e9bb 7c16 7abd
00000360: 6476 60bd 4ac1 1dbd c88e 1b3d 44c9 d5bc
00000370: f03b 1b3d ae2c 90bd 460d ca3c 3991 fbbc
00000380: ee34 1b3c 05c7 e53c 20d3 123c 50a9 5f3d
00000390: bc11 c6bc dab4 143c 0868 2f3c 09a9 6a3c
000003a0: b0b0 5dbd f788 70bc 5464 d3bc 053f ee3c
000003b0: 1000 1cbd fb70 743d b0e2 38bd 62c9 1fbd
000003c0: b11a 93bd d6b8 77bd 605d 5fbd 84bb c73c
000003d0: 60df 093d 0088 40b8 2cb2 4c3d b137 4e3d
000003e0: cdff e43c a031 f2bb 531c 80bc 345f 59bd
000003f0: 0068 8739 1cad 963c 04ef 503c 92fa 43bd
-0.055319414 0.02314273 0.025997147 0.011063788 -0.014802255 0.0066886116 0.03059527 0.032906733
0.039676793 0.052488152 -0.05384139 -0.0038877397 0.005732597 -0.043897524 0.038674597 -0.0635729
-0.02722943 0.036624648 0.0032375082 -0.028954262 0.022725495 -0.073869735 -0.06189836 0.013855442
0.05490809 -0.015375868 -0.024560295 -0.06302155 -0.05805381 0.025526948 0.025804486 -0.008868634
0.0078082755 0.023159496 -0.047853835 -0.033604417 0.030095309 -0.040254146 -0.042009436 0.005313538
0.058608882 0.029716091 -0.03445007 -0.027134687 0.04291776 0.057543438 0.035264455 -0.052171502
0.010266893 -0.0617866 -0.022254907 -0.0012073007 0.0012619197 0.056485444 -0.046780936 0.02021834
0.022837253 -0.022587659 -0.058416218 -0.059935108 -0.053227924 0.02741197 -0.058408067 -0.025111575
-0.050795957 -0.033245377 0.028452784 0.039148726 -7.717344e-05 -0.029204056 -0.02781137 0.017500818
-0.0014311703 -0.00984281 -0.020805404 -0.04684718 0.050859325 -0.02337743 0.015876459 0.05138938
-0.056455642 -0.0237903 -0.033377476 -0.031764098 0.04913386 0.05310656 6.218477e-05 -0.019912865
0.04622511 -0.021711327 0.0392327 -0.038350496 0.025161864 -0.035730846 -0.068028405 0.042568505
-0.05752481 -0.016804071 -0.04279855 -0.026995555 -4.9962822e-05 0.013095961 -0.029110726 -0.008081656
-0.03440536 -0.024652973 -0.00336433 -0.06256706 0.058834203 -0.058838516 0.020637441 -0.0032845363
-0.0069545084 0.05685105 0.0026686226 0.019188285 -0.0020108223 0.00083518773 -0.059584923 -0.007502133
0.02730766 -0.0021856278 0.030500274 0.026772194 -0.04428915 0.051947977 0.03940104 0.0063469484
0.060083233 -0.06300665 0.008669327 -0.028177528 -0.0004389351 0.0039518853 0.059705555 0.006996418
-0.01922554 0.015379921 -0.06280548 -0.015284598 -0.048159312 -0.065703794 0.023025384 -0.030700035
0.007138912 -0.06270862 0.031469792 0.02327498 0.037622727 -0.02944678 -0.033403248 -0.019834634
0.034122232 -0.004435882 0.047643118 0.009495421 0.02393125 -0.005327001 -0.009766441 0.027333736
-0.057122476 0.021924548 0.059674755 -0.04201623 -0.025455453 -0.052111898 -0.029404312 -0.047332287
0.020542445 0.039363787 -0.062399007 -0.060389597 0.0014408529 -0.03508991 0.010853307 0.029919121
0.038131587 0.05844415 0.019106328 -0.03052032 0.00460466 0.03876193 0.037352104 -0.0028754473
0.034644164 0.038926825 0.05754716 -0.023960724 -0.049728625 0.017526785 -0.017821088 0.025420776
0.055256076 -0.0045525962 0.027283445 0.0043840245 0.0270562 -0.0142731685 -0.03908117 -0.008728713
0.03686781 -0.049802188 0.062397555 -0.021488683 -0.059849422 0.052715402 0.045395106 -0.050331183
-0.00026816875 -0.051334284 -0.036968395 -0.042481896 -0.03069772 0.03028793 -0.007140775 -0.0610566
-0.054800406 -0.038514413 0.037977964 -0.026096947 0.037898958 -0.07039772 0.024664532 -0.030708896
0.009473069 0.028049001 0.008961469 0.05460483 -0.024178378 0.0090763215 0.010705955 0.014322528
-0.05412358 -0.014681092 -0.025804676 0.029082784 -0.038085997 0.05967806 -0.04513806 -0.039010413
-0.07182825 -0.060479008 -0.05453241 0.024381407 0.033660293 -4.5903027e-05 0.049974605 0.05034608
0.027954007 -0.0073911697 -0.015638506 -0.05306931 0.00025826693 0.018393092 0.012752298 -0.047846384

fc2.bias f4 [256]
00000000: 3564 d1bd 9947 ccbd 953c 8ebd bfa3 adbd
00000010: 34bc 08bf dc6a 3dbd 1f05 65be 6fb8 bb3e
00000020: b3d7 26be c5be dabd 602b 8a3d be2c acbd
00000030: 2566 743e f0a4 16bd b96e e8bd 185e d7be
00000040: 7833 fbbd 1f85 95bd 289d 5439 a96e ccbd
00000050: 8632 c9bd 43ca b1bd d203 8a3e 9fff 90bd
00000060: 3c21 8ebd 60ba 7abd 1de9 063f 4971 80bd
00000070: 9981 7bbd aa55 82bd c43d d4be 2cd3 a9bd
00000080: 32dd e0bd 22c6 893d 61fd cbbd 1ce4 83bc
00000090: e742 7f3d e157 b9bd c52e 8fbc b4e8 7ebd
000000a0: b5a2 d1bd d20e cdbd 6aa6 3dbe b342 c5bd
000000b0: 8314 00be 2271 3abd 365e 52bd cb76 9fbc
000000c0: 6efc 19bd aaad 73bd eb34 baba f683 78bd
000000d0: 49df dfbc eef7 c8bd 23bb 58bd 00e6 67bd
000000e0: 813a d6bd 1fb2 efbd 8608 b0be c7ea b6bd
000000f0: c861 38bd d9e9 993e 3df4 aabd 7fab 88be
00000100: 74cc a1bb 9422 76bd 8221 fabe 3c88 20bd
00000110: 9ede abbd c48a 2abd 6153 58bc 5998 80bd
00000120: d635 78bd a70e 40bd 9e46 f53d 66e4 c8bd
00000130: 0f5d 9abe 2014 333d 28d1 6abe 9b2c 03bf
00000140: a869 54bd ef45 91bd a664 dcbd 8f49 1dbd
00000150: e7bb b6bd 8968 8d3d 3432 f6bd c53e 593d
00000160: 0293 2e3f c845 cbbd 351f abbd 56f5 a2bd
00000170: ba44 28bd 03fb cebc c35f ee3d 8520 85bd
00000180: 5596 e4bd 9bf0 a8bd 92c2 e9bd 93bc eabc
00000190: 846d ffbd 5716 08be 8837 c1bd 0cf1 b3bd
000001a0: 0013 24bf 993c 96bc 4b70 60be d009 55bd
000001b0: a3d6 9ebd d105 ddbd e9d2 f2bd f4bc 59bd
000001c0: 00bd aebd 3d38 f8be 8377 28be fd89 05be
000001d0: 4c60 b93d 99d5 c2bd f725 08be 14fe 8dbd
000001e0: ed62 85bd ac18 62be c895 213e 785c 15be
000001f0: 6834 1cbe 3b61 3cbd 9205 bbbd 9831 debd
00000200: 9433 ecbd 7c47 b1bd a56e 05bd c637 333e
00000210: c6fb 2cbe 4b72 4ebd 28d0 c33d 0c02 aabd
00000220: 23e8 bbbd c97e 053d 29e7 d7bd bf20 aebd
00000230: 10e4 aebd de8b a2bd 2852 b8bc ab46 e1bd
00000240: 404e b8bd dce6 8fbd 2038 92bd 39f7 ae3e
00000250: 93fd a5bd e4fa 96bd a232 babd a7b4 f9bd
00000260: f90e 93bd 5912 4fbe bef4 d1bd 4dee c7bd
00000270: 92a4 18be a18e d5bd 3b67 bbbc 8b3b b2bd
00000280: 208e 2ebd d4ef 03be 7fde 823d c428 aebe
00000290: 32dd e0bd 2d68 fcbe 1812 dabd 3d1b 0fbe
000002a0: 0078 08be 5a92 81bd f9f2 25be f361 45be
000002b0: b458 b3bd e222 82bd c191 b0bd bea9 acbd
000002c0: c93f ccbd 003a afbd 853e 47bd 94d0 03be
000002d0: af1b 36bd fd96 d1bd e297 3bbe 84e6 8e3d
000002e0: 8d3a abbd dc55 a7be adae 2fbe 58ab cbbd
000002f0: 28d0 1cbe 44cf a9bd fb47 bbbd 1b31 febc
00000300: 1532 a4be 2de5 edbd 966a bfbd d9e3 4cbd
00000310: 89e2 f2bd ad0b abbd 68a0 70bd aa63 783d
00000320: e302 ebbd c856 c1bd daa9 1dbd a156 7bbd
00000330: 1c47 ecbd fb25 cfbd 9d8e 8ebd 49f0 55bd
00000340: d5c7 98bd 450e 51bd 6e47 bfbd 447f d6be
00000350: d60e 98be 5bdc 9fbd ee64 41be 0ffb a3bd
00000360: bb78 d8bd f24b 57bd 4d1b abbc f810 94be
00000370: 12f4 2fbd 899c 2cbe ddcb d0bd a236 8fbe
00000380: eb65 e1bd a211 c0be 8990 80bd 7dc9 52be
00000390: 07bf 91bd 8b11 3cbd 390c a7bd cc38 c6bd
000003a0: 60b8 a5bd ec1f 34bd 3530 21bc af90 3f3c
000003b0: 87cb 36bd 21fa b8bd d90a e13e 6e63 acbd
000003c0: c114 b0bd 3937 ce3e eb0f c5bc 1fa5 a3bd
000003d0: 3d6a 3d3e 2a24 cebd bbbd febd 0c0f f6bd
000003e0: 70c6 073f efa6 a4bc 54be 4fbd dbaa ebbd
000003f0: 77c0 a3bd 87ba c0bd e418 d9bd 4f27 f0bd
-0.10224191 -0.09974594 -0.06945149 -0.08478498 -0.53412175 -0.046244487 -0.22365235 0.3666415
-0.1629322 -0.10680918 0.067465544 -0.084069714 0.2386709 -0.03677839 -0.11349244 -0.42063975
-0.12265676 -0.073007815 0.00020276441 -0.09982044 -0.0982409 -0.086811565 0.2695604 -0.07080006
-0.06939933 -0.061212897 0.5269945 -0.062716074 -0.06140289 -0.063639954 -0.41453373 -0.08292231
-0.1097969 0.06727244 -0.099604376 -0.016099982 0.062319662 -0.09049965 -0.017478356 -0.06223364
-0.10236112 -0.100125924 -0.18520513 -0.096318625 -0.12507825 -0.045518048 -0.051359378 -0.019465825
-0.03759425 -0.05949179 -0.0014206445 -0.060672723 -0.02732815 -0.09812914 -0.052912842 -0.05661583
-0.104603775 -0.11703896 -0.34381503 -0.08931499 -0.045015126 0.30061224 -0.08347366 -0.2669334
-0.004937703 -0.06009157 -0.4885369 -0.039192423 -0.0839207 -0.041636243 -0.013203473 -0.06279058
-0.060598217 -0.046888974 0.1197636 -0.098091885 -0.30149123 0.043720365 -0.2293135 -0.5123994
-0.051858574 -0.07093417 -0.10761385 -0.03840023 -0.08922558 0.06904704 -0.12021294 0.053038377
0.68193066 -0.09925419 -0.08355562 -0.0795695 -0.041081168 -0.025266176 0.11639359 -0.06500343
-0.11161486 -0.08249017 -0.114140645 -0.028654372 -0.1247206 -0.13289772 -0.0943442 -0.087862104
-0.6409149 -0.018339442 -0.21917836 -0.05201131 -0.077557825 -0.10792125 -0.11856634 -0.053158715
-0.08532143 -0.48480406 -0.1645184 -0.1304092 0.0905157 -0.09513397 -0.13295732 -0.06933227
-0.06513009 -0.22079724 0.15779793 -0.14586055 -0.15254366 -0.045991164 -0.09131922 -0.10849303
-0.11533275 -0.08656213 -0.032576222 0.17501745 -0.16892919 -0.050401967 0.09561187 -0.08301172
-0.09175136 0.032591615 -0.10542137 -0.085023396 -0.08539593 -0.07936834 -0.022500113 -0.10999807
-0.089993 -0.07026455 -0.07139611 0.3417299 -0.08105006 -0.07372072 -0.09091689 -0.1219266
-0.0718059 -0.20221843 -0.10251759 -0.09762249 -0.14906529 -0.10427595 -0.022876373 -0.08702763
-0.04261601 -0.12884456 0.06390094 -0.34015477 -0.1097969 -0.4929823 -0.10647982 -0.13975234
-0.13327026 -0.063267425 -0.16205968 -0.19275646 -0.08757153 -0.063543096 -0.0862155 -0.08430813
-0.099731036 -0.085559845 -0.048643608 -0.12872535 -0.044459995 -0.10233877 -0.18319657 0.06977561
-0.08360777 -0.32682693 -0.17156477 -0.099447906 -0.1531378 -0.08291486 -0.091445886 -0.031029275
-0.3206946 -0.116159774 -0.093465015 -0.05002198 -0.118596144 -0.08351836 -0.058746725 0.060641922
-0.1147516 -0.0944038 -0.03849206 -0.061361913 -0.115370005 -0.10114666 -0.06960795 -0.052231107
-0.0745999 -0.051039 -0.09339796 -0.4189397 -0.2969882 -0.07805701 -0.18886158 -0.0800687
-0.105699025 -0.05256266 -0.020887041 -0.28919196 -0.042957373 -0.16856588 -0.10195134 -0.2797137
-0.110057674 -0.37513453 -0.06277568 -0.20584674 -0.07116514 -0.045915168 -0.08156628 -0.09678802
-0.08091807 -0.043975756 -0.009838154 0.01169221 -0.044627693 -0.09032083 0.4395359 -0.08417402
-0.085977085 0.40276507 -0.024055442 -0.07990479 0.18497558 -0.100654915 -0.12438532 -0.12014589
0.53037167 -0.020099131 -0.05071862 -0.115071975 -0.07995694 -0.09410577 -0.10600451 -0.117262475

fc3.weight f4 [128, 256]
00000000: dd31 dc3c 3c9e 0e3d 58d2 af3c b481 6c3d
00000010: 8058 adbe a3b4 32bb e0ab ef3d cd8f 84be
00000020: 9401 4cbb 99a6 0abd fe45 463e e77b 88bd
00000030: e462 423e d732 babe 89ed 693d 051e 88be
00000040: 0d01 a33c 5d60 6d3d 6842 5e3e 1fbb 11b9
00000050: a8cb 2fbd 8293 953d 2890 343e d86c cbbd
00000060: 4e3e e5bb ac8e 2abc fee4 ce3e 500e a6bb
00000070: 15ed 97bd 89ae c2bd ebd3 6bbf ea47 9fbd
00000080: cc82 64bd 539d 623e 4fe7 41bd e871 5fbd
00000090: fe68 5a3e 2092 95bb 18f3 5dbd dbfe 32bd
000000a0: d001 01bd 8def 85bd fcf3 77be 5f9c b83d
000000b0: 4c1b 2b3d ea0a cdbc 10d9 b73c 3f88 67bd
000000c0: a24f f53c 62b3 f4bc 9e34 56be 77ee d4bc
000000d0: d8bc 68bd a253 9fbc 8fc7 9abc 1a62 8bbe
000000e0: 6ec4 3f3d ddfd ab3d c4c4 15bf cf74 913d
000000f0: 6f7e 923d 0eac 553e 0344 1f3d 8943 c5be
00000100: 32e6 82bc 5f1a 80bd 1caf 6fbe f343 03bd
00000110: b6c3 363c fa4d 3abd 604a 5abd 9532 65bd
00000120: 490c c3bd 239d 16bd 6d3c f93e f49e 973d
00000130: c21e a93d 6570 7ebe 8b8f 58be baeb 0cc0
00000140: 1eb8 6ebc 47a0 b83c dfcf 413d 954c 4e3c
00000150: ab7e 3bbd 43b8 503e 3ec6 c03d 73f4 ab3e
00000160: dd11 09bd e0fc 24bd ecc0 753c 58d2 2fbd
00000170: b441 be3d 9ab1 813d 2d84 59be 2847 c13d
00000180: c2cf a9bd 16e3 eebc b15f 39bd 1675 0fbd
00000190: 02df e13c e9ec 8a3d 4cd6 843d 653e 8fbd
000001a0: cda0 b93e 91a5 9abe b83c 06bf ff4c 7a3d
000001b0: d361 8dbd 3b37 e23a d617 b6bd 7183 0a3d
000001c0: 56f5 a2bd d880 4ac0 b5a8 d03b 19b3 2fbe
000001d0: e464 403d c06a 4cbd 2298 9e3d b224 83bd
000001e0: 02c3 74bb cbac 93bf da8a 74bd 18bd 95be
000001f0: 411a 37be 3efb 77bd cde7 a13d 8d72 85bd
00000200: ae4f 4a3d d740 c93d c052 893c d786 dcbe
00000210: fb41 3c3d c7ce c9bd dd8e 943e b54c b5bd
00000220: e573 ed3c 1ba6 b8be 5558 1cbf eeb4 773c
00000230: 626e cebc 5f1a 40bd 82ef 303c 164d 24bd
00000240: 50ec 393d cb8a 00bf 5fe0 903c 7409 05bf
00000250: abaa e9bd cf09 d5bc 250e 99bc 5cd0 a1bd
00000260: 281f d63c 0c6a b5be 11e3 273d e29f 023c
00000270: 3d9e 55bf e240 c43d eb41 a03d 9f49 af3d
00000280: 0914 a73c 678d a53d 87ff 42be 0d60 44be
00000290: 2a6d 9ebd c985 50bf 878e 88bd 9b46 c5bc
000002a0: db1a a03e 04b7 763d eb0f 45bc 7820 30be
000002b0: 91c2 e9bd b7b7 b8bd ea04 4ebd 07ae 1bbd
000002c0: 359c ab3c 120c e13d 9e12 5c3d 2774 a43d
000002d0: d30b 703e 016c 0abd f63a 7cbe 0512 32be
000002e0: 7357 753d b321 1abf c245 13bf 69a3 13bc
000002f0: a9bc 72bd ee8a b7bd 8ac5 7ebd bbea e13c
00000300: 4e43 c6bd 760b c9bd c47f b3bd 34d4 853d
00000310: b9d4 73bd 66ef bf3c 4ca4 293d db5e 0abe
00000320: f22d 95bd e705 d53c f030 713d c38a aa3a
00000330: 24ed 333d 398f 263d 0438 a13d f12f ea3c
00000340: 6906 fcbd 8444 46bd 5981 8b3d 0605 cbbc
00000350: a30d 0dbf 9a51 3cbd 58df 483e 6dec 2abe
00000360: 9326 20bd 60b8 253d ca8d 14bd cd9d 47be
00000370: 3869 89be cde9 05bf e46c a0bd 8209 25be
00000380: 434e 7fbd c930 52bf e3d9 b1bd 7eba 1fbe
00000390: 4d31 19bc 536a 71bf 94b0 ecbc ef95 2e3d
000003a0: 3a1c 16be 40ed 243c f2de 45bc daf7 1ebe
000003b0: 33dc d9bc 973c 553c b769 833e 963b 87bc
000003c0: 77ee 54bd 5088 d23e d566 853c 13b0 c5bd
000003d0: 0385 85bd 68ba 88bd a2f2 8bbd e305 8e3d
000003e0: f83e cc3d 19eb 09be 8597 863d 233e d8bd
000003f0: ae06 fabc 1123 d6bc 23b3 04be dbaa 6b3d
0.026879245 0.034818873 0.021462604 0.057740882 -0.33856583 -0.0027268312 0.117027044 -0.2589096
-0.003112887 -0.033850286 0.19362637 -0.066642575 0.18983036 -0.36366913 0.057111297 -0.26585403
0.019897962 0.057953227 0.2170502 -0.00013897986 -0.04291883 0.073035255 0.17633116 -0.0993287
-0.0069959527 -0.010409992 0.40409082 -0.005067624 -0.07418267 -0.09505946 -0.92120236 -0.077773884
-0.0557888 0.22130327 -0.047339734 -0.05455199 0.21329114 -0.0045645386 -0.05418691 -0.04370008
-0.03149587 -0.06539831 -0.24214166 0.090142004 0.04177408 -0.025029618 0.02244237 -0.05652642
0.029945198 -0.029870693 -0.2091851 -0.025992615 -0.05682072 -0.019449059 -0.018893985 -0.27223283
0.04681819 0.0839803 -0.58503366 0.071023576 0.071530215 0.20866415 0.03888322 -0.38528088
-0.015978906 -0.0625503 -0.23406643 -0.032047223 0.01115506 -0.04548452 -0.053293586 -0.055956442
-0.095238276 -0.03677095 0.48678914 0.07403365 0.0825782 -0.24847563 -0.21148507 -2.2018876
-0.014570264 0.022537364 0.047317382 0.012591501 -0.045775097 0.2038279 0.09412812 0.33584937
-0.0334643 -0.040280223 0.014999609 -0.04292521 0.092898756 0.06332703 -0.21241827 0.094374
-0.0829158 -0.029161017 -0.045257274 -0.03502377 0.027572159 0.06783468 0.064861864 -0.06994323
0.36255494 -0.30204442 -0.524364 0.061108585 -0.06903424 0.0017258892 -0.08891265 0.03381676
-0.0795695 -3.164114 0.0063677677 -0.17158164 0.046971217 -0.049906492 0.07743861 -0.064034835
-0.003734768 -1.1537107 -0.05970273 -0.2924583 -0.17881109 -0.060542338 0.079055406 -0.065159895
0.049392395 0.0982682 0.016763091 -0.43071625 0.04596136 -0.09853893 0.29015246 -0.08852521
0.028985927 -0.36064228 -0.61072284 0.015118821 -0.025199119 -0.04690015 0.010799291 -0.040112577
0.04539138 -0.5021178 0.017685113 -0.5196755 -0.114095055 -0.026005654 -0.018683502 -0.079010695
0.026137903 -0.3543247 0.04098803 0.007972689 -0.8344458 0.09582688 0.07825073 0.08558964
0.020395296 0.08083611 -0.19042788 -0.19177265 -0.07735665 -0.8145414 -0.0666781 -0.024081519
0.3127049 0.06023313 -0.012027721 -0.17199886 -0.11414064 -0.09019416 -0.050297655 -0.038007762
0.020948509 0.1098863 0.053728692 0.08029967 0.2344201 -0.033794407 -0.24631867 -0.17389686
0.05989785 -0.6020767 -0.57528317 -0.009011128 -0.05926195 -0.089620456 -0.062200107 0.027577749
-0.09680806 -0.09816639 -0.08764604 0.06534615 -0.05952904 0.023429584 0.04141645 -0.13512747
-0.07284154 0.026003791 0.05888456 0.0013011325 0.043927327 0.04066393 0.07872012 0.028587313
-0.1230591 -0.048405185 0.068117805 -0.024782669 -0.55098933 -0.04597626 0.19616449 -0.16691752
-0.039099287 0.040459037 -0.036268033 -0.1949379 -0.26838088 -0.52309877 -0.07833269 -0.16116908
-0.062330496 -0.8210569 -0.08684137 -0.15598485 -0.009350133 -0.9430286 -0.028892793 0.042623457
-0.14659205 0.01006633 -0.01207708 -0.15524235 -0.026594257 0.013014934 0.25666592 -0.016507905
-0.05198523 0.41119623 0.016284386 -0.09652724 -0.065195106 -0.06676179 -0.06833388 0.069347166
0.09972948 -0.13468589 0.06571869 -0.10558727 -0.030520763 -0.026139768 -0.1295896 0.057535987

fc3.bias f4 [128]
00000000: 0ebf 923e ece7 d9bd 1726 40be ee03 a9bd
00000010: 127b 8a3e 6c5b 4f3e 3dee d7be c60c 23be
00000020: 0035 81bd 2e15 2ebe 7b57 03be 72c2 31be
00000030: 0a05 563e 4353 ae3b baca babe 07a9 23be
00000040: 49df dfbd 18a9 5abe 2964 fcbd 911c 30be
00000050: 4ba7 0dbe e6b0 3fbe 1344 3bbe 67da 57bd
00000060: 77e8 de3d 5af5 69be 21af 13be 6375 a6be
00000070: a8f9 573d eceb 03be 1a6a 683e 3d8f 31bc
00000080: 8b9c 45be 1963 9f3d 1b7a cebd 5b5f 1fbe
00000090: af62 21be 4497 4fbe 22a5 eabd 368a 2b3e
000000a0: 8ae0 1dbe 5365 8ebe 8464 6abe 827f fcbd
000000b0: 651c 213d 0e18 6abe 4147 3b3e c8be bf3c
000000c0: d3c2 5abe c61d 99bd c358 4fbe 9b0e 6bbe
000000d0: 4101 0abf 2157 e3be 60da b4be 5b16 cfbd
000000e0: a063 ae3e afb6 dcbd fa90 8bbd 3ef2 073e
000000f0: c8fe 98bd 048e bdbd a630 2cbe ca7e f3bd
00000100: be60 dcbd 994c 2bbe 72d5 0b3c 3237 27be
00000110: e484 e3bd e763 84be 6d08 18be 73ca afbd
00000120: 9947 283e 3cde 3cbd 59af ac3e e17e 1dbe
00000130: dad6 8f3d 4551 22be d2bd 8e3d 6734 66bd
00000140: 0223 3abe bd43 21be c715 a33e 503b d0bd
00000150: a746 1abe aef4 35be deb8 d4bd fe00 07be
00000160: 15dc 21be 661e f8bd 9f62 79bd 77c0 23be
00000170: d06a 833e 4c93 33be 61d0 e8bd bd0a 033e
00000180: 71a0 e63c d27c f8bd 8f8e cfbc a2da 073e
00000190: 0a4c 01be 223a d6be fc14 c0be 313d 26be
000001a0: 2e6b 90bd cd2c c8bd 7fbe dcbd 72db 4dbd
000001b0: d94a 5fbe 221b 1ebe 5362 22bd 16d6 22be
000001c0: 394a 00be bc38 2abe f79d 90bd 7bc9 0cbe
000001d0: 840d fabe 5bc8 303e 14ef ecbd bd6c 5abe
000001e0: d469 f43d cf2d 16bf 833d a53d ac5b 463b
000001f0: 445f 75be 681f 98be 096a 43be 8df5 84be
0.28661388 -0.10639939 -0.1876453 -0.08252703 0.2704702 0.20249718 -0.4217395 -0.15922841
-0.06308937 -0.17000267 -0.1282634 -0.17359331 0.2090036 0.005319984 -0.36482793 -0.15982448
-0.1093126 -0.21353567 -0.123237915 -0.17198397 -0.13833348 -0.18719825 -0.18287687 -0.05269852
0.10884183 -0.228475 -0.14422275 -0.32511434 0.052728325 -0.12882966 0.22696725 -0.010837373
-0.19297998 0.07782573 -0.100818835 -0.15563719 -0.15760301 -0.20272547 -0.11457278 0.16751942
-0.15417686 -0.2781168 -0.22889906 -0.12329008 0.03933372 -0.22860739 0.182889 0.023406401
-0.21363382 -0.07476382 -0.20248704 -0.2295479 -0.53908163 -0.44402412 -0.35322857 -0.10111686
0.34060383 -0.10777032 -0.068147615 0.13276002 -0.07470471 -0.09255603 -0.16815433 -0.118894175
-0.107606396 -0.16728438 0.008534776 -0.16329649 -0.11109331 -0.2585747 -0.14846964 -0.08583536
0.16433562 -0.046110377 0.3372753 -0.15380432 0.070234016 -0.15851314 0.06969799 -0.05620232
-0.18177417 -0.15748496 0.31852552 -0.10167563 -0.15066014 -0.17769119 -0.10386823 -0.13183972
-0.15806611 -0.12115173 -0.060885068 -0.15991388 0.2566743 -0.17536658 -0.1136787 0.12797065
0.028152676 -0.121331826 -0.025336532 0.13266996 -0.12626663 -0.41841227 -0.3751601 -0.1623428
-0.07051693 -0.0977417 -0.10778522 -0.050258107 -0.21805896 -0.15440038 -0.03964455 -0.1590198
-0.12528314 -0.16623205 -0.070613794 -0.13748734 -0.48838437 0.1726393 -0.11569038 -0.21330543
0.119342476 -0.5866365 0.08068373 0.0030267043 -0.23962122 -0.2971146 -0.19083418 -0.2596859

fc4.weight f4 [1, 128]
00000000: 6a02 673d aa5b 81bc 1eab a23c 76a9 23bd
00000010: b11b 55bd a0af 14bd ffd2 52bd 8a68 15bd
00000020: 2d30 34bd 96e9 26bd 0e73 2cbc 6135 26bb
00000030: 8ad8 5a3d 30ea 13bd 6d4e 25bd fa9b 823c
00000040: b34d bc3c d5f2 763c 7871 54bc 3b45 cf3c
00000050: 69f8 38bd ef2e 9cbb d429 b3bc c9fb 153e
00000060: 72f8 71bd 4abb 1ebc adb5 8e3c f961 733d
00000070: 0d74 aa3d dc5f c63b 6ea8 0f3d b24c d6bd
00000080: afdd c0bc 25b6 0b3d aada d6bc a2d2 f43b
00000090: 3878 513d 1b7a 4e3c 3dc7 c739 7b8d 693d
000000a0: f1c7 89bc cb48 4d3d 2ff8 87bd 4656 1a3b
000000b0: 3166 43bd 26cb 6d3d 941d 33bd 0cba 1b3d
000000c0: 7ba8 b6bd cbf5 f43c 4a11 3bbc 0b31 e23b
000000d0: e7f4 0d3d c9b9 a7bd 5479 903d 26a9 5bbc
000000e0: 9286 9abd e711 d3bc adba 86bc eefb 053d
000000f0: 42a2 f13c 6395 323c f9fd 9cbc b729 42ba
00000100: 4c5b d9bc e0cb 833c f2fb 6bbd 3c32 84bc
00000110: 8444 c63c 88b5 49bc ecbe 203c 496b 4b3d
00000120: 4352 c6bd c966 303c abe6 913d 3696 acbc
00000130: 0051 77bd 7753 123e a04d 273d acc6 843d
00000140: 923d 953c fdfd 63bc 031b 39be 9bc4 003c
00000150: 40cb 38bc 5ad1 a83c adf2 13bd 0007 4d3c
00000160: 4e0f 2d3c a57b 513c 6de0 ac3c 9c17 0d3c
00000170: 9e03 963d 53e5 33b8 d68e 373d a189 21bd
00000180: e8ac f53c 84c5 0bbd 0ec8 443d 9d63 44bd
00000190: 4e31 993c beb2 873d 09d0 a7bd e363 feba
000001a0: e08a 9bbb 774e 9a3c 3968 c23a 4e2a 5abd
000001b0: b1d6 ba39 aa8f b13c 3eea acbd 8771 70bc
000001c0: d307 c7bb abc1 8cbc b02d debc 5683 99bc
000001d0: 837b 083e 1841 653d aaea 453a 9afd f4bb
000001e0: b1b1 edbd bbe0 913d db27 10bd 7886 753d
000001f0: 25a7 863d 7dd9 30bd c718 68bb a6f0 1b3b
0.056398787 -0.01579078 0.019856986 -0.039956532 -0.05202836 -0.0363003 -0.051470753 -0.03647665
-0.043991257 -0.04075011 -0.010525478 -0.0025361406 0.053429164 -0.03611201 -0.040357996 0.015943516
0.022986269 0.015072544 -0.012966506 0.025301566 -0.045158777 -0.004766337 -0.021870531 0.1464683
-0.059074827 -0.009688208 0.017420614 0.059419606 0.08322916 0.006053908 0.035072736 -0.10463847
-0.023543207 0.034109253 -0.026227314 0.0074713985 0.05114004 0.012602354 0.00038104682 0.057019692
-0.016818972 0.05011825 -0.06639134 0.0023549958 -0.04770488 0.058055066 -0.04372938 0.038019225
-0.08918854 0.02990236 -0.011417696 0.006902819 0.034657385 -0.081897326 0.070543915 -0.013407027
-0.075451985 -0.025765372 -0.016446436 0.032710962 0.029496316 0.010899874 -0.019164072 -0.00074067287
-0.026532792 0.016088426 -0.05761332 -0.016137235 0.024202593 -0.012311347 0.009811144 0.049662862
-0.09683659 0.010766693 0.071240745 -0.02106772 -0.060379982 0.14289652 0.040845513 0.06483206
0.018217836 -0.013915536 -0.1807671 0.007859374 -0.011278927 0.02060764 -0.036120106 0.012513876
0.010562731 0.012785827 0.021103108 0.008611586 0.07324909 -4.28905e-05 0.044813953 -0.039437894
0.029989675 -0.034123912 0.04804235 -0.04794656 0.018700268 0.06625889 -0.081939764 -0.0019408431
-0.00474678 0.018836243 0.0014832086 -0.053263 0.00035636642 0.02167495 -0.08443116 -0.0146755045
-0.0060739308 -0.017182192 -0.027121395 -0.018739384 0.13328366 0.05597028 0.0007549921 -0.0074765207
-0.116061576 0.07122942 -0.03519426 0.059942693 0.06574849 -0.043176163 -0.003541516 0.002379456
