multi_agent/checkpoints/Multi_checkpoint_critic_30_20_local_4000_run3.pth (torch, 425167 bytes, 7 tensors)

fcs1.weight f4 [256, 24]
0	0x3f267b13	0.65031546
1	0x3f0814aa	0.5315653
2	0xbbc4ae28	-0.0060022064
3	0xbe6f8d7e	-0.23393819
4	0x3e94d735	0.2907044
5	0xbe6fd203	-0.23419957
6	0xbc77e91d	-0.015131262
7	0xbe6cdcc0	-0.23131084
8	0x3f0ea552	0.5572101
9	0x3e93d7a9	0.28875473
10	0xbe2413aa	-0.16023126
11	0xbe96a0f3	-0.2941967
12	0x3e8f40d3	0.27979144
13	0xbe877f61	-0.2646437
14	0xbe1aa0a0	-0.15100336
15	0xbe98140a	-0.2970279
16	0x3eba9cb9	0.36447695
17	0x3d48b53b	0.04900096
18	0xbebc4b8a	-0.36776382
19	0xbe2220cf	-0.15832828
20	0x3e91d819	0.28485182
21	0xbd25f980	-0.040521145
22	0xbeb1ae58	-0.34703326
23	0xbe139427	-0.14411984
24	0x3e47bd76	0.19505867
25	0x3f1697bb	0.5882527
26	0xbd208882	-0.039192684
27	0x3deb0060	0.11474681
28	0xbf8c1c54	-1.0946145
29	0xbf8f75de	-1.1207845
30	0x3cfd1e13	0.03089813
31	0x3da60c63	0.08107831
32	0x3daedd20	0.0853827
33	0x3ed140e4	0.4086982
34	0xbd6ac9aa	-0.057321228
35	0xbc88b60c	-0.01668837
36	0xbefc4489	-0.49271038
37	0x3f001aa7	0.5004067
38	0x3c6c7f8f	0.014434709
39	0xbcf50da9	-0.02991374
40	0x3ea5708a	0.32312423
41	0x3e825918	0.25458598
42	0x3ce8ce74	0.028418757
43	0xbd580271	-0.052736703
44	0x3e312952	0.17300919
45	0x400af38a	2.1711144
46	0xbd959a95	-0.07304875
47	0xbc798b08	-0.015230902
48	0x3d3d2349	0.04617623
49	0x3cc67208	0.024224296
50	0xbd2cfcf8	-0.042233437
51	0x3bac139d	0.0052513615
52	0xbcba265a	-0.022723366
53	0xbd50f4aa	-0.05101458
54	0x3cc6b2eb	0.024255237
55	0xbcc7ca16	-0.024388354
56	0x3da00306	0.07813077
57	0xbd6b35c2	-0.057424314
58	0x3b8e91a4	0.004350858
59	0x3afd14c4	0.0019308557
60	0xbbdce2d4	-0.006740907
61	0x3d1cd1aa	0.03828589
62	0xbc7644e4	-0.015031073
63	0x3cc33eaf	0.0238336
64	0x3da1181a	0.07865925
65	0xbd02d4dc	-0.03194128
66	0xbd4ac56f	-0.049504694
67	0xbd87e87a	-0.06636138
68	0x3ca5688f	0.020191459
69	0xbbfcf769	-0.0077199233
70	0x3c1cc940	0.009569466
71	0xbc5fb351	-0.013653592
72	0x3f0275ba	0.50960886
73	0x3f775e34	0.9662812
74	0x3d50eda8	0.051007897
75	0xbef055d7	-0.4694049
76	0x3ea5e4e6	0.32401198
77	0xbeed2ed7	-0.46324798
78	0x3d893c06	0.06700902
79	0xbee9f0ad	-0.45691434
80	0x3ec065d6	0.37577695
81	0x3f58bd49	0.84663826
82	0x3e3c4beb	0.18388335
83	0x3ebd10a9	0.36926773
84	0x3ecb05b9	0.39652804
85	0x3dc003df	0.09375738
86	0x3e4c668f	0.19960998
87	0x3ecc5138	0.39905715
88	0x3f06d6dd	0.52671605
89	0x3f49a1ad	0.7876232
90	0xbe7c6d09	-0.24650969
91	0xbf30448e	-0.68854606
92	0xbe2c96df	-0.16854428
93	0x3fce908b	1.6137861
94	0xbe64fd91	-0.22362353
95	0xbf1708b2	-0.58997643
96	0x3d3a191e	0.04543411
97	0x3be490b0	0.006975256
98	0x3cf9a5ac	0.030474506
99	0xbc783628	-0.015149631
100	0x3cce678c	0.02519586
101	0x3d2bcbaa	0.041942276
102	0x3d17c7b6	0.037055694
103	0xbc633658	-0.013867937
104	0x3c95d09c	0.01828795
105	0x3d79b554	0.060963944
106	0xbc4b7058	-0.012416922
107	0xbd2382d6	-0.039919697
108	0x3d5e9006	0.05433657
109	0x3d012396	0.031528078
110	0x3d753e28	0.05987373
111	0xbcbf5098	-0.02335386
112	0x3c6eccb0	0.0145751685
113	0xbd20eeae	-0.039290123
114	0xbd44c94c	-0.048043534
115	0xbc30a6c0	-0.010781944
116	0xbd2424e2	-0.040074237
117	0x3d6244be	0.05524134
118	0x3c655118	0.013996385
119	0xbc9aa61c	-0.018878035
120	0xbd598b92	-0.05311162
121	0xbe74fd1b	-0.23924677
122	0x3cc23ce6	0.02371068
123	0x3c3b84be	0.011445222
124	0x3e0cfaa9	0.13767494
125	0x3fc89bdb	1.5672563
126	0xbca3c39a	-0.019990731
127	0xbd572808	-0.05252841
128	0xbd29a038	-0.041412562
129	0xbe9447af	-0.2896094
130	0x3c631c46	0.013861721
131	0xbc718dd5	-0.014743288
132	0x3e8f6d22	0.2801295
133	0x3f192db6	0.59835374
134	0xbcc6ee9c	-0.0242837
135	0x3d441292	0.047869273
136	0x3e0eb842	0.13937476
137	0xbe9ab810	-0.30218554
138	0xbcaa5d9f	-0.020796595
139	0xbd6f10c0	-0.058365583
140	0xbefbca67	-0.49177858
141	0xc03e8e54	-2.977437
142	0x3d03d4a6	0.03218522
143	0xbd1b2a84	-0.037882343
144	0xbdbe55e7	-0.09293728
145	0xbce637e5	-0.028102824
146	0x3c174e58	0.009234987
147	0xbcb707ef	-0.02234265
148	0x3fbfbf49	1.4980251
149	0x3de2e37d	0.11078546
150	0xbbc7a1a9	-0.0060922694
151	0xbd3cd62b	-0.046102684
152	0x3d9a149c	0.07523462
153	0x39d25b04	0.00040122133
154	0x3b1f7594	0.0024331557
155	0xbcb318da	-0.021862436
156	0x3eee91c3	0.46595582
157	0xbe5f139d	-0.21784826
158	0xbb41abee	-0.002955194
159	0xbc01e192	-0.007927315
160	0x3d589a30	0.05288142
161	0xbca511fa	-0.020150173
162	0x39048008	0.00012636196
163	0xbc26c644	-0.010179106
164	0xbff19802	-1.8874514
165	0x3eb3f31a	0.3514641
166	0xbc35ceaf	-0.0110966405
167	0x3d8cc490	0.06873429
168	0x3e57738e	0.21040174
169	0xbf03f783	-0.5154955
170	0xbdab2fac	-0.08358702
171	0xbe05923c	-0.13044065
172	0x3f085ec3	0.53269595
173	0xbfb37848	-1.4021082
174	0xbe09abe1	-0.13444473
175	0xbdc88d22	-0.09792544
176	0x3ec2aafc	0.38021076
177	0xbf1548e9	-0.5831438
178	0xbc727858	-0.0147992
179	0x3e76460c	0.24050158
180	0x3ea57f9d	0.32323924
181	0xbf8930ce	-1.0718019
182	0xbd51e0c2	-0.051239736
183	0x3ea9548c	0.33072317
184	0x3ec24c9c	0.37949073
185	0xbf1075be	-0.5642966
186	0xbdde27df	-0.108474486
187	0x3eca20fd	0.39478293
188	0x3eff7140	0.4989109
189	0xc00a871b	-2.1644962
190	0xbd91e3ff	-0.07123565
191	0x3ecbe8bd	0.39826003
192	0x3cbf9b61	0.02338952
193	0xbcf53ef2	-0.029937241
194	0x3cb90eb0	0.022590011
195	0x3c22f7d1	0.009946779
196	0xbd4a855c	-0.049443588
197	0xbc9544f3	-0.018221354
198	0xbd24dfde	-0.04025256
199	0xbd4b4847	-0.049629476
200	0x3cbea134	0.023270227
201	0x3d5a692e	0.053322963
202	0xbc22fd99	-0.009948158
203	0x3ba94987	0.005166236
204	0x3d6375fe	0.055532448
205	0xbd2b4568	-0.041814238
206	0xbd220284	-0.03955318
207	0xbcd97e5a	-0.026549507
208	0x3d65f161	0.0561384
209	0xbd5df8f5	-0.054192502
210	0xbc933bd9	-0.017972874
211	0x3d5ad16e	0.053422384
212	0xbd5d93bb	-0.054095965
213	0xbba48712	-0.0050209844
214	0xbc39b77b	-0.011335249
215	0xbd198f06	-0.037489913
216	0x3e017f7b	0.12646286
217	0xbe817378	-0.25283408
218	0xbd01018e	-0.031495623
219	0xbe3c0520	-0.1836133
220	0xbd85fee1	-0.06542755
221	0x3ef537b9	0.47894076
222	0xbd847f0c	-0.06469545
223	0xbe1f9957	-0.15585838
224	0x3e566b3e	0.20939347
225	0xbeae7400	-0.34072876
226	0xbe28a0eb	-0.16467635
227	0xbda6b932	-0.08140792
228	0x3e8674f5	0.26261106
229	0xbe1205b7	-0.14259993
230	0xbdeb60f6	-0.11493103
231	0xbe21f283	-0.15815167
232	0x3f01094a	0.504048
233	0xbe76e059	-0.2410902
234	0x3e66a4fb	0.22523873
235	0x3f12845f	0.5723323
236	0x3e4ce926	0.20010814
237	0xc04c39e2	-3.191033
238	0x3e4728b1	0.19449116
239	0x3f09396f	0.5360326
240	0xbc42ad71	-0.011882172
241	0x3b8a91fd	0.004228829
242	0xbd41ccc9	-0.04731444
243	0xbc755603	-0.01497412
244	0xbd959ef7	-0.07305711
245	0x3bd01dff	0.006351232
246	0xbcb62068	-0.02223225
247	0x3d6bb3f6	0.05754467
248	0x3d5af6e8	0.053458124
249	0x3d09ef22	0.03367532
250	0xbbb534a9	-0.005529959
251	0x3cfb224b	0.030656
252	0xbd22dde6	-0.0397624
253	0x391f12b2	0.00015170386
254	0x3c9d2c2f	0.019186107
255	0x3cef81fe	0.02923679

fcs1.bias f4 [256]
0	0xbf0eb7b7	-0.55749077
1	0xbe8caf88	-0.2747767
2	0xbdc5b069	-0.09652788
3	0xbe738c15	-0.23783906
4	0xbe4fbc17	-0.20286594
5	0x3e2056da	0.15658131
6	0x3d603806	0.054740928
7	0xbe1b2de0	-0.15154219
8	0xbd8e7f80	-0.069579124
9	0xbd8e728f	-0.06955444
10	0xbe4c2531	-0.19936062
11	0x3d893a0f	0.06700527
12	0x3d4a453c	0.049382433
13	0xbf432710	-0.7623148
14	0x3daa0c55	0.083031334
15	0xbf17e66b	-0.59335965
16	0x3d9b740e	0.07590495
17	0xbd7d9286	-0.061907314
18	0xbe3d9e0e	-0.18517324
19	0x3e574c6c	0.21025246
20	0xbe2453a0	-0.16047525
21	0xbef66184	-0.48121274
22	0xbe91f87b	-0.28509888
23	0xbf529e20	-0.8227253
24	0xbdbefb30	-0.09325254
25	0x3cc1544e	0.02359977
26	0xbe239adc	-0.15977043
27	0x3ed306ca	0.41216117
28	0x3e0f1b20	0.13975191
29	0xbe6a5c82	-0.22886851
30	0x3d4f5e5a	0.05062709
31	0xbebd766f	-0.3700442
32	0xbdfea284	-0.12433341
33	0xbe47c22f	-0.19507669
34	0xbe9204fc	-0.28519428
35	0xbe0753c9	-0.13215555
36	0xbe288922	-0.16458562
37	0xbe4d79fd	-0.20066066
38	0xbe163002	-0.14666751
39	0xbf016555	-0.50545245
40	0xbf184bed	-0.59490854
41	0xbe59b907	-0.21261989
42	0x3e1cce73	0.15313129
43	0xbe610f28	-0.21978438
44	0xbe5604bd	-0.20900245
45	0xbdd7de95	-0.10540501
46	0xbe223685	-0.1584111
47	0x3e2f4f57	0.1712011
48	0xbe217535	-0.15767367
49	0xbe03fe8a	-0.12890068
50	0xbe2da46c	-0.16957253
51	0xbf1fcc7f	-0.6242141
52	0xbe1ab788	-0.15109074
53	0xbe0ccce4	-0.13750035
54	0x3e09bfef	0.13452123
55	0xbc51e2a2	-0.012810381
56	0xbecdbe1c	-0.40184104
57	0xbe33b92f	-0.1755111
58	0x3daa5224	0.08316448
59	0xbce8d94b	-0.028423926
60	0xbe25a790	-0.16177201
61	0x3e1eabef	0.15495275
62	0xbe3f023a	-0.18653193
63	0xbebae116	-0.36499852
64	0xbdf17a2a	-0.11790879
65	0xbe7608d8	-0.24026811
66	0xbdf4c40b	-0.11951455
67	0xbe10d046	-0.1414195
68	0xbdf89ea0	-0.1213963
69	0xbe08ab86	-0.13346681
70	0xbdbbc00b	-0.09167489
71	0xbe3efc85	-0.18651016
72	0x3cedf32f	0.029046623
73	0xbddc5e20	-0.107601404
74	0xbe4fe80c	-0.20303363
75	0xbe56f6a1	-0.20992519
76	0xbea89f64	-0.32934105
77	0x3e56f6c6	0.20992574
78	0xbd67ed1d	-0.056622613
79	0xbea3c31a	-0.31984788
80	0x3dd87bff	0.105705254
81	0xbe089154	-0.13336688
82	0xbd987f2c	-0.07446131
83	0xbea9b1f4	-0.3314358
84	0xbe4b80ab	-0.19873302
85	0x3b88d565	0.0041758292
86	0xbecf151f	-0.40445802
87	0xbd6b73e0	-0.057483554
88	0xbe21bb1f	-0.15794037
89	0xbea05431	-0.31314233
90	0x3dd55bd4	0.104179054
91	0xbec79449	-0.3898032
92	0xbf126d28	-0.5719781
93	0xbe263c83	-0.16234021
94	0xbd01c529	-0.031682167
95	0xbe3ce1de	-0.18445536
96	0xbdc0ef44	-0.09420636
97	0xbdc6171a	-0.09672375
98	0xbe3af722	-0.18258336
99	0xbe0faa43	-0.14029793
100	0xbe78ed9f	-0.24309395
101	0xbe989b1c	-0.2980584
102	0xbe1af466	-0.15132293
103	0x3dd48f41	0.10378886
104	0xbe96278f	-0.29327056
105	0xbf02d15d	-0.51100713
106	0xbe73414e	-0.2375538
107	0xbe196840	-0.14981174
108	0xbe07e508	-0.13270962
109	0xbde64008	-0.11242682
110	0xbeb33699	-0.35002592
111	0xbe110224	-0.14160973
112	0xbe130a28	-0.14359343
113	0xbe1e095b	-0.15433256
114	0xbeb116f6	-0.3458783
115	0xbe278a00	-0.16361237
116	0xbe39772a	-0.18111864
117	0xbe2ac6fb	-0.16677468
118	0xbef90207	-0.4863436
119	0xbe464913	-0.19363813
120	0xbd1b72a3	-0.037951123
121	0xbdd7007b	-0.104981385
122	0xbf06de8a	-0.5268332
123	0xbd794a07	-0.060861614
124	0xbe264b78	-0.16239727
125	0x3e485704	0.19564444
126	0x3e76635f	0.24061345
127	0x3da43288	0.080174506
128	0xbf0803ef	-0.53131
129	0xbe2a3281	-0.16620828
130	0xbd912f89	-0.07089145
131	0x3e70c827	0.23513852
132	0xbe63e628	-0.22255766
133	0x3d84615c	0.06463882
134	0xbeb860c2	-0.3601132
135	0xbf08aa47	-0.5338482
136	0xbe4ef83f	-0.20211886
137	0xbd8d57a9	-0.069014855
138	0xbead7cad	-0.33884183
139	0xbcce1d34	-0.02516041
140	0xbeb45624	-0.3522197
141	0xba84f0d8	-0.0010142578
142	0xbe0486e5	-0.12942083
143	0xbdc9f7d4	-0.098617226
144	0xbe971c28	-0.2951367
145	0xb982f163	-0.0002497538
146	0xbe867422	-0.26260477
147	0xbe2fc8ea	-0.17166486
148	0xbdf3a380	-0.118964195
149	0xbe4facf0	-0.20280814
150	0xbe6a0601	-0.22853853
151	0xbec5ada9	-0.38609055
152	0xbf0238e3	-0.5086805
153	0x3d651230	0.055925548
154	0xbea1a46b	-0.31570753
155	0xbf2ef2dd	-0.6833933
156	0xbdf800c4	-0.12109521
157	0xbe573166	-0.21014938
158	0xbe3a8d62	-0.18217996
159	0xbebd1145	-0.36927238
160	0x3e52bfe8	0.20581019
161	0xbd88b058	-0.0667426
162	0xbd4bffed	-0.049804617
163	0xbe4f41ea	-0.20239988
164	0xbe244cb7	-0.1604489
165	0x3cf99f3c	0.030471437
166	0xbe2364b9	-0.15956391
167	0x3cbe7341	0.023248317
168	0x3e144d75	0.14482673
169	0xbe935343	-0.2877446
170	0xbdd949df	-0.10609793
171	0xbead8e0a	-0.3389743
172	0xbe18e498	-0.14930952
173	0xbe4872c9	-0.19575037
174	0x3c8138dc	0.015774183
175	0xbd816425	-0.06317929
176	0xbe2b823f	-0.16748904
177	0xbe0c76b8	-0.13717163
178	0xbec47fae	-0.38378662
179	0xbe824782	-0.2544518
180	0xbe34ae84	-0.17644697
181	0xbe2766ea	-0.16347852
182	0xbe62d382	-0.22150996
183	0xbdf16045	-0.1178594
184	0xbdd4bea2	-0.10387923
185	0xbe5d0548	-0.21584046
186	0x3e54c6f6	0.20779023
187	0xbe079dc5	-0.13243778
188	0x3def32a5	0.116795816
189	0xbe2176a1	-0.1576791
190	0xbdca3618	-0.09873599
191	0x3e420cdf	0.18950222
192	0xbd8d07b1	-0.06886233
193	0xbeb01e58	-0.3439815
194	0x3e40a4f4	0.18812925
195	0x3c782fad	0.015148086
196	0x3ce080cf	0.02740517
197	0xbd91410e	-0.07092486
198	0x3e3b6c2f	0.18302988
199	0xbde30a7e	-0.110859856
200	0xbea7f540	-0.32804298
201	0xbf2963ee	-0.66168106
202	0xbe303c72	-0.17210558
203	0xbdf6f1b6	-0.120578215
204	0xbe3dd1c5	-0.18537052
205	0xbd98df1c	-0.0746443
206	0xbf178841	-0.5919228
207	0x3e093995	0.13400872
208	0xbe47a783	-0.19497494
209	0xbe07f0d0	-0.13275456
210	0xbe1d7703	-0.1537743
211	0x3cd8a77d	0.026447052
212	0xbecaaeca	-0.39586478
213	0x3e495f2e	0.19665214
214	0xbe51ac7a	-0.20475951
215	0xbd960b85	-0.07326416
216	0xbe070908	-0.13187039
217	0xbeedab0f	-0.4641957
218	0xbe43a6bc	-0.19106573
219	0xbe40c43d	-0.18824859
220	0xbe3ecff3	-0.18634014
221	0xbeb78447	-0.35843107
222	0x3e8e56a4	0.27800477
223	0xbe39fc5e	-0.18162677
224	0xbeedf72c	-0.4647764
225	0xbe684f4b	-0.22686498
226	0xbe2679b8	-0.1625737
227	0xbe179006	-0.14801034
228	0xbd8d52ee	-0.06900583
229	0xbe2c4780	-0.1682415
230	0x3d93d25a	0.07217856
231	0x3db4589b	0.08805963
232	0xbf12cea4	-0.5734656
233	0xbe91350f	-0.28360793
234	0xbe5532ff	-0.20820235
235	0x3e830e24	0.25596726
236	0xbe322ecb	-0.17400663
237	0xbdf456fe	-0.11930655
238	0xbe4106bf	-0.1885023
239	0xbe104d40	-0.14091969
240	0xbe9606ac	-0.29301965
241	0xbda0e1ac	-0.078555435
242	0xbe8bcb5d	-0.2730359
243	0xbcef55a2	-0.029215638
244	0xbe111189	-0.14166845
245	0x3dbe239e	0.09284137
246	0x3e077745	0.13229091
247	0xbcc6f802	-0.024288181
248	0xbe2287cc	-0.15872115
249	0x3d01e715	0.031714518
250	0xbe170e0b	-0.1475145
251	0xbebf1a1d	-0.3732461
252	0xbe0a1f40	-0.13488483
253	0xbdb43ffd	-0.08801267
254	0xbda031f4	-0.07822028
255	0x3e3f3fc4	0.18676668

fc2.weight f4 [256, 258]
0	0xbd6296c0	-0.055319548
1	0x3cbd942c	0.023141943
2	0x3cd4f7f8	0.025997147
3	0x3c354419	0.011063599
4	0xbc728528	-0.014802255
5	0x3bdb2b3d	0.006688504
6	0x3cfa9f52	0.030593548
7	0x3d06c936	0.032906733
8	0x3d228422	0.039676793
9	0x3d56fa75	0.05248495
10	0xbd5c88ca	-0.05384139
11	0xbb7ec9cc	-0.0038877605
12	0x3bbbd6dd	0.005732401
13	0xbd33d0e1	-0.043900374
14	0x3d1e6507	0.038670566
15	0xbd8233a6	-0.063575074
16	0xbcdf12b8	-0.027230605
17	0x3d1603ba	0.036624648
18	0x3b542c60	0.0032375082
19	0xbced310c	-0.028954051
20	0x3cba2812	0.022724185
21	0xbd974b65	-0.07387427
22	0xbd7d8a97	-0.061899748
23	0x3c6301f0	0.013855442
24	0x3d60e74e	0.05490809
25	0xbc7beb32	-0.015375899
26	0xbcc932ac	-0.024560295
27	0xbd811461	-0.06302715
28	0xbd6dcb33	-0.058055114
29	0x3cd11b39	0.025525676
30	0x3cd36126	0.02580316
31	0xbc11505e	-0.008869259
32	0x3bffdc90	0.0078082755
33	0x3cbdb505	0.023157606
34	0xbd440311	-0.047854487
35	0xbd09a465	-0.033604044
36	0x3cf68a70	0.030095309
37	0xbd24e24e	-0.040254883
38	0xbd2c1216	-0.042009436
39	0x3bae1d30	0.005313538
40	0x3d700d9c	0.05860673
41	0x3cf36d13	0.029715097
42	0xbd0d1c35	-0.03445073
43	0xbcde4990	-0.027134687
44	0x3d2fc84e	0.042915635
45	0x3d6bb26c	0.057543203
46	0x3d107176	0.035264455
47	0xbd55b446	-0.052173875
48	0x3c283678	0.010266893
49	0xbd7d13f0	-0.061786592
50	0xbcb64fec	-0.022254907
51	0xba9e3e4a	-0.0012073007
52	0x3aa56700	0.0012619197
53	0x3d675d22	0.056485303
54	0xbd3fa095	-0.046784002
55	0x3ca59e46	0.020217072
56	0x3cbb141d	0.02283674
57	0xbcb90c04	-0.022588737
58	0xbd6f45d8	-0.058416218
59	0xbd758172	-0.0599379
60	0xbd5a0586	-0.053227924
61	0x3ce08bc9	0.027410405
62	0xbd6f3d4c	-0.058408067
63	0xbccdb8b8	-0.025112495
64	0xbd500f6c	-0.050795957
65	0xbd082c4e	-0.033245377
66	0x3ce915d0	0.028452784
67	0x3d205a6a	0.039148726
68	0xb8a1d800	-7.7173114e-05
69	0xbcef3d58	-0.029204056
70	0xbce3d4ac	-0.02781137
71	0x3c8f5de0	0.017500818
72	0xbabb968f	-0.0014311838
73	0xbc21447c	-0.009842988
74	0xbcaa7018	-0.020805404
75	0xbd3fe2d4	-0.04684718
76	0x3d5051de	0.050859325
77	0xbcbf8348	-0.02337803
78	0x3c820e89	0.015876072
79	0x3d527dac	0.05138938
80	0xbd673f2d	-0.056456733
81	0xbcc2e3e0	-0.0237903
82	0xbd08b6d2	-0.033377476
83	0xbd021bdb	-0.031764846
84	0x3d494096	0.04913386
85	0x3d5985be	0.053106062
86	0x38826797	6.218178e-05
87	0xbca321b3	-0.01991353
88	0x3d3d568a	0.04622511
89	0xbcb1dbf4	-0.021711327
90	0x3d20b278	0.0392327
91	0xbd1d15ed	-0.03835099
92	0x3cce1d09	0.02516033
93	0xbd125a82	-0.035730846
94	0xbd8b529e	-0.06802867
95	0x3d2e5c50	0.042568505
96	0xbd6b9fbb	-0.057525378
97	0xbc89aa0c	-0.016804717
98	0xbd2f4d5e	-0.042798392
99	0xbcdd25c8	-0.026995555
100	0xb8518ae3	-4.995883e-05
101	0x3c568f41	0.013095678
102	0xbcee7958	-0.029110596
103	0xbc046c35	-0.008082439
104	0xbd0ced59	-0.03440604
105	0xbcc9f508	-0.024652973
106	0xbb5c7ee4	-0.0033644969
107	0xbd802388	-0.06256777
108	0x3d70fc22	0.058834203
109	0xbd7100a8	-0.058838516
110	0x3ca90ee3	0.020636981
111	0xbb574160	-0.0032845363
112	0xbbe3e464	-0.0069547165
113	0x3d68dca6	0.05685105
114	0x3b2ee1a0	0.0026684776
115	0x3c9d2f88	0.019187704
116	0xbb03c800	-0.0020108223
117	0x3a5af080	0.00083518773
118	0xbd74115b	-0.059586864
119	0xbbf5d460	-0.0075021237
120	0x3cdfb15b	0.02730625
121	0xbb0f3cc0	-0.0021856278
122	0x3cf9d9be	0.030499335
123	0x3cdb515c	0.026772194
124	0xbd35688a	-0.04428915
125	0x3d54c4a8	0.05194536
126	0x3d216009	0.039398227
127	0x3bcffa10	0.0063469484
128	0x3d7619d6	0.060083233
129	0xbd810ba3	-0.06301048
130	0x3c0e081a	0.008668924
131	0xbce6d75e	-0.028178867
132	0xb9e6237f	-0.00043895465
133	0x3b817c38	0.0039515756
134	0x3d748dd0	0.059705555
135	0x3be53f42	0.0069960663
136	0xbc9d7ea0	-0.019225419
137	0x3c7bfc10	0.015379921
138	0xbd80a202	-0.062809005
139	0xbc7a6d2f	-0.01528482
140	0xbd45448a	-0.048161067
141	0xbd8692eb	-0.06570991
142	0x3cbc9c85	0.023023853
143	0xbcfb7ea4	-0.030700035
144	0x3be9ecb7	0.0071388143
145	0xbd80705a	-0.06271429
146	0x3d00e43e	0.03146767
147	0x3cbeaa5e	0.023274597
148	0x3d1a1a4a	0.037622727
149	0xbcf13a60	-0.02944678
150	0xbd08d3ec	-0.03340523
151	0xbca27df4	-0.01983545
152	0x3d0bc308	0.034121543
153	0xbb915ae0	-0.004435882
154	0x3d43256e	0.047643118
155	0x3c1b907b	0.009494896
156	0x3cc40b78	0.02393125
157	0xbbae8d90	-0.005326934
158	0xbc2005b1	-0.009766982
159	0x3cdfe759	0.027331995
160	0xbd69fabc	-0.057123885
161	0x3cb39b1c	0.021924548
162	0x3d746d84	0.059674755
163	0xbd2c1909	-0.042016063
164	0xbcd087f4	-0.025455453
165	0xbd557485	-0.052113075
166	0xbcf0e150	-0.029404312
167	0xbd41dfd9	-0.04733262
168	0x3ca844c9	0.020540612
169	0x3d213a70	0.03936237
170	0xbd7f961a	-0.062399007
171	0xbd775c7d	-0.060390938
172	0x3abcdb00	0.0014408529
173	0xbd0fba70	-0.03508991
174	0x3c31ce3a	0.010852391
175	0x3cf517f4	0.029918648
176	0x3d1c2fde	0.038131587
177	0x3d6f6322	0.05844415
178	0x3c9c83bb	0.019105783
179	0xbcfa05c0	-0.03052032
180	0x3b96e2b0	0.00460466
181	0x3d1ec4d4	0.03876193
182	0x3d18fb99	0.037349317
183	0xbb3c7200	-0.0028754473
184	0x3d0de70a	0.034644164
185	0x3d1f71bc	0.038926825
186	0x3d6bb34e	0.057544045
187	0xbcc44948	-0.023960724
188	0xbd4bb03e	-0.049728625
189	0x3c8f93b0	0.017526478
190	0xbc91ffd4	-0.017822184
191	0x3cd03d69	0.025419908
192	0x3d625229	0.055254135
193	0xbb95306c	-0.0045528915
194	0x3cdf7e2e	0.027281847
195	0x3b8fa57a	0.00438374
196	0x3cdda12f	0.027054397
197	0xbc69d9d8	-0.014273129
198	0xbd201394	-0.03908117
199	0xbc0f02e0	-0.008728713
200	0x3d170027	0.03686538
201	0xbd4c0040	-0.049804926
202	0x3d7f9468	0.06239739
203	0xbcb008b8	-0.021488532
204	0xbd7523e6	-0.05984869
205	0x3d57ebe2	0.05271519
206	0x3d39edb6	0.045392714
207	0xbd4e296e	-0.05033248
208	0xb98c9900	-0.00026816875
209	0xbd5243e6	-0.051334284
210	0xbd176bc5	-0.03696801
211	0xbd2e0157	-0.042481747
212	0xbcfb7c4e	-0.030698922
213	0x3cf81bab	0.03028663
214	0xbbe9fcbf	-0.0071407254
215	0xbd7a167c	-0.0610566
216	0xbd607664	-0.054800406
217	0xbd1dc22e	-0.038515262
218	0x3d1b8eba	0.03797791
219	0xbcd5c944	-0.026096947
220	0x3d1b3bf0	0.037898958
221	0xbd902ef9	-0.07040209
222	0x3cca09e8	0.024662927
223	0xbcfb90df	-0.030708728
224	0x3c1b322e	0.009472413
225	0x3ce5c633	0.02804861
226	0x3c12d320	0.008961469
227	0x3d5fa950	0.05460483
228	0xbcc612fb	-0.024178972
229	0x3c14b4d8	0.00907632
230	0x3c2f6808	0.010705955
231	0x3c6aa6b6	0.014321974
232	0xbd5db014	-0.054123
233	0xbc7088b8	-0.014681034
234	0xbcd36454	-0.025804676
235	0x3cee3c39	0.02908145
236	0xbd1c00fb	-0.038086873
237	0x3d7470f4	0.059678033
238	0xbd38e331	-0.04513854
239	0xbd1fc962	-0.039010413
240	0xbd931b55	-0.071829475
241	0xbd77b87e	-0.06047868
242	0xbd5f5d60	-0.05453241
243	0x3cc7b78d	0.024379516
244	0x3d09ddf5	0.03365894
245	0xb8408800	-4.5903027e-05
246	0x3d4cb22c	0.049974605
247	0x3d4e3361	0.050341967
248	0x3ce4fda9	0.027952986
249	0xbbf231a0	-0.0073911697
250	0xbc801d26	-0.015638899
251	0xbd596225	-0.053072114
252	0x39876800	0.00025826693
253	0x3c96ad1c	0.018393092
254	0x3c50ec64	0.012751672
255	0xbd43fc07	-0.047847774

fc2.bias f4 [256]
0	0xbdd166a3	-0.102246545
1	0xbdcc47c0	-0.09974623
2	0xbd8e3d80	-0.06945324
3	0xbdada68c	-0.08479032
4	0xbf0a6fe9	-0.5407701
5	0xbd3d6e20	-0.0462476
6	0xbe614295	-0.21998055
7	0x3ebaa7ad	0.3645605
8	0xbe26625a	-0.16248456
9	0xbddac0ca	-0.10681303
10	0x3d847f79	0.06469626
11	0xbdac2cd9	-0.084069915
12	0x3e748de7	0.23882256
13	0xbd190413	-0.0373574
14	0xbde87013	-0.113495015
15	0xbed865a2	-0.4226504
16	0xbdfb3333	-0.12265625
17	0xbd9589ed	-0.07301698
18	0x3c890528	0.016726092
19	0xbdcc703e	-0.09982346
20	0xbdc93597	-0.098246746
21	0xbdb1c9cf	-0.0868107
22	0x3e8a1315	0.26967683
23	0xbd9100e9	-0.07080252
24	0xbd8e22d9	-0.069402404
25	0xbd7ab9ed	-0.06121247
26	0x3f074c14	0.5285046
27	0xbd8072a0	-0.06271863
28	0xbd7b8272	-0.0614037
29	0xbd8256ec	-0.06364235
30	0xbed7cd37	-0.42148754
31	0xbda9d388	-0.082922995
32	0xbde0de73	-0.10979929
33	0x3d88142d	0.06644473
34	0xbdcbfcbe	-0.09960316
35	0xbc83e5f0	-0.016100854
36	0x3d8640a5	0.06555299
37	0xbdb95912	-0.09050192
38	0xbc8f2ef5	-0.017478446
39	0xbd7ee838	-0.06223318
40	0xbdd1a220	-0.10236001
41	0xbdcd1142	-0.10013057
42	0xbe3915bd	-0.18074699
43	0xbdc54329	-0.096319504
44	0xbe0016d9	-0.12508716
45	0xbd3a73bd	-0.045520533
46	0xbd526067	-0.051361468
47	0xbc9f773c	-0.019466035
48	0xbd19fe63	-0.037596118
49	0xbd73ace9	-0.05949107
50	0x3bfc20a5	0.007694321
51	0xbd7884a0	-0.060673356
52	0xbcdfe1cc	-0.027329348
53	0xbdc8f787	-0.09812837
54	0xbd58be34	-0.052915767
55	0xbd67e8b0	-0.056618392
56	0xbdd63d9b	-0.10460969
57	0xbdefb31b	-0.117040835
58	0xbeb0f981	-0.34565356
59	0xbdb6ec49	-0.089317866
60	0xbd3864c2	-0.045017965
61	0x3e9c2984	0.30500424
62	0xbdaaf68c	-0.08347806
63	0xbe8ba833	-0.27276763
64	0xbba1c9e5	-0.004937398
65	0xbd7624e6	-0.060093783
66	0xbeff31be	-0.49842638
67	0xbd208a4a	-0.039194383
68	0xbdabdfab	-0.08392271
69	0xbd2a8c41	-0.041637663
70	0xbc586024	-0.013206515
71	0xbd809b22	-0.06279589
72	0xbd78386c	-0.060600683
73	0xbd401184	-0.046891704
74	0x3dfa2ea8	0.1221593
75	0xbdc8e3da	-0.09809084
76	0xbe97802c	-0.29589975
77	0x3d1f0eb1	0.03883237
78	0xbe6b750f	-0.22993873
79	0xbf039352	-0.5139667
80	0xbd5469e5	-0.0518588
81	0xbd914617	-0.07093447
82	0xbddc67b2	-0.10761966
83	0xbcce4028	-0.025177076
84	0xbdb6bb96	-0.08922498
85	0x3d90d922	0.07072665
86	0xbdf634a4	-0.12021759
87	0x3d490b15	0.049082834
88	0x3f30250f	0.68806547
89	0xbdcb48bd	-0.09925983
90	0xbdab21e3	-0.08356073
91	0xbda2f4cc	-0.079568475
92	0xbd2847d3	-0.041084122
93	0xbccefb05	-0.02526618
94	0x3dd9e8c4	0.106401
95	0xbd852288	-0.06500727
96	0xbde49837	-0.11161845
97	0xbda8f2ba	-0.082494214
98	0xbde9c588	-0.11414629
99	0xbceabde4	-0.028655
100	0xbdff6e96	-0.124722645
101	0xbe081811	-0.1329043
102	0xbdc13ac5	-0.094350375
103	0xbdb3f08a	-0.087861136
104	0xbf28f3ef	-0.65997213
105	0xbc154d7e	-0.009112714
106	0xbe683595	-0.2267669
107	0xbd550b92	-0.052012987
108	0xbd9ed892	-0.07756151
109	0xbddc4fa2	-0.10757376
110	0xbdf2d4d9	-0.11857004
111	0xbd59bc50	-0.053158104
112	0xbdaebcd4	-0.0853211
113	0xbeee99be	-0.4660167
114	0xbe2877b0	-0.16451907
115	0xbe058d4b	-0.1304218
116	0x3db93026	0.09042387
117	0xbdc2d59b	-0.09513398
118	0xbe0827c4	-0.1329642
119	0xbd8e0166	-0.069338605
120	0xbd856577	-0.065134935
121	0xbe613364	-0.2199226
122	0x3e1d4aee	0.15360615
123	0xbe148b5d	-0.14506288
124	0xbe1835be	-0.14864251
125	0xbd3c612c	-0.045991108
126	0xbdbb05b8	-0.0913195
127	0xbdde343c	-0.10849807
128	0xbdec3556	-0.115336105
129	0xbdc8a27e	-0.09796618
130	0xbd057139	-0.03257868
131	0x3e352a44	0.17691904
132	0xbe2cfcb1	-0.16893269
133	0xbd4e734e	-0.050402932
134	0x3dc47d9d	0.09594271
135	0xbdaa030d	-0.08301363
136	0xbdbbeb4b	-0.09175738
137	0x3cca2eea	0.024680573
138	0xbdfd417e	-0.12366007
139	0xbdae2222	-0.08502604
140	0xbdaee673	-0.085400485
141	0xbda28ceb	-0.07937034
142	0xbcb8522d	-0.022500122
143	0xbde148b6	-0.11000197
144	0xbdb85038	-0.089996755
145	0xbda69e71	-0.08135689
146	0xbd923a61	-0.07140041
147	0x3eaeb97d	0.3412589
148	0xbd9481cc	-0.07251319
149	0xbd96fca0	-0.07372403
150	0xbdba3390	-0.09091866
151	0xbdf9b3f5	-0.12192527
152	0xbd931046	-0.07180838
153	0xbe3ed102	-0.18634418
154	0xbdd1f7af	-0.1025232
155	0xbdc7f0b8	-0.0976271
156	0xbe1cca22	-0.15311483
157	0xbdd59041	-0.10427905
158	0xbcbb6914	-0.022877254
159	0xbdb23cf8	-0.08703035
160	0xbd2e8ef4	-0.0426168
161	0xbe03f296	-0.12885508
162	0x3d74266f	0.059606966
163	0xbeae7093	-0.34070262
164	0xbde0de22	-0.109798685
165	0xbefc57e8	-0.49285817
166	0xbdebf997	-0.11522215
167	0xbe0f1d9f	-0.13976143
168	0xbe087ac1	-0.13328077
169	0xbd819343	-0.06326916
170	0xbe25f499	-0.16206588
171	0xbe456504	-0.19276816
172	0xbdb35a2c	-0.08757433
173	0xbd822277	-0.0635423
174	0xbdb09404	-0.08621982
175	0xbdacaba7	-0.084311776
176	0xbdcc3fe3	-0.09973123
177	0xbdaf39b5	-0.085559286
178	0xbd473e35	-0.04864331
179	0xbe03d406	-0.1287385
180	0xbd325158	-0.043534607
181	0xbdd1980c	-0.10234079
182	0xbe425bbc	-0.18980306
183	0x3da2d173	0.079501055
184	0xbdab3bb0	-0.08360994
185	0xbeaa08f2	-0.3320995
186	0xbe3e5476	-0.18586907
187	0xbdcbabd7	-0.09944885
188	0xbe1d4a48	-0.15360367
189	0xbda9d127	-0.08291846
190	0xbdbb49e3	-0.09144952
191	0xbcfe3353	-0.031030333
192	0xbea453a9	-0.32095078
193	0xbdede826	-0.116165444
194	0xbdbf6d4a	-0.09347017
195	0xbd4ce658	-0.05002436
196	0xbdf2e24e	-0.118595704
197	0xbdab0cb6	-0.08352034
198	0xbd70a0ac	-0.05874698
199	0x3d85cba7	0.06532984
200	0xbdeb026e	-0.11475073
201	0xbdc15767	-0.09440499
202	0xbd1dab9f	-0.03849375
203	0xbd7b574a	-0.061362542
204	0xbdec48bf	-0.11537313
205	0xbdcf274f	-0.101149194
206	0xbd8e9136	-0.069612905
207	0xbd55f03f	-0.05223107
208	0xbd98c910	-0.07460225
209	0xbd510ebe	-0.05103945
210	0xbdbf49ea	-0.0934027
211	0xbed9f04d	-0.42566147
212	0xbe9cd3b4	-0.30630267
213	0xbd9fdf84	-0.07806304
214	0xbe429ac3	-0.1900435
215	0xbda3fcd5	-0.08007208
216	0xbdd87a93	-0.10570254
217	0xbd574e3f	-0.052564856
218	0xbcab1b9f	-0.020887194
219	0xbe942e3e	-0.2894153
220	0xbd21ae6e	-0.03947299
221	0xbe2c44b9	-0.1682309
222	0xbdd0cc05	-0.10195164
223	0xbe93871d	-0.2881402
224	0xbde16760	-0.11006045
225	0xbec149f0	-0.37751722
226	0xbd8092f2	-0.062780276
227	0xbe555b18	-0.20835531
228	0xbd91bed3	-0.07116475
229	0xbd549086	-0.05189564
230	0xbda70ebe	-0.08157109
231	0xbdc63869	-0.09678728
232	0xbda5b88b	-0.080918394
233	0xbd34222b	-0.043977898
234	0xbc213252	-0.009838657
235	0xbac84966	-0.0015280664
236	0xbd36ce84	-0.044630542
237	0xbdb8fbc0	-0.090323925
238	0x3ee2f70a	0.443291
239	0xbdac643b	-0.08417555
240	0xbdb0169d	-0.08598063
241	0x3ecfa29d	0.40553752
242	0xbcc50f75	-0.024055222
243	0xbda3a848	-0.079910815
244	0x3e3c1d0e	0.18370458
245	0xbdce269f	-0.1006596
246	0xbdfebeb8	-0.124387205
247	0xbdf61039	-0.12014813
248	0x3f06860a	0.5254828
249	0xbca4a920	-0.020100176
250	0xbd4fbdbd	-0.050718058
251	0xbdebaddd	-0.11507771
252	0xbda3c0c1	-0.07995749
253	0xbdc0bc16	-0.094108745
254	0xbdd91965	-0.10600547
255	0xbdf02962	-0.11726643

fc3.weight f4 [128, 256]
0	0x3cdc2d42	0.02687705
1	0x3d0e9d7f	0.03481817
2	0x3cafcde6	0.021460485
3	0x3d6c8426	0.057743214
4	0xbea869eb	-0.3289331
5	0xbb32b633	-0.0027269244
6	0x3dd54715	0.104139484
7	0xbe9d377b	-0.3070639
8	0x371cade6	9.3388135e-06
9	0xbd0aa94c	-0.03385286
10	0x3e4641b8	0.19361007
11	0xbd887a0a	-0.06663902
12	0x3e3cb25e	0.18427417
13	0xbeb5e7e4	-0.3552848
14	0x3d69ea8c	0.057108447
15	0xbe8bcb69	-0.27303627
16	0x3ca2fee0	0.019896924
17	0x3d6d6346	0.057956003
18	0x3e6b3276	0.22968468
19	0xb911bd73	-0.00013898853
20	0xbd2fcba8	-0.04291883
21	0x3d9590a7	0.07302981
22	0x3e33d413	0.17561369
23	0xbdcb6c32	-0.09932746
24	0xbbe54003	-0.006996156
25	0xbc2a8f2b	-0.0104101105
26	0x3ecfbf03	0.40575418
27	0xbba60d90	-0.0050675347
28	0xbd97f03c	-0.07418868
29	0xbdc2ae49	-0.095058985
30	0xbf6bc4bf	-0.92097086
31	0xbd9f43ee	-0.077766284
32	0xbd64802b	-0.055786293
33	0x3e60e7b0	0.21963382
34	0xbd41e69d	-0.04733907
35	0xbd5f6e88	-0.05454877
36	0x3e57a87e	0.21060368
37	0xbb959220	-0.0045645386
38	0xbd5df5ad	-0.054189373
39	0xbd32fafe	-0.043696396
40	0xbd00feaf	-0.031492885
41	0xbd85ee30	-0.06539571
42	0xbe724384	-0.23658568
43	0x3db89a00	0.09013748
44	0x3d2b1a76	0.041773282
45	0xbccd0b29	-0.025029736
46	0x3cb7daa3	0.022443121
47	0xbd6785d1	-0.0565241
48	0x3cf54ce2	0.029943887
49	0xbcf4afa4	-0.029868908
50	0xbe598701	-0.21242906
51	0xbcd4eb01	-0.025990965
52	0xbd68bad4	-0.0568188
53	0xbc9f506e	-0.019447532
54	0xbc9ac78a	-0.018893976
55	0xbe8b64f8	-0.2722547
56	0x3d3fc5e9	0.0468196
57	0x3dabfbd1	0.083976395
58	0xbf11c0c1	-0.56934744
59	0x3d9174ac	0.071023315
60	0x3d927af6	0.07152359
61	0x3e4b2f98	0.19842374
62	0x3d1f43e1	0.038883094
63	0xbec0971a	-0.3761528
64	0xbc82e3a1	-0.015977683
65	0xbd801ba9	-0.06255276
66	0xbe61a328	-0.22034895
67	0xbd034669	-0.03204957
68	0x3c36c29e	0.011154799
69	0xbd3a4d85	-0.045484085
70	0xbd5a44c1	-0.053288225
71	0xbd652f1c	-0.05595313
72	0xbdc30f68	-0.09524423
73	0xbd169936	-0.036767207
74	0x3ef89eff	0.48558804
75	0x3d979f73	0.074034594
76	0x3d9d0b8a	0.076682165
77	0xbe70e42a	-0.23524538
78	0xbe76bce2	-0.2409549
79	0xc00e8d1d	-2.2273629
80	0xbc6eb8d2	-0.014570432
81	0x3cb89d9e	0.022536095
82	0x3d41cc05	0.04731371
83	0xbb824688	-0.003975693
84	0xbd3b7e6e	-0.04577487
85	0x3e4ef88c	0.20212
86	0x3dc0c271	0.09412087
87	0x3ead3b97	0.33834526
88	0xbcfb6d13	-0.03069166
89	0xbd24ff00	-0.04028225
90	0x3c75c0dc	0.014999595
91	0xbd2fcdf6	-0.04292103
92	0x3dbe3dda	0.09289141
93	0x3d81b2d3	0.06332936
94	0xbe73e528	-0.23817885
95	0x3dc14968	0.09437829
96	0xbda9cfc2	-0.0829158
97	0xbceee5de	-0.029162344
98	0xbd396280	-0.045259953
99	0xbd0f770e	-0.03502565
100	0x3ce1db60	0.027570426
101	0x3d8ae97b	0.06782814
102	0x3d84d5d1	0.06486095
103	0xbd8f3f6f	-0.06994521
104	0x3eb776ac	0.35832727
105	0xbe9f95e6	-0.3116905
106	0xbf066b6f	-0.5250768
107	0x3d7a4a63	0.061106097
108	0xbd8d60ea	-0.069032505
109	0x3bcc8f31	0.0062426557
110	0xbdb6191a	-0.088915065
111	0x3d0a8314	0.033816412
112	0xbda2f604	-0.0795708
113	0xc04bf313	-3.186711
114	0x3bd0ab97	0.0063681114
115	0xbe2fb2ba	-0.17158023
116	0x3d3fd43e	0.04683327
117	0xbd4c699c	-0.049905404
118	0x3d9e9817	0.077438526
119	0xbd8322ad	-0.06403098
120	0xbb74bf01	-0.0037345293
121	0xbf93d592	-1.1549551
122	0xbd71ce64	-0.05903472
123	0xbe9e0124	-0.30860245
124	0xbe53595e	-0.2063956
125	0xbd77fb72	-0.06054253
126	0x3da1e964	0.07905844
127	0xbd85738a	-0.06516178
128	0x3d4a4e61	0.049391154
129	0x3ddc2f34	0.10751191
130	0x3c89546e	0.016763892
131	0xbeef8495	-0.4678084
132	0x3d3c434a	0.04596261
133	0xbdc9d119	-0.09854335
134	0x3e91e532	0.28495175
135	0xbdb54d1f	-0.088526
136	0x3ced7402	0.02898598
137	0xbeb8888e	-0.36041683
138	0xbf11b64c	-0.5691879
139	0x3c77b5b7	0.015119008
140	0xbcce6c96	-0.025198262
141	0xbd4019d8	-0.046899647
142	0x3c30f253	0.010799962
143	0xbd244b9e	-0.040111177
144	0x3d39eaef	0.045390066
145	0xbf01baf9	-0.5067592
146	0x3c90e265	0.017686078
147	0xbf06c8b1	-0.5264998
148	0xbdcb4db1	-0.09926928
149	0xbcd50548	-0.026003495
150	0xbc990b9d	-0.018682295
151	0xbda1ccbe	-0.079003796
152	0x3cd61af0	0.026135892
153	0xbea45633	-0.32097015
154	0x3d27e11e	0.040986173
155	0x3c029c87	0.007971889
156	0xbf57ee99	-0.84348446
157	0x3dc4413f	0.09582757
158	0x3da03f38	0.07824558
159	0x3daf4792	0.08558573
160	0x3ca7138d	0.020395065
161	0x3da589de	0.08082937
162	0xbe4930a9	-0.19647469
163	0xbe64e114	-0.22351485
164	0xbd9e6d56	-0.07735698
165	0xbf51d13e	-0.81959903
166	0xbd6bc8bf	-0.057564493
167	0xbcc5488f	-0.02408245
168	0x3ea018dc	0.31268966
169	0x3d76b4ad	0.0602309
170	0xbc45103e	-0.012027798
171	0xbe301cb7	-0.17198454
172	0xbde9be0d	-0.114132024
173	0xbdb8b37c	-0.09018609
174	0xbd4e07cb	-0.0503004
175	0xbd1baaa2	-0.038004525
176	0x3cab9f74	0.020950057
177	0x3de10c02	0.109886184
178	0x3d5c14fd	0.053730953
179	0x3da473dd	0.08029912
180	0x3e762e0c	0.24041003
181	0xbd0a6ce4	-0.033795252
182	0xbe7e00fc	-0.24805063
183	0xbe269511	-0.16267802
184	0x3d75543f	0.059894796
185	0xbf1a2b6f	-0.60222524
186	0xbf16ea9c	-0.58951735
187	0xbc13a67b	-0.00901186
188	0xbd8a90b3	-0.067658804
189	0xbdb78956	-0.089617416
190	0xbd7ec1ae	-0.062196426
191	0x3ce1ed33	0.027578926
192	0xbdddfa96	-0.10838811
193	0xbdc90c1a	-0.09816761
194	0xbdb37f3b	-0.08764502
195	0x3d85d1a6	0.06534128
196	0xbd73d238	-0.059526652
197	0x3cbfef84	0.02342964
198	0x3d29a590	0.04141766
199	0xbe0deac5	-0.13859089
200	0xbd952ff0	-0.07284534
201	0x3cd502be	0.026002284
202	0x3d7133aa	0.05888716
203	0x3aaa871b	0.0013010235
204	0x3d33ed02	0.0439272
205	0x3d26927b	0.04066704
206	0x3da136a0	0.07871747
207	0x3cea2ec5	0.028586755
208	0xbdfc0843	-0.12306263
209	0xbd464684	-0.048407093
210	0x3d8b7d44	0.06811002
211	0xbc092121	-0.008369715
212	0xbf06a1b4	-0.5259049
213	0xbd3c508b	-0.04597525
214	0x3e3c710c	0.18402499
215	0xbe2aee67	-0.16692506
216	0xbd2022e8	-0.03909579
217	0x3d25bb2c	0.040461704
218	0xbd149110	-0.036271155
219	0xbe50ee47	-0.20403396
220	0xbe88ea61	-0.26741317
221	0xbf076f76	-0.5290445
222	0xbda06d65	-0.07833365
223	0xbe1ea28e	-0.15491697
224	0xbd7f4ae0	-0.062327266
225	0xbf5611f7	-0.8362116
226	0xbdb1d99f	-0.08684086
227	0xbe2ef823	-0.17086844
228	0xbc192ee5	-0.009349559
229	0xbf6f59db	-0.93496484
230	0xbcecb0b8	-0.02889286
231	0x3d2e93da	0.04262147
232	0xbe161a45	-0.14658459
233	0x3c24ed7a	0.010066384
234	0xbc45dbf2	-0.012076365
235	0xbe1ba66a	-0.152002
236	0xbcd9d8e0	-0.026592672
237	0x3c553a79	0.013014429
238	0x3e816dc8	0.2527907
239	0xbc873993	-0.016506946
240	0xbd54ece6	-0.051983736
241	0x3eccfece	0.4003815
242	0x3c856759	0.016284632
243	0xbdc5b1f0	-0.096530795
244	0xbd8a7fc9	-0.06762654
245	0xbd88baf6	-0.06676285
246	0xbd8bf0ff	-0.06833076
247	0x3d8e0474	0.06934443
248	0x3dc4c5cf	0.096080415
249	0xbe09eb75	-0.13468726
250	0x3d869538	0.0657143
251	0xbdd83e5c	-0.10558769
252	0xbcfa0220	-0.030518591
253	0xbcd625dd	-0.026141101
254	0xbe04b0a5	-0.1295801
255	0x3d6bad41	0.057538275

fc3.bias f4 [128]
0	0x3e91ac5a	0.28451806
1	0xbdd9e9ac	-0.106402725
2	0xbe4025de	-0.18764445
3	0xbdbc3982	-0.09190656
4	0x3e870edf	0.26378533
5	0x3e579518	0.21052969
6	0xbed9b7a4	-0.4252292
7	0xbe230ff8	-0.1592406
8	0xbd9c924c	-0.076450914
9	0xbe2f16cd	-0.17098542
10	0xbe035a0c	-0.12827319
11	0xbe31c489	-0.17360128
12	0x3e5f1d15	0.21788438
13	0x3c19bde6	0.009383654
14	0xbec326e3	-0.38115606
15	0xbe23aa9d	-0.15983053
16	0xbddfe059	-0.10931463
17	0xbe5f278c	-0.2179243
18	0xbdfc6718	-0.12324351
19	0xbe301d3a	-0.17198649
20	0xbe0a5f0c	-0.1351282
21	0xbe3fb32b	-0.18720691
22	0xbe3b4729	-0.18288864
23	0xbd6e5d66	-0.05819454
24	0x3dd6f6a8	0.10496265
25	0xbe69f6e4	-0.22848088
26	0xbe13b091	-0.14422823
27	0xbe9ed3b7	-0.310209
28	0x3d76cfb4	0.060256675
29	0xbe03ef4b	-0.12884252
30	0x3e6e21b5	0.23255046
31	0xbbc91438	-0.0061364435
32	0xbe459eda	-0.19298878
33	0x3d9bee7f	0.07613849
34	0xbdce7b80	-0.100821495
35	0xbe1f5f4f	-0.15563701
36	0xbe38db62	-0.18052438
37	0xbe4f973d	-0.20272537
38	0xbdeaa548	-0.11457306
39	0x3e28121d	0.1641316
40	0xbe1de1b2	-0.15418127
41	0xbe8dd837	-0.2770402
42	0xbe7047d8	-0.23464906
43	0xbdfc80e6	-0.12329273
44	0x3d23e8df	0.040017005
45	0xbe73eb8a	-0.2382032
46	0x3e3ec77e	0.18630788
47	0x3c82d5ec	0.015971147
48	0xbe5fd1e3	-0.21857409
49	0xbd9920a8	-0.07476932
50	0xbe4f5896	-0.20248637
51	0xbe6b1083	-0.22955517
52	0xbf0f3f96	-0.559564
53	0xbeee080a	-0.46490508
54	0xbeb453e2	-0.35220248
55	0xbdcf1646	-0.1011167
56	0x3eab2cef	0.3343272
57	0xbddcb90d	-0.10777483
58	0xbd8b9089	-0.06814677
59	0x3e0119b8	0.12607467
60	0xbda7340d	-0.08164225
61	0xbdbd8fa8	-0.09255916
62	0xbe2c3240	-0.16816044
63	0xbdf381b1	-0.11889971
64	0xbddc619a	-0.107608035
65	0xbe3bcb78	-0.18339336
66	0x3ac400d1	0.0014953857
67	0xbe2737c4	-0.16329867
68	0xbde386dd	-0.111097075
69	0xbe83d83e	-0.25750917
70	0xbe18099f	-0.1484742
71	0xbdafd596	-0.0858566
72	0x3e2c8fce	0.16851732
73	0xbd3cddd8	-0.046110004
74	0x3eb0d00f	0.34533736
75	0xbe1d7e77	-0.15380274
76	0x3d8d6f14	0.06905952
77	0xbe225240	-0.15851688
78	0x3d9ec16b	0.07751735
79	0xbd663537	-0.056203093
80	0xbe3a22af	-0.18177293
81	0xbe214672	-0.15749529
82	0x3ea4e7fe	0.32208246
83	0xbde1fc34	-0.11034432
84	0xbe1a4797	-0.15066372
85	0xbe35f63b	-0.1776971
86	0xbdd7759b	-0.10520478
87	0xbe070167	-0.13184129
88	0xbe21dd9e	-0.15807196
89	0xbdf81f94	-0.12115398
90	0xbd796547	-0.0608876
91	0xbe23c3be	-0.15992638
92	0x3e81c1ca	0.25343162
93	0xbe33935e	-0.17536685
94	0xbde8cfc4	-0.11367753
95	0x3e04ccf1	0.12968804
96	0x3cd6a6fe	0.026202675
97	0xbe0726a5	-0.13198335
98	0xbcd32cff	-0.025778292
99	0x3df6cb0b	0.12050446
100	0xbe014e6a	-0.12627569
101	0xbedc687e	-0.4304847
102	0xbeb9bbeb	-0.36276183
103	0xbe263dfc	-0.16234583
104	0xbd906b0e	-0.07051669
105	0xbdc82d11	-0.09774221
106	0xbddcbe51	-0.107784875
107	0xbd634187	-0.055482414
108	0xbe5f4b8b	-0.21806161
109	0xbe1e1e5b	-0.15441267
110	0xbd337ad5	-0.043818314
111	0xbe22d8ac	-0.15902966
112	0xbe004d86	-0.12529573
113	0xbe2a3b49	-0.16624178
114	0xbd909fb2	-0.070617095
115	0xbe0ccb4d	-0.13749428
116	0xbef9c603	-0.48783883
117	0x3e33a786	0.17544374
118	0xbdecf0b1	-0.11569346
119	0xbe5a6dee	-0.21330997
120	0x3de54323	0.11194446
121	0xbf159eb2	-0.58445275
122	0x3da68fc2	0.081328884
123	0x3c970c21	0.0184384
124	0xbe755f48	-0.23962128
125	0xbe9e20b6	-0.3088433
126	0xbe436d43	-0.19084649
127	0xbe84f738	-0.25969863

fc4.weight f4 [1, 128]
0	0x3d60ffaf	0.05493134
1	0xbc815e3c	-0.015792005
2	0x3ca2adbb	0.019858232
3	0xbd0819fa	-0.0332279
4	0xbd4b1898	-0.049584
5	0xbd2055b3	-0.03914423
6	0xbd5c84bb	-0.05383752
7	0xbd15674b	-0.03647546
8	0xbd34c134	-0.044129565
9	0xbd180f50	-0.03712398
10	0xbc2c7642	-0.010526242
11	0xbb2635ce	-0.002536166
12	0x3d5ba506	0.053624175
13	0xbd360e38	-0.044447154
14	0xbd09cf08	-0.033644706
15	0x3c829abb	0.015942922
16	0x3cbc501d	0.02298742
17	0x3c6f4ee9	0.014606216
18	0xbc547453	-0.012967187
19	0x3ccf47df	0.025302825
20	0xbd316890	-0.04331261
21	0xbb9c2e38	-0.004766252
22	0xbcb32b6f	-0.021871297
23	0x3e1406f4	0.14455777
24	0xbd66409a	-0.056213953
25	0xbc1ebe83	-0.009688976
26	0x3c8eb53e	0.017420407
27	0x3d84a037	0.06475871
28	0x3db64b0f	0.08901035
29	0x3bc66282	0.0060542235
30	0x3d031a2d	0.032007385
31	0xbddd9484	-0.10819343
32	0xbcc0e0b5	-0.023544649
33	0x3d0e991b	0.03481398
34	0xbcd6da66	-0.026227187
35	0x3bf4d06f	0.0074711363
36	0x3d594820	0.0530473
37	0x3c4e7a5f	0.012602418
38	0x39c7c92d	0.00038106125
39	0x3d7735fe	0.060354225
40	0xbc89c8b7	-0.016819341
41	0x3d63123c	0.05543731
42	0xbd8752b0	-0.06607568
43	0x3b1a525f	0.0023547632
44	0xbd30755c	-0.043080673
45	0x3d5c8ffd	0.053848255
46	0xbd2f4d5c	-0.042798385
47	0x3d19dfb1	0.037566844
48	0xbdb5b5c2	-0.08872558
49	0x3cf4f80c	0.029903434
50	0xbc3b1387	-0.01141823
51	0x3be2326c	0.0069029834
52	0x3d132e06	0.035932563
53	0xbd770e56	-0.060316406
54	0x3d8ccdc2	0.06875183
55	0xbc5ba9fd	-0.013407228
56	0xbda252ac	-0.07925925
57	0xbcd31175	-0.02576516
58	0xbc86b6dc	-0.016444616
59	0x3d19bb8a	0.037532367
60	0x3cf08831	0.029361816
61	0x3c329833	0.010900545
62	0xbc9cfe88	-0.019164339
63	0xba422870	-0.00074065384
64	0xbcd95e5d	-0.026534254
65	0x3c5710ba	0.0131265465
66	0xbd7a4715	-0.061102945
67	0xbc8434b1	-0.016138406
68	0x3cc64500	0.024202824
69	0xbc389cd2	-0.011267858
70	0x3c20be84	0.009811047
71	0x3d4b652b	0.04965703
72	0xbdcc1aa6	-0.0996602
73	0x3c306945	0.010767286
74	0x3d930f3d	0.07180641
75	0xbcac97c1	-0.021068456
76	0xbd78a031	-0.060699645
77	0x3e12504f	0.14288448
78	0x3d3b7d17	0.04577359
79	0x3d84c5df	0.064830534
80	0x3c9540e6	0.018219423
81	0xbc63ff1b	-0.013915802
82	0xbe4a9e3d	-0.19786926
83	0x3ca554de	0.02018207
84	0xbc38cc09	-0.0112791145
85	0x3ca8cec7	0.020606412
86	0xbd2a7de7	-0.041623976
87	0x3c4d05c0	0.012513578
88	0x3c2d0da0	0.0105623305
89	0x3c517b10	0.012785688
90	0x3cacdda7	0.021101786
91	0x3c0d17ab	0.0086116
92	0x3d8bdd80	0.06829357
93	0xb833e0ee	-4.2886408e-05
94	0x3d378d80	0.04481268
95	0xbd237e99	-0.039915655
96	0x3d0f76ce	0.03502541
97	0xbd225d57	-0.039639797
98	0x3d489349	0.048968587
99	0xbd3afbf3	-0.045650434
100	0x3c993217	0.018700643
101	0x3d86339c	0.065528125
102	0xbdcd8915	-0.10035912
103	0xbafe66a6	-0.0019409254
104	0xbb9b8b7c	-0.0047468524
105	0x3c9a4e33	0.018836116
106	0x3ac268aa	0.0014832218
107	0xbd72105a	-0.059097625
108	0x39bad500	0.00035635382
109	0x3cb19221	0.021676125
110	0xbdb833f6	-0.08994286
111	0xbc70744e	-0.014676167
112	0xbbc703fd	-0.0060734735
113	0xbc8cc401	-0.017183306
114	0xbcde2f78	-0.027122244
115	0xbc99846e	-0.018739905
116	0x3e086fe8	0.13323939
117	0x3d67849a	0.056522943
118	0x3a45e965	0.0007549732
119	0xbbf4fc35	-0.0074763545
120	0xbde5995a	-0.1121089
121	0x3d958cb1	0.073022254
122	0xbd1ea7cd	-0.038734246
123	0x3d6d13d9	0.057880256
124	0x3d86a5a5	0.06574563
125	0xbd16eca0	-0.036846757
126	0xbb681727	-0.003541419
127	0x3b1c168b	0.0023817148
