multi_agent/checkpoints/Multi_checkpoint_actor_30_20_local_2500_run3.pth (torch, 29087 bytes, 4 tensors)

fc1.weight f4 [256, 24]
0.13415511 0.6801453 -0.16500804 0.029151844 0.01721128 -0.14108032 -0.16413102 -0.021765307
0.22727168 0.51242656 0.19390045 -0.28488985 0.13036998 0.10999562 0.20820297 -0.30904675
0.14314826 0.47854537 0.041665874 -0.15895669 0.25233972 0.4307597 0.021908764 -0.10037168
-0.28941453 0.3273946 0.02709242 -0.26158014 -0.050330307 -0.12034646 -0.07522572 -0.20833552
-0.36237144 0.23595752 0.07775432 -0.24441275 0.14039987 -0.118583344 0.13123965 -0.30385807
-0.24953875 0.50814945 0.054019496 -0.08832036 0.41460744 -0.23556846 0.09027313 -0.022448054
0.3859002 0.02701199 0.04759397 0.18961084 -0.05602187 -0.40093505 -0.029701475 0.20019853
0.32110155 0.029912889 0.030278236 0.06291301 -0.13425863 -0.3520324 -0.06151148 0.050326418
0.2129326 0.040977687 0.010789429 -0.04316563 -0.09517696 -0.32454672 -0.0041664387 -0.0885231
-0.030533392 -0.53807616 0.1307351 -0.15321821 -0.15572067 -0.18242165 0.15717936 -0.13708034
0.019795936 -0.5172791 0.14035653 -0.42471057 -0.20216566 -0.3590483 0.14106728 -0.39242283
-0.21553867 -0.6188842 0.02793143 -0.1862548 -0.2234848 -0.3177488 0.08202534 -0.11017204
-0.013322964 -0.015234247 -0.03925617 -0.0047698617 -0.05719561 0.042245492 0.053913817 0.016669184
0.05911038 0.0314816 0.04142966 0.057726823 -0.04297085 -0.004903406 0.02348034 -0.016729273
-0.044335008 -0.01962459 -0.030982502 -0.021920852 -0.04761245 -0.018852979 0.03581156 -0.02743163
-0.045131925 -0.60968226 -0.004300657 0.08321119 0.030203052 0.19080125 0.062287644 0.08766468
-0.09593325 -0.5807555 0.19055416 0.0015974755 -0.12787563 0.1602376 0.20627941 -0.0056020063
-0.022356974 -0.5245846 0.15180628 -0.068541 -0.31832418 0.14512739 0.23171553 -0.06145516
-0.21916392 -0.13176993 -0.05416108 0.34944952 -0.026354408 0.5691714 -0.021827532 0.29975086
-0.13316675 -0.09838301 0.106291115 0.009366 -0.12834367 0.6694244 0.12291788 0.044697933
0.17341001 0.059942156 0.12666152 -0.24994043 -0.34895816 0.30750415 0.17006911 -0.23557647
-0.09432929 -0.33964372 0.07164892 0.0881545 -0.3595763 -0.8693378 0.039233238 0.055778056
-0.13087139 -0.3817438 0.03342033 0.13805889 -0.3391476 -1.3479732 0.06326761 0.2183774
-0.21966983 -0.28819343 0.2656954 0.41120002 -0.15154321 -1.4264013 0.25130928 0.39760458
-0.030357486 -0.040807974 0.11438032 0.3131042 -0.033933636 0.4352875 0.01035151 0.28981823
0.03430006 -0.14425038 -0.0024493183 0.2350758 -0.10207073 0.6594607 0.04666647 0.25593227
0.013164315 -0.19020815 0.034800258 0.041881047 -0.30769056 0.6172476 0.0062868507 0.12370467
-0.03983563 -0.35311934 -0.10902243 0.0046929144 -0.035601918 0.32497314 0.0043528695 -0.0024526976
-0.07285002 -0.5022512 0.08405774 -0.12924586 -0.27074403 0.406897 0.048499636 -0.2004979
-0.10766699 -0.27573612 0.23865202 -0.038061902 -0.39714125 0.33650813 0.269363 -0.028151484
-0.5671834 -0.2707476 0.025279399 -0.2301215 0.057223637 -0.4209115 0.0045410567 -0.23862904
-0.4675754 -0.27681664 0.019614156 -0.23137254 0.105698064 -0.609958 -0.027553048 -0.28430223
00000000: f55f 093e 011e 2e3f def7 28be d9cf ee3c
00000010: acfe 8c3c 5c77 10be f611 28be 284d b2bc
00000020: e8b9 683e 632e 033f d78d 463e 15dd 91be
00000030: b57f 053e 6245 e13d 2933 553e 603b 9ebe
00000040: 7595 123e e603 f53e d6a9 2a3d 8bc5 22be
00000050: ac32 813e 898c dc3e 027a b33c ab8f cdbd
00000060: 242e 94be 44a0 a73e ecf0 dd3c d5ed 85be
00000070: 2727 4ebd 3478 f6bd f10f 9abd e855 55be
00000080: c088 b9be d99e 713e a83d 9f3d 5647 7abe
00000090: fcc4 0f3e d3db f2bd b063 063e 4993 9bbe
000000a0: 1687 7fbe 1516 023f 8c43 5d3d 4ee1 b4bd
000000b0: 6d47 d43e dc38 71be 1ee1 b83d fbe4 b7bc
000000c0: b694 c53e 4048 dd3c e5f1 423d 5829 423e
000000d0: 3077 65bd 5c47 cdbe 8250 f3bc d800 4d3e
000000e0: 6c67 a43e e00b f53c 100a f83c 89d8 803d
000000f0: 187b 09be 973d b4be 76f3 7bbd 1323 4e3d
00000100: 010b 5a3e 38d8 273d 25c6 303c 72ce 30bd
00000110: 23ec c2bd fd2a a6be 9f86 88bb 994b b5bd
00000120: 2a21 fabc 5cbf 09bf 6cdf 053e 3ce5 1cbe
00000130: 3d75 1fbe becc 3abe a0f3 203e ca5e 0cbe
00000140: 162b a23c 676c 04bf 9fb9 0f3e aa73 d9be
00000150: 8404 4fbe 2ed5 b7be f173 103e a5eb c8be
00000160: 2bb6 5cbe 326f 1ebf 74d0 e43c 94b9 3ebe
00000170: 33d9 64be f9af a2be e7fc a73d e1a1 e1bd
00000180: 9048 5abc 1099 79bc 14cb 20bd 804c 9cbb
00000190: f245 6abd 9c09 2d3d bcd4 5c3d d08d 883c
000001a0: ba1d 723d daf2 003d 26b2 293d f672 6c3d
000001b0: 3402 30bd c0ac a0bb d859 c03c d40b 89bc
000001c0: a098 35bd c0c3 a0bc 04cf fdbc 5c93 b3bc
000001d0: 4605 43bd 9071 9abc 24af 123d 4cb8 e0bc
000001e0: 41dc 38bd 2314 1cbf 87ec 8cbb a16a aa3d
000001f0: 646c f73c 6761 433e 5421 7f3d 8a89 b33d
00000200: a778 c4bd 64ac 14bf a120 433e 6262 d13a
00000210: d4f1 02be 5315 243e e93a 533e 0991 b7bb
00000220: f925 b7bc 2d4b 06bf 1b73 1b3e 395f 8cbd
00000230: 63fb a2be 469c 143e d646 6d3e 68b8 7bbd
00000240: 826c 60be b2ee 06be 02d8 5dbd 0ceb b23e
00000250: 33e5 d7bc 38b5 113f a7cf b2bc f278 993e
00000260: dd5c 08be 087d c9bd 28af d93d da73 193c
00000270: 866c 03be 665f 2b3f 5fbc fb3d 2e15 373d
00000280: 6592 313e e885 753d 8fb3 013e 62f0 7fbe
00000290: a5aa b2be 2f71 9d3e 9926 2e3e f53a 71be
000002a0: b72f c1bd c8e5 adbe abbc 923d 598a b43d
000002b0: 631a b8be ec8c 5ebf 08b3 203d 8877 643d
000002c0: 2603 06be ec73 c3be c2e3 083d 4f5f 0d3e
000002d0: c1a4 adbe 638a acbf 7392 813d 539e 5f3e
000002e0: 21f1 60be 178e 93be 3a09 883e cf88 d23e
000002f0: 252e 1bbe 5194 b6bf 9cab 803e d492 cb3e
00000300: 43b0 f8bc 4326 27bd 3b40 ea3d 324f a03e
00000310: fffd 0abd 01de de3e 6199 293c 0e63 943e
00000320: 387e 0c3d 5fb6 13be be84 20bb b6b7 703e
00000330: 750a d1bd 6bd2 283f 5725 3f3d 8e09 833e
00000340: 24af 573c edc5 42be b78a 0e3d 768b 2b3d
00000350: 9e89 9dbe f003 1e3f ed01 ce3b e058 fd3d
00000360: b02a 23bd 0fcc b4be 2747 dfbd 05c7 993b
00000370: 51d3 11bd e162 a63e 84a2 8e3b 70bd 20bb
00000380: 6432 95bd 8993 00bf 7726 ac3d 0759 04be
00000390: f69e 8abe ce54 d03e 8ea7 463d 524f 4dbe
000003a0: 8380 dcbd 492d 8dbe 3261 743e cce6 1bbd
000003b0: 1956 cbbe cb4a ac3e f2e9 893e f19d e6bc
000003c0: ee32 11bf 6e9f 8abe be16 cf3c f8a4 6bbe
000003d0: 5563 6a3d b681 d7be 25cd 943b 2c5b 74be
000003e0: 0b66 efbe e9ba 8dbe dead a03c ecec 6cbe
000003f0: 3a78 d83d 3526 1cbf eeb6 e1bc 1090 91be

fc1.bias f4 [256]
0.0027317763 0.09883962 -0.23804171 0.1679815 -0.20286594 0.027478969 0.1801413 0.108454324
0.17097287 0.059054784 0.010605596 0.068298504 0.091492526 0.14938863 0.24344814 0.13025078
0.07602589 -0.028704561 -0.18517324 0.16947128 -0.08769761 0.12528118 -0.04182004 -0.049433332
0.20757087 0.11494989 -0.15977043 0.0523734 0.078461416 -0.082353495 0.03462894 0.09419237
0.0513329 0.11099377 0.113119796 0.2499175 -0.10717093 0.13187276 -0.14666751 -0.13750269
-0.2597954 0.10771265 -0.013203629 -0.19769435 -0.06103087 0.10760323 -0.14293225 0.035751805
-0.15767367 0.04591275 -0.10465548 0.22393529 -0.15109074 0.12592001 0.24779174 0.13022293
0.12328383 0.20341223 0.104977734 0.07330947 -0.1533143 -0.05801872 -0.15947445 0.09115046
-0.024625642 0.05299481 -0.26040837 0.031083604 -0.1213963 -0.15411784 0.16765474 -0.3209005
0.08984442 0.01349248 -0.20303363 -0.20402347 0.0015041962 0.12786554 0.04278025 0.058396097
-0.017068947 -0.0025432964 -0.10131979 0.24436203 -0.19873302 -0.044853315 -0.017394254 0.12753868
-0.15794037 0.044167098 -0.053120475 0.18520886 0.06316379 -0.05749287 0.28224966 -0.12020107
0.17108822 0.22280195 -0.050336327 0.005740516 0.034214947 0.16897842 0.007823136 0.21365955
0.07202375 0.051342655 0.09506837 0.19832687 -0.18835245 0.047458872 0.29885682 0.0564067
0.101539336 0.20261216 0.29529664 0.32033437 -0.16202514 -0.15482181 0.006097053 0.1628096
0.2597295 0.14329627 0.20732212 -0.26757285 0.15671474 0.14565392 0.24881911 0.038513955
-0.22941096 0.12833089 0.18844524 0.1691259 0.031269055 0.016333623 0.170237 0.080015786
-0.16275537 0.081834726 0.12819259 0.1509819 -0.18842216 0.15068643 0.26460734 0.0659478
0.12760435 -0.23780553 -0.19353828 0.11328674 -0.07044816 -0.2962447 0.12908539 0.13233384
-0.21596292 0.2319184 0.08602924 0.051469684 0.02384844 -0.25343907 0.1604214 0.19079486
0.21779762 -0.06989539 0.045926895 0.14331934 0.089393795 -0.065179005 0.041830227 0.08806444
0.111068256 0.2391982 0.09599437 0.016906986 -0.13559967 -0.19575037 0.077333435 -0.041820135
0.11099447 -0.12281299 0.2562054 0.031668622 -0.17644697 -0.10910193 0.10277048 0.053289328
0.118310355 -0.18189012 -0.13659844 -0.041263584 0.25724658 0.15066059 0.14105454 0.12759236
0.30586183 0.10320754 0.08389882 0.28230664 0.2862074 0.30651397 0.2327981 0.090032116
0.26110518 0.07626699 -0.17210558 -0.120578215 -0.18537052 0.053775188 0.06993676 0.12554643
-0.18772796 -0.13275456 0.28586105 0.3034625 -0.07368307 0.059447665 0.03462431 -0.18581027
-0.09367028 0.13159502 -0.19106573 -0.18824859 -0.041822296 0.11976885 -0.020840984 0.18172483
0.122200295 0.08038065 0.045634292 -0.09039704 0.09669836 -0.1682415 0.032725964 0.0893317
-0.1591219 0.21987066 -0.18005015 0.087893724 0.16102517 -0.06327176 0.1286945 -0.0882045
0.008816719 0.076388635 -0.25920498 0.012137449 0.2470619 0.2969925 0.21704312 -0.17564861
0.0053697857 0.00888437 -0.034893397 0.13438958 0.046809353 0.040416688 0.19590229 0.25223798
00000000: 9a07 333b 6d6c ca3d 35c1 73be 5803 2c3e
00000010: 17bc 4fbe 931b e13c f676 383e 4d1d de3d
00000020: 8313 2f3e 6ee3 713d 18c3 2d3c 16e0 8b3d
00000030: 6f60 bb3d 55f9 183e 784a 793e 7660 053e
00000040: 76b3 9b3d d425 ebbc 0e9e 3dbe e189 2d3e
00000050: ce9a b3bd b649 003e 7e4b 2bbd 9b7a 4abd
00000060: 758d 543e d96a eb3d dc9a 23be 7e85 563d
00000070: 61b0 a03d f3a8 a8bd 13d7 0d3d eee7 c03d
00000080: 7242 523d b450 e33d 5aab e73d 60ea 7f3e
00000090: 6f7c dbbd a709 073e 0230 16be 81cd 0cbe
000000a0: e703 85be 7398 dc3d 0954 58bc 6370 4abe
000000b0: 81fb 79bd 155f dc3d d55c 12be 7c70 123d
000000c0: 3575 21be 020f 3c3d 9d55 d6bd 4b4f 653e
000000d0: 88b7 1abe 2df1 003e 1ebd 7d3e 2959 053e
000000e0: 3c7c fc3d 4c4b 503e 91fe d63d 4723 963d
000000f0: 6dfe 1cbe 0aa5 6dbd 454d 23be 18ad ba3d
00000100: b7bb c9bc 1611 593d 3f54 85be 0ba3 fe3c
00000110: a09e f8bd 11d1 1dbe afad 2b3e 124d a4be
00000120: 5a00 b83d 900f 5d3c 0ce8 4fbe 87eb 50be
00000130: 7328 c53a 2fef 023e 583a 2f3d bf30 6f3d
00000140: 2dd4 8bbc 6fad 26bb c080 cfbd 0a3a 7a3e
00000150: ab80 4bbe 1cb8 37bd 657e 8ebc 8099 023e
00000160: 1fbb 21be 8fe8 343d db94 59bd 64a7 3d3e
00000170: 045c 813d a57d 6bbd 0783 903e fb2b f6bd
00000180: c031 2f3e 3226 643e 772d 4ebd f01a bc3b
00000190: f924 0c3d ae08 2d3e 9c2c 003c 92c9 5a3e
000001a0: 3081 933d ad4c 523d 35b3 c23d 3316 4b3e
000001b0: 77df 40be 3c64 423d c303 993e b60a 673d
000001c0: dbf3 cf3d 9079 4f3e 1f31 973e de02 a43e
000001d0: ebe9 25be 9c89 1ebe cac9 c73b 8fb7 263e
000001e0: 44fb 843e 42bc 123e 404c 543e 4fff 88be
000001f0: d479 203e 4d26 153e 70ca 7e3e cfc0 1d3d
00000200: b5ea 6abe 2c69 033e caf7 403e 572f 2d3e
00000210: fb13 003d 17ce 853c 9c52 2e3e 51df a33d
00000220: 58a9 26be f798 a73d eb44 033e 009b 1a3e
00000230: bdf1 40be 8b4d 1a3e 9d7a 873e a40f 873d
00000240: b7aa 023e 4b83 73be e62e 46be e102 e83d
00000250: 2047 90bd 63ad 97be f62e 043e 8682 073e
00000260: 6225 5dbe 047c 6d3e 1930 b03d e0d1 523d
00000270: ce5d c33c c4c2 81be 8245 243e ba5f 433e
00000280: 5706 5f3e 5025 8fbd d71d 3c3d 4ec2 123e
00000290: 1814 b73d 927c 85bd 2c56 2b3d 215b b43d
000002a0: c177 e33d 5ff0 743e b298 c43d 8580 8a3c
000002b0: a4da 0abe c972 48be fe60 9e3d 974b 2bbd
000002c0: 1251 e33d 6085 fbbd 5b2d 833e f5b6 013d
000002d0: 84ae 34be d570 dfbd 5479 d23d e945 5a3d
000002e0: b34c f23d 6741 3abe 76e0 0bbe 0104 29bd
000002f0: d3b5 833e c546 1a3e 9a70 103e 92a7 023e
00000300: ec99 9c3e 7a5e d33d 25d3 ab3d 7f8a 903e
00000310: c789 923e 66ef 9c3e a062 6e3e c262 b83d
00000320: 94af 853e de31 9c3d 723c 30be b6f1 f6bd
00000330: c5d1 3dbe 5f43 5c3d 013b 8f3d 3e8f 003e
00000340: c23b 40be d0f0 07be 615c 923e 705f 9b3e
00000350: 26e7 96bd 657f 733d 38d2 0d3d 0c45 3ebe
00000360: 34d6 bfbd d8c0 063e bca6 43be 3dc4 40be
00000370: db4d 2bbd 5f49 f53d b6ba aabc 1316 3a3e
00000380: 2644 fa3d 9c9e a43d 06eb 3a3d 1522 b9bd
00000390: ca09 c63d 8047 2cbe a90b 063d 8af3 b63d
000003a0: daf0 22be c625 613e 115f 38be a001 b43d
000003b0: c8e3 243e a094 81bd 7ec8 033e 90a4 b4bd
000003c0: 0074 103c a571 9c3d 84b6 84be 27dc 463c
000003d0: cbfd 7c3e 670f 983e 8d40 5e3e 3bdd 33be
000003e0: 07f5 af3b c08f 113c 61ec 0ebd 6c9d 093e
000003f0: 2abb 3f3d f88b 253d 9c9a 483e 5625 813e

fc2.weight f4 [2, 256]
0.45515943 0.28760934 -0.03477898 0.042470347 0.0019055777 -0.23912387 -0.23753558 0.61245626
-0.39129204 -0.1610621 0.36065558 -0.040466525 0.22583039 0.24399976 -0.103311725 -0.48216
0.24059914 -0.37978637 0.0014708312 0.317495 -0.50322485 0.5275825 -0.75427896 -0.38648048
-0.4055525 0.23710506 0.00081597664 -0.21782072 -0.20843692 -0.05734358 -0.15505119 0.20426618
-0.5195914 0.25258696 -0.28124836 -0.03189443 0.11582998 0.3533974 0.002854437 -0.44836402
0.574744 -0.439845 -0.34393695 -0.001644127 -0.037500553 0.5247513 0.0025650626 -0.22006515
-0.0019507875 -0.8630808 -0.5708911 -0.41310897 0.00018995372 -0.65734184 0.13263994 0.24379204
0.21695817 -0.082308285 -0.37305698 0.19627605 0.00014903792 -0.13046692 -0.00012714812 0.44266325
-0.4644299 0.45383155 0.36271128 -0.639413 0.0011738855 -0.69506025 -0.40911067 0.3045933
-0.32076785 0.11047659 -0.00038800505 0.0022344892 0.3498053 0.35114425 -0.418391 0.22973765
-0.3430209 0.31112432 -0.5396926 -0.27937227 8.223578e-06 -0.27189666 0.72194165 0.24407978
0.0006123858 -0.4493754 -0.2907707 -0.4308062 -0.23107883 -1.1437159 -0.077656165 -0.43227035
-0.030728778 0.5391316 -0.56048787 0.4849631 0.4192468 0.28678584 -0.26914704 -0.014651107
0.24960867 0.6324939 -0.47295025 0.065658286 0.3080824 0.7379363 -0.08621489 0.5513166
0.3408014 -0.08535186 -0.35623664 -0.09659851 0.00049192435 -0.00018827687 0.28182516 -0.17038521
-0.076390244 0.17020565 -0.50191253 -0.049363095 0.15897115 0.4182321 -0.072362974 0.37794694
0.38530812 -0.060065832 0.21376099 0.20429312 -0.29786515 0.21550576 0.22558506 0.47714373
-0.65859157 -0.32516244 0.2388466 0.2919946 0.21724848 0.393619 -0.07104239 0.50299597
-0.22505763 -0.90752786 -0.78550434 0.3755755 0.32269698 0.3448225 0.29722926 0.17395602
0.022608126 0.33012933 0.65574956 0.668658 -1.0134296 -0.07258912 0.011681558 -0.08357245
0.25102904 0.70770514 -0.25418574 -0.038120843 0.45379505 -0.35233763 0.35335314 -0.24231985
0.6320019 -0.10495426 0.4036635 -0.92545867 0.018006409 0.0010388861 0.041933697 -0.33065137
0.24655002 0.18784134 -0.3861785 -0.88058364 0.0013191095 -0.6938187 0.53852695 0.63529927
-0.6684597 0.3235946 -0.80547464 -1.0134946 -0.24319819 0.3848887 0.14843394 -0.14360762
-0.069711246 -1.0021504 -0.20944567 -0.06404142 -0.041596122 -0.06048655 -0.4286345 0.48377544
-0.028332995 0.23779646 -0.0001407587 -0.00087697105 -0.00042130752 -0.20398267 0.27270147 0.4566121
-0.0011033417 0.0009182426 -0.06492624 -0.26760742 -0.2936703 0.50613105 -0.44032565 0.8877061
-0.00079987687 0.4566163 0.002178214 -0.0017300688 0.41031164 0.4952255 -0.103024274 -0.26894847
0.13111481 0.27063316 0.5470718 0.519655 0.6299555 -0.0019976608 -0.11538291 -0.39854935
-0.002320399 -0.27371848 -0.002755147 -0.013610349 0.40936664 0.052364245 -0.20949282 1.1598753
-0.07483884 0.09047025 -0.08940152 0.22128822 -0.08278163 -0.08316078 -0.19933206 -0.4477495
-0.2806405 0.30528623 -0.9009691 0.30667603 0.77448946 -0.448918 -0.47756967 -0.061701544
00000000: a80a e93e 8841 933e 6774 0ebd 63f5 2d3d
00000010: 94c4 f93a e3dc 74be 873c 73be efc9 1c3f
00000020: 6e57 c8be 77ed 24be d9a7 b83e 3ac0 25bd
00000030: 1540 673e 13db 793e 1995 d3bd addd f6be
00000040: 9f5f 763e 5c73 c2be e8c8 c03a b48e a23e
00000050: 58d3 00bf a60f 073f 6d18 41bf c5e0 c5be
00000060: 94a4 cfbe abcb 723e 44e7 553a 650c 5fbe
00000070: 7d70 55be 1ae1 6abd bdc5 1ebe 272b 513e
00000080: f103 05bf 1453 813e c9ff 8fbe bca3 02bd
00000090: 4538 ed3d 81f0 b43e 8211 3b3b f88f e5be
000000a0: 6c22 133f 5d33 e1be 8118 b0be bf7f d7ba
000000b0: 2e9a 19bd 1a56 063f 9c1a 283b c258 61be
000000c0: 91b1 ffba ddf2 5cbf eb25 12bf 0583 d3be
000000d0: 502e 4739 8e47 28bf c4d2 073e 9fa4 793e
000000e0: 482a 5e3e 3f91 a8bd 5301 bfbe 97fc 483e
000000f0: 1047 1c39 1f99 05be 1053 05b9 c2a4 e23e
00000100: c1c9 edbe 9c5c e83e 4bb5 b93e 92b0 23bf
00000110: 10dd 993a 78ef 31bf f476 d1be a7f3 9b3e
00000120: af3b a4be 8d41 e23d 286d cbb9 8270 123b
00000130: ae19 b33e 2ec9 b33e 5837 d6be 5940 6b3e
00000140: 6fa0 afbe b04b 9f3e 4b29 0abf e209 8fbe
00000150: 00f8 0937 0a36 8bbe 2bd1 383f 0df0 793e
00000160: 8488 203a 8814 e6be e6df 94be a192 dcbe
00000170: ee9f 6cbe 4865 92bf 320a 9fbd 8a52 ddbe
00000180: ebba fbbc 8704 0a3f 227c 0fbf 154d f83e
00000190: 84a7 d63e 98d5 923e a4cd 89be 320b 70bc
000001a0: 6a99 7f3e 1feb 213f 8926 f2be da77 863d
000001b0: fabc 9d3e 65e9 3c3f 6f91 b0bd 1623 0d3f
000001c0: 857d ae3e f5cc aebd a664 b6be 71d5 c5bd
000001d0: 7cf4 003a 306c 45b9 634b 903e 7679 2ebe
000001e0: 7d72 9cbd 644a 2e3e 577d 00bf f530 4abd
000001f0: 55c9 223e 8522 d63e 0a33 94bd 4382 c13e
00000200: 1b47 c53e 9707 76bd 29e4 5a3e 3732 513e
00000210: c881 98be 8bad 5c3e c5ff 663e 2f4c f43e
00000220: 7599 28bf b17b a6be 3494 743e 5180 953e
00000230: 6376 5e3e 6e88 c93e ac7e 91bd 58c4 003f
00000240: 8275 66be bf53 68bf d016 49bf 6f4b c03e
00000250: 8a38 a53e 938c b03e 6f2e 983e 8721 323e
00000260: ad34 b93c b606 a93e 34df 273f 2c2d 2b3f
00000270: 10b8 81bf 9ba9 94bd 0164 3f3c 0828 abbd
00000280: e186 803e 2a2c 353f a224 82be 9a24 1cbd
00000290: d357 e83e 9965 b4be b4ea b43e b222 78be
000002a0: e0ca 213f 42f2 d6bd fbac ce3e dcea 6cbf
000002b0: 2d82 933c 3c2b 883a abc2 2b3d 234b a9be
000002c0: 9c77 7c3e 7b59 403e 30b9 c5be ee6d 61bf
000002d0: f8e5 ac3a 1a9e 31bf e7dc 093f f9a2 223f
000002e0: 2d20 2bbf 31ae a53e 9633 4ebf 31ba 81bf
000002f0: f208 79be 2210 c53e 11ff 173e e00d 13be
00000300: c5c4 8ebd 7746 80bf ed78 56be 2628 83bd
00000310: b260 2abd bfc0 77bd fb75 dbbe 6ab1 f73e
00000320: 991a e8bc ea80 733e a098 13b9 88e4 65ba
00000330: f0e2 dcb9 d5e0 50be 879f 8b3e 10c9 e93e
00000340: 019e 90ba 38b6 703a 0cf8 84bd d703 89be
00000350: f45b 96be ce91 013f 5d72 e1be b540 633f
00000360: d4ae 51ba 9dc9 e93e 5ec0 0e3b 7ac3 e2ba
00000370: 5e14 d23e 328e fd3e 64fe d2bd 9db3 89be
00000380: f642 063e 6e90 8a3e e60c 0c3f 1c08 053f
00000390: c344 213f 30eb 02bb e04d ecbd a90e ccbe
000003a0: d611 18bb d424 8cbe b28f 34bb f1fd 5ebc
000003b0: 8198 d13e e47b 563d 4985 56be cb76 943f
000003c0: 1b45 99bd 7748 b93d 2518 b7bd 6199 623e
000003d0: 6a89 a9bd 3350 aabd b41d 4cbe 6c3f e5be
000003e0: 1db0 8fbe 7a4e 9c3e e9a5 66bf a404 9d3e
000003f0: f144 463f 95d8 e5be 0384 f4be c2ba 7cbd

fc2.bias f4 [2]
-0.11681272 0.21921515
00000000: 823b efbd f079 603e
