multi_agent/checkpoints/Multi_checkpoint_actor_30_20_target_4000_run3.pth (torch, 29087 bytes, 4 tensors)

fc1.weight f4 [256, 24]
000000 08 9f e7 3d 77 cb 8e 3f 6b b2 83 be f9 8b 53 3e
       0.1130963 1.1155843 -0.2572206 0.20658864
000010 74 63 e3 3c 04 56 cc bc 78 3f 83 be d3 67 1f 3e
       0.027757384 -0.02494336 -0.2563436 0.1556695
000020 64 87 80 3d 67 ef 56 3f f1 09 c3 3d 09 2b 47 be
       0.06275824 0.8395905 0.095233805 -0.1945001
000030 1d 6c 54 3d 8a 3d 7a 3e b1 54 e0 3d b4 e0 5f be
       0.051860917 0.24437538 0.109536536 -0.21863061
000040 a9 f5 6d 3d 0c 81 5c 3f 2e b1 15 3e 35 b0 95 bd
       0.058095608 0.8613441 0.1461837 -0.073089994
000050 4b 80 a2 bd 7b 32 8a 3e e0 75 01 3e de a2 6d bc
       -0.07934626 0.2699164 0.12642622 -0.014504163
000060 3c ab 69 be dc 13 a2 3e 35 22 10 3c 43 75 a6 be
       -0.22819227 0.31655777 0.008797218 -0.3251134
000070 1a 6b 19 3d 04 b5 3a be 29 88 bf bd ab 32 8b be
       0.037455656 -0.18233114 -0.09352142 -0.27187094
000080 a0 65 cc be dd 66 cd 3d b0 30 71 3d cf 6a a7 be
       -0.39921284 0.10029385 0.058884323 -0.32698676
000090 0b b6 7d 3e 92 52 1b be 3f 22 e6 3d bc de c5 be
       0.24776475 -0.15168217 0.11237001 -0.38646495
0000a0 44 da 5f be be 7c e9 3e bf e6 88 3c 21 22 61 3d
       -0.21860605 0.45602983 0.01671159 0.05496419
0000b0 f3 59 b1 3e a8 46 1f bf d9 f1 58 3d 4f 7a f7 3d
       0.34638938 -0.6221719 0.05296502 0.120838754
0000c0 bb 94 c5 3e 37 47 dd 3c d8 f4 42 3d 9f 2d 42 3e
       0.38590035 0.027011497 0.047596782 0.18962716
0000d0 e5 78 65 bd 69 49 cd be ea 4f f3 bc 18 03 4d 3e
       -0.056023497 -0.4009507 -0.029701192 0.20020711
0000e0 87 64 a4 3e 53 09 f5 3c c5 0e f8 3c c0 da 80 3d
       0.32107946 0.029911673 0.03028048 0.06291723
0000f0 b8 7d 09 be 2c 3f b4 be e1 f2 7b bd 29 24 4e 3d
       -0.13426864 -0.35204446 -0.061510924 0.050327454
000100 14 0b 5a 3e 5a d7 27 3d 8a c4 30 3c 5a cc 30 bd
       0.21293288 0.04097686 0.010789046 -0.043163635
000110 08 ed c2 bd 90 2d a6 be 9f 87 88 bb cd 48 b5 bd
       -0.095178664 -0.32456636 -0.004166558 -0.08851776
000120 76 df 0c be 05 3a 05 bf fa ae 9b 3d bf 0c 55 3d
       -0.13757119 -0.52041656 0.076017335 0.05201411
000130 7b 79 05 bc 0b a3 33 3e 07 d8 d1 3d 13 93 8b 3d
       -0.008146639 0.17542665 0.10246282 0.068151616
000140 9a 2f 30 3d c7 30 a1 be 0a 19 cb 3d 57 ad c1 be
       0.043014146 -0.31482527 0.09916885 -0.3782756
000150 f1 b9 47 be 95 98 5e be 8a 8d cc 3d 58 22 b1 be
       -0.19504525 -0.21737893 0.09987934 -0.34596515
000160 9f 8b 93 be fa 98 00 bf e4 cf c5 3c 5a b7 d7 be
       -0.2881746 -0.50233424 0.024146982 -0.42132074
000170 f6 2c b3 bd bf d5 f9 3d 4d 3d a0 3d 90 c2 b0 be
       -0.0874881 0.12198972 0.07824192 -0.3452344
000180 90 48 5a bc 4f 99 79 bc 14 cb 20 bd 80 4c 9c bb
       -0.013322964 -0.0152343055 -0.03925617 -0.0047698617
000190 f2 45 6a bd 9c 09 2d 3d bc d4 5c 3d d0 8d 88 3c
       -0.05719561 0.042245492 0.053913817 0.016669184
0001a0 ba 1d 72 3d da f2 00 3d 26 b2 29 3d f6 72 6c 3d
       0.05911038 0.0314816 0.04142966 0.057726823
0001b0 34 02 30 bd c0 ac a0 bb d8 59 c0 3c d4 0b 89 bc
       -0.04297085 -0.004903406 0.02348034 -0.016729273
0001c0 a0 98 35 bd c0 c3 a0 bc 73 cf fd bc 5c 93 b3 bc
       -0.044335008 -0.01962459 -0.030982709 -0.021920852
0001d0 46 05 43 bd 9f 71 9a bc 24 af 12 3d 4c b8 e0 bc
       -0.04761245 -0.018853007 0.03581156 -0.02743163
0001e0 d0 7a c1 3d 6a 76 12 bf 34 cd 42 3d be 4e e8 bc
       0.09447253 -0.57211936 0.04755898 -0.02835786
0001f0 64 ec f2 3c 04 ab ed 3d 5a c6 e9 3d f5 d2 c3 bc
       0.029653735 0.11604884 0.11414786 -0.023904303
000200 ce f8 a1 3d 41 46 02 bf a6 90 3a 3e f8 16 9b bd
       0.07908784 -0.5088845 0.18219241 -0.0757274
000210 05 23 51 be b1 c9 9e 3e 0b ab 4a 3e c6 dc a9 bd
       -0.20423515 0.31013253 0.1979181 -0.08294062
000220 8f 97 a1 3d 55 a5 08 bf 4a 73 b3 3d ea bc ef bd
       0.07890236 -0.53377277 0.08762224 -0.117059544
000230 3c f9 ad be b3 2b 20 3f c3 8d 2b 3e d4 39 e1 bd
       -0.33979213 0.6256668 0.16753297 -0.10997358
000240 eb 1e 31 be 0d ee 55 be d1 aa a9 bd 1c b6 a7 3e
       -0.1729695 -0.2089159 -0.08284534 0.32756126
000250 02 7b 52 bd ad 41 c8 3d bc e4 4e bd 24 44 8e 3e
       -0.05138684 0.09778152 -0.050511107 0.27786362
000260 83 11 da bd 2b b4 3a be 6c cb de 3d af d0 5d 3e
       -0.10647871 -0.18232791 0.108786434 0.21661638
000270 d8 84 cc bd 0d 98 ec 3e 1a 6c 00 3e 2f 11 81 3e
       -0.099862754 0.46209756 0.12541237 0.25208423
000280 35 8d 69 3e ce 5c 06 bd ea 1e 38 3e c9 7b 89 be
       0.22807772 -0.03280335 0.17980543 -0.26852253
000290 cd a7 af be ef f8 91 3e 15 92 64 3e 2b 21 82 be
       -0.3430771 0.28510234 0.22321351 -0.2541593
0002a0 33 56 c5 bd b3 49 81 be 6e 80 9a 3c a7 70 81 3e
       -0.09635582 -0.2525154 0.018860068 0.2528126
0002b0 d3 5e c7 be 5c 31 fa be 29 1a 5e bc f0 b9 61 3e
       -0.38939533 -0.48865783 -0.013556042 0.22043586
0002c0 ca b7 ff bd 4b 7e 86 be 16 23 5c bc 99 83 a7 3e
       -0.12486227 -0.2626823 -0.0134360995 0.3271759
0002d0 9b 0c c4 be 74 2d 9d bf 77 71 86 3c b3 a9 d0 3e
       -0.38290867 -1.2279496 0.016411526 0.4075447
0002e0 8e 82 83 be f8 53 0f be 06 ce 5d 3e f5 0a 6a 3f
       -0.25685543 -0.13996875 0.21660623 0.9142297
0002f0 79 98 0b be 18 45 b4 bf 8b 12 4f 3e 01 90 66 3f
       -0.13632382 -1.4083586 0.20221917 0.9006348
000300 de 4a 43 3d 7c 1c 9d bd 43 70 f8 3d 18 db 5d 3e
       0.04767882 -0.076714486 0.12130787 0.21665609
000310 07 3f 87 bd 48 8c 58 3d 21 8e 8d 3c 84 02 46 3e
       -0.066038184 0.052868158 0.017279686 0.19336897
000320 32 37 c6 3d c6 1d 54 be db fd 77 3d 86 09 91 3e
       0.096784964 -0.20714483 0.06054483 0.28327578
000330 d1 5d 80 bd 77 4e 2b 3f 8e 96 e0 3d 23 bb 9b 3e
       -0.06267894 0.669166 0.10966216 0.3041621
000340 4f 0d e6 3d 78 e9 89 be 14 23 3a 3d f5 28 0f be
       0.11233007 -0.26935935 0.04544361 -0.13980468
000350 d5 4c 9d be 80 e6 51 3f 4d b1 8a 3c 8c 80 6d bd
       -0.3072268 0.8199234 0.016930247 -0.05798392
000360 e0 85 43 3c f3 67 60 be 48 16 b2 bd e2 f7 35 3b
       0.011933774 -0.21914653 -0.08695656 0.0027766158
000370 13 54 6b bd ab d7 f5 3d 85 70 d8 3c 89 2c 8f bb
       -0.057453226 0.12004026 0.026420841 -0.0043693227
000380 ed 0f 3e 3d 35 51 9f be 84 ce 18 3e 4a d1 28 be
       0.046401907 -0.31116644 0.1492253 -0.16486087
000390 1b 3b 9f be 53 69 c4 3e c1 c9 e8 3d 37 cd 71 be
       -0.3109978 0.38361606 0.113666065 -0.2361344
0003a0 af 1d 35 bd 3a 92 2d be f4 db 65 3e 0e 6c 18 be
       -0.04421776 -0.16950312 0.22447187 -0.1488497
0003b0 17 df 9e be 4a 6e 36 3f 43 a8 82 3e 27 46 0e be
       -0.3102958 0.7126204 0.25518999 -0.13893948
0003c0 ff d5 27 bf 2f a3 a5 be b8 47 9c bd 20 8f bf bd
       -0.6556091 -0.32351062 -0.07630867 -0.09353471
0003d0 47 47 2a 3e 45 84 d9 3c c2 c0 c6 bd b0 fb d0 bd
       0.16628753 0.026552329 -0.097047344 -0.102042556
0003e0 04 da 01 bf 03 e3 7a be 73 51 64 3c 7b 21 46 be
       -0.5072329 -0.2450066 0.013935435 -0.1934871
0003f0 bc 5f ed 3d 5d 4a e5 be 69 1e 08 bd 44 5a 7c be
       0.115905255 -0.44783297 -0.033232126 -0.24643809

fc1.bias f4 [256]
000000 33 1d ac bb 80 92 f9 3d 32 c1 73 be e3 be 41 3e
       -0.0052525043 0.12186146 -0.23804167 0.18920474
000010 17 bc 4f be 98 e4 c9 bd a6 f2 39 3e 73 74 d2 3d
       -0.20286594 -0.09858054 0.1815897 0.10276117
000020 14 e6 27 3e ae a7 1c bd a1 93 66 3d c3 54 97 bd
       0.16396362 -0.03824585 0.056293134 -0.07389214
000030 b8 7f 11 3e 32 02 be 3e 31 47 5a 3e 49 0d 45 3e
       0.14208877 0.3711105 0.2131622 0.19243349
000040 77 8f 62 3e a4 68 a0 be 0e 9e 3d be 0e 40 52 3e
       0.2212504 -0.31329834 -0.18517324 0.20532247
000050 c8 1a 49 be 4a 82 15 3e 86 90 c3 bc 8a 63 69 bd
       -0.19639122 0.14600483 -0.023872625 -0.056979693
000060 fa 19 62 3e 1a de 15 3e dc 9a 23 be f9 96 a8 3d
       0.22080222 0.14635506 -0.15977043 0.08231921
000070 2e 87 9a 3b fe 29 9a be 3a 0c 00 3e a6 69 e8 3d
       0.0047158217 -0.30110162 0.12504664 0.11348276
000080 f5 f9 74 3c c6 5a 0e 3e 63 9c d0 3d c3 80 61 3e
       0.0149521725 0.13901815 0.101860784 0.22021775
000090 44 42 eb bd 31 e4 a1 3d 02 30 16 be 43 99 34 be
       -0.114872485 0.07904852 -0.14666751 -0.1763659
0000a0 23 2d 94 be 14 a0 13 3e 5e 4a ae be 63 70 4a be
       -0.28940687 0.14416534 -0.34041113 -0.19769435
0000b0 d5 e3 b4 be 76 d2 0f 3e d5 5c 12 be 94 63 e1 3d
       -0.35330072 0.14045128 -0.14293225 0.11005321
0000c0 35 75 21 be 62 77 02 3e ab d5 0d be 61 d9 6f 3e
       -0.15767367 0.12740853 -0.13851039 0.23422767
0000d0 ef b7 1a be 40 5c 46 3e 8c fc 5f 3e b5 41 17 3e
       -0.15109228 0.19371128 0.21873683 0.14771159
0000e0 64 ac e5 3d e1 05 37 3e 5a ca 24 3e 98 c5 91 3d
       0.112145215 0.17873336 0.16092816 0.07117766
0000f0 6d fe 1c be e6 0e 89 bd 45 4d 23 be b8 73 0e 3e
       -0.1533143 -0.06692295 -0.15947445 0.1391133
000100 45 86 c7 bd 2f ba 8a 3d 7f f2 80 be 22 f2 ed 3d
       -0.09742407 0.06773793 -0.2518501 0.11618449
000110 4e 9f f8 bd e0 bb 9f be c8 c3 26 3e 3d 9e b2 be
       -0.1213976 -0.31198025 0.16285622 -0.3488635
000120 eb 7d 48 3e 6f 7f 8e bb 0c e8 4f be 87 eb 50 be
       0.19579284 -0.0043486874 -0.20303363 -0.20402347
000130 0c 8c 41 3d 90 da ed 3d 17 cd 1d bd 2c ac b5 3d
       0.0472527 0.11613953 -0.038525667 0.0887073
000140 86 29 a5 bb 44 56 00 3e 34 58 9e be 8a 41 50 3e
       -0.0050403504 0.12532908 -0.3092667 0.20337501
000150 ab 80 4b be 07 89 f5 bd f6 5a 85 bd b8 6c 4b 3e
       -0.19873302 -0.119890265 -0.0651149 0.19865692
000160 1f bb 21 be 1f 0c ce 3c 83 63 5f be 25 e7 b5 bb
       -0.15794037 0.025152264 -0.21815304 -0.005551236
000170 3e 14 a5 3d d7 89 5a be 07 05 81 3e 08 ab 0a be
       0.080605015 -0.21341644 0.25199148 -0.13541806
000180 5f fa 18 3e 7d c5 54 3e 80 1d e1 bb 8d 2b 7d bc
       0.14939259 0.20778461 -0.0068699718 -0.015452278
000190 20 25 a9 3d 45 7b 3e 3e 76 54 c1 bd bd c3 44 3e
       0.08259034 0.18601711 -0.09439938 0.19215293
0001a0 44 18 c4 3d 21 d1 d4 3d e0 e2 32 3e b1 d8 85 3e
       0.09574941 0.10391451 0.17469358 0.26141885
0001b0 b5 36 d1 bc 02 ad 00 3d 0e a1 89 3e 73 57 83 3d
       -0.025538782 0.031414993 0.26880687 0.06413164
0001c0 21 cb 08 3e a5 a0 32 3e cb a1 89 3e 0a 72 95 3e
       0.13358738 0.17444094 0.2688125 0.29188567
0001d0 eb e9 25 be 9c 89 1e be f8 fd 22 3e d6 3c 0a 3e
       -0.16202514 -0.15482181 0.15917194 0.1349977
0001e0 9b 43 6a 3e 2c cf 19 3e 71 94 46 3e d0 fc 88 be
       0.22877352 0.15020436 0.19392563 -0.2675538
0001f0 d4 44 dc 3d 1e 44 dd 3d 7a 60 62 3e b4 be 69 3d
       0.107553154 0.10804008 0.22107115 0.057066634
000200 69 3e f1 bd 4e 1e 43 3d 37 44 42 3e 66 6d 4d 3e
       -0.11779482 0.047636323 0.18971334 0.20061263
000210 72 cf 9a 3d ee 25 18 3e 6e 8f e4 3d b9 3c f9 3d
       0.07559098 0.14858219 0.111601695 0.12169785
000220 06 db c1 be 2d b4 50 bd 64 be 12 3e 56 2b 3a 3e
       -0.37862414 -0.05095308 0.14330441 0.18180594
000230 f7 2e f4 3d dd 2b 17 3e 28 3f 71 3e 6a 5c 0b 3e
       0.1192302 0.14762826 0.23559248 0.13609472
000240 f8 34 d7 3d b2 88 10 bf 68 32 50 be 4b d4 1d 3e
       0.1050815 -0.5645858 -0.20331728 0.15413015
000250 4b 48 cb bc b1 bd 70 be ed ba 45 3e 63 6b be 3e
       -0.024814745 -0.23509862 0.19309588 0.37191305
000260 8a f8 e1 be 66 55 8d 3e 06 2f 02 3e 15 dc d2 3c
       -0.44134933 0.27604216 0.1271325 0.025739709
000270 db 16 35 3d b3 cb 3e be 33 24 4f 3e 53 ce 81 3e
       0.04421125 -0.18632393 0.20228653 0.25352725
000280 5e 78 9c 3e 32 9f c8 bd ff 5c d9 3c bf 69 c4 3d
       0.30560583 -0.09795989 0.026533602 0.09590482
000290 ec a4 be 3d 31 50 6f bd 33 21 95 3d ee 68 fb 3d
       0.093088 -0.058426086 0.07281723 0.12275873
0002a0 d8 f3 2e 3e a5 36 57 3e b2 9e 8c 3d 26 4b 0c 3d
       0.17085207 0.21016939 0.06866206 0.034251355
0002b0 6c 85 18 be 1e 73 48 be 23 5f e1 bd d2 59 09 bc
       -0.14894646 -0.19575164 -0.11004474 -0.008383231
0002c0 ce 5f 16 3e 4e a5 fc 3d d3 14 01 3d 41 b5 86 3d
       0.14684984 0.12336217 0.031514 0.0657754
0002d0 84 ae 34 be 8e 8d 63 be e2 c5 16 3e e1 86 cf 3d
       -0.17644697 -0.22221968 0.14723924 0.10133148
0002e0 88 ff 10 3e 34 66 eb bd 04 8d 32 be df 1c f2 bc
       0.14159977 -0.11494103 -0.17436606 -0.029554782
0002f0 f7 26 8b 3e b4 37 0b 3e f4 2a 6d 3e 6d 49 59 3e
       0.27178165 0.13595468 0.23160917 0.21219416
000300 ac 4b 8e 3e d9 b3 52 3e 50 58 21 3d b0 44 82 3e
       0.27792108 0.20576419 0.039390862 0.2544303
000310 80 5b 84 3e 27 8a 8e 3e 74 ce aa 3e 31 90 03 3e
       0.2585106 0.27839777 0.33360636 0.12847973
000320 fc ba 6b 3e 08 89 d3 3d 72 3c 30 be b6 f1 f6 bd
       0.23020548 0.10328871 -0.17210558 -0.120578215
000330 c5 d1 3d be bf b8 1d 3d a9 b4 06 3e cb 43 11 3e
       -0.18537052 0.038506266 0.13154854 0.14186017
000340 c2 3b 40 be d0 f0 07 be 4d a3 83 3e ce 33 97 3e
       -0.18772796 -0.13275456 0.25710526 0.2953171
000350 5c 05 1a be 2d 70 f6 3d fc d6 e7 bd 41 6d 80 be
       -0.15041107 0.120331146 -0.11320302 -0.25083354
000360 34 d6 bf bd 06 ea 13 3e bc a6 43 be 3d c4 40 be
       -0.09367028 0.14444742 -0.19106573 -0.18824859
000370 da 40 01 3e a9 29 12 3e 89 d9 63 be 8e 9e 36 3e
       0.12622395 0.14273705 -0.22250952 0.17833921
000380 81 ba b7 3d 7a 19 ce 3d b2 c4 f5 3d 65 2c 55 bd
       0.0897112 0.10063453 0.12000407 -0.05204429
000390 7f cc 55 3d 80 47 2c be 44 fb 06 be ac 98 09 3e
       0.052196976 -0.1682415 -0.13181788 0.13437146
0003a0 da f0 22 be ab 7c 44 3e 11 5f 38 be 32 cc 8c bd
       -0.1591219 0.19188182 -0.18005015 -0.06874885
0003b0 40 2b 2f 3e ae 73 f5 bd 3e 2d b8 3d d2 34 24 be
       0.17106342 -0.11984955 0.08993004 -0.16035774
0003c0 9c d3 dd bd fc c8 8d 3e 24 b3 84 be ba ef 43 3e
       -0.10831377 0.276924 -0.25917923 0.19134417
0003d0 11 79 61 3e 86 57 8a 3e 2e 74 fe 3d 7d fa bb be
       0.2201884 0.270199 0.12424503 -0.36714545
0003e0 62 67 a0 be 0f af 01 3e d9 3b 09 3d a3 f4 30 3e
       -0.31328875 0.12664436 0.03350434 0.17280822
0003f0 04 eb 7a 3d 15 b3 ee 3d 30 8d 1d 3e e8 ea 65 3e
       0.061259285 0.11655251 0.1538589 0.22452891

fc2.weight f4 [2, 256]
000000 4d 7a 1b 3f 75 ea 85 3e 2c 77 0e bd 1b 30 4a 3d
       0.6073349 0.2615544 -0.03478162 0.049362283
000010 94 c4 f9 3a bd c9 94 be 45 c9 74 be 49 e6 28 3f
       0.0019055777 -0.29060164 -0.23904903 0.6597639
000020 ef 1d de be 28 a9 0b be f8 62 c8 3e 3e 51 8c bd
       -0.43382213 -0.13638747 0.39138007 -0.06851433
000030 92 68 4b 3e a1 39 a8 3e 9e 08 51 bd 93 e5 5e bf
       0.19864109 0.32856467 -0.05103361 -0.8706905
000040 5a a0 1b 3f 76 89 11 bf e8 c8 c0 3a d4 38 99 3e
       0.6079155 -0.56850374 0.0014708312 0.2992617
000050 1c 27 02 bf ab 10 10 3f b9 1f 2f bf cf e5 09 bf
       -0.50840926 0.56275433 -0.6840778 -0.53866285
000060 e6 8e da be b4 be 66 3e 44 e7 55 3a 94 a0 91 be
       -0.42687148 0.22533685 0.00081597664 -0.28442824
000070 d7 c7 61 be c6 5e ba bd e4 b7 d5 bd d8 ad 51 3e
       -0.22048889 -0.09100108 -0.10435465 0.20476472
000080 16 75 18 bf ca 6d 74 3e 5b de d1 be 03 3f ec bb
       -0.5955366 0.23870006 -0.40989956 -0.00720966
000090 0b 11 98 3e 82 d2 c5 3e 82 11 3b 3b f5 91 80 bf
       0.29700503 0.38637167 0.002854437 -1.0044543
0000a0 1d ca 47 3f d9 ad 13 bf 1c f0 42 bf bf 7f d7 ba
       0.78042775 -0.57687145 -0.7614763 -0.001644127
0000b0 b4 34 af bd 49 a6 10 3f 9c 1a 28 3b fe 38 96 be
       -0.08554974 0.5650373 0.0025650626 -0.29340357
0000c0 91 b1 ff ba 24 95 59 bf 97 e2 13 bf 81 d2 e1 be
       -0.0019507875 -0.84993196 -0.57767624 -0.44105914
0000d0 e5 2e 47 39 0c 4b 2e bf e9 e8 fe 3d 61 d8 67 3e
       0.00018995588 -0.6808326 0.12446768 0.22641136
0000e0 f3 cf 53 3e 16 c1 86 bc 83 c0 b2 be 10 5a 47 3e
       0.20684795 -0.016449492 -0.349125 0.1946795
0000f0 10 47 1c 39 31 9b 8c bc 4d 53 05 b9 87 97 e0 3e
       0.00014903792 -0.017163845 -0.000127149 0.43865606
000100 70 2c 1f bf e5 0b e1 3e ff 15 91 3e 71 72 3c bf
       -0.6217718 0.43954387 0.28337094 -0.73612124
000110 2e dd 99 3a ee 70 34 bf c7 6a b0 be f5 47 42 3e
       0.001173889 -0.7048482 -0.34456465 0.18972762
000120 5e 19 c4 be 07 fa f0 3d 28 6d cb b9 82 70 12 3b
       -0.38300604 0.11766439 -0.00038800505 0.0022344892
000130 6f 57 ad 3e 16 ee ae 3e 10 38 1f bf 35 ae 4b 3e
       0.3385577 0.3416602 -0.6219492 0.19890673
000140 a9 d6 96 be 94 6f b1 3e a1 5a b7 bf 89 db ba be
       -0.29460648 0.3465544 -1.4324533 -0.36495617
000150 00 f8 09 37 54 05 91 be ba 0b 80 3f 39 30 9b 3e
       8.223578e-06 -0.28324378 1.0003579 0.30310228
000160 84 88 20 3a 4a 92 1f bf 64 cd 7a be e0 d6 45 bf
       0.0006123858 -0.62332594 -0.24492413 -0.77281
000170 e1 bd 99 be 70 07 92 bf b9 03 19 bd a7 b2 ea be
       -0.3002768 -1.140852 -0.037357066 -0.45839426
000180 81 a0 89 3c 50 93 6a 3f 45 b1 0d bf ea 97 0f 3f
       0.016800167 0.9163103 -0.55348617 0.5609118
000190 c5 c3 1f 3f 2f 2f 8c 3e 38 e3 b0 be e5 21 ef 3c
       0.62408096 0.27379748 -0.34548354 0.029190967
0001a0 0e 79 62 3e fa b8 2f 3f 4a ef 04 bf 5b a8 bd 3d
       0.22116491 0.68641627 -0.51927626 0.09260627
0001b0 27 a3 0f 3f 9d 79 8e 3f 77 70 48 bd 70 7e 08 3f
       0.56108326 1.1130863 -0.04893538 0.5331793
0001c0 f0 b0 a7 3e 65 74 51 bd db 1b c3 be e2 41 93 bd
       0.3275218 -0.051136393 -0.3810719 -0.071903005
0001d0 7c f4 00 3a 30 6c 45 b9 cc b5 e5 3e dd 49 ec bd
       0.00049192435 -0.00018827687 0.44865263 -0.11537526
0001e0 06 d8 38 bd 3b 7f fd 3d 96 ff eb be 56 34 4a bd
       -0.04512789 0.12377783 -0.46093434 -0.049366318
0001f0 1d cc 77 3e 86 b8 d4 3e a8 b2 b8 bc c5 3c b7 3e
       0.24198957 0.4154703 -0.022546127 0.3578855
000200 da 72 10 3f 1d 35 77 3c 18 8c 3d 3e 81 3b 46 3e
       0.5642525 0.015088347 0.18510473 0.19358636
000210 6a 8b b6 be b7 65 fc 3e 2d 7a 61 3e 76 ec 05 3f
       -0.3565324 0.49296352 0.22019263 0.52313936
000220 a7 3c 8c bf 44 ea b1 be 7f 09 67 3e 80 18 84 3e
       -1.095601 -0.34749043 0.22562216 0.25799942
000230 be 2e c6 3e 4c cb c4 3e e3 6f 09 bd a8 e7 f1 3e
       0.38707536 0.38436353 -0.03355397 0.47247052
000240 01 8f 3e be 30 3d ce bf 4d f5 a8 bf e0 4b bb 3e
       -0.18609239 -1.6112423 -1.319986 0.36581326
000250 f1 11 b7 3e 05 ae 5f 3f 3e c9 91 3e 36 42 68 3e
       0.35755876 0.8737491 0.28473848 0.22681507
000260 59 e9 18 3e 34 26 9c 3e 6b 1d 35 3f 94 2b 1e 3f
       0.14932765 0.30497897 0.70748013 0.61785245
000270 88 ea 81 bf 20 e5 0d bf a6 86 d8 3b d9 0a 1b be
       -1.0149698 -0.5542774 0.006607848 -0.15140857
000280 7b 72 a3 3e 36 bd 5a 3f f2 a0 9f be ed 3d 00 3d
       0.3192328 0.8544496 -0.3117748 0.031309057
000290 1a d4 e0 3e c0 22 5c be 06 50 ad 3e ed 3e 99 be
       0.4391182 -0.21497631 0.33850116 -0.2993082
0002a0 10 6e 13 3f 30 22 76 bd 66 c2 ca 3e c7 fc 55 bf
       0.5758982 -0.060091197 0.3960144 -0.8358883
0002b0 e0 d1 ab 3b 3c 2b 88 3a 09 31 c9 3b 44 ea 82 be
       0.005243525 0.0010388861 0.0061398786 -0.25569355
0002c0 a1 8c 6a 3e 08 a9 c1 3e 55 e6 26 bf ac 00 58 bf
       0.22905208 0.37824273 -0.6519521 -0.84376025
0002d0 f8 e5 ac 3a cb b6 2b bf 4a a3 15 3f 95 fa 20 3f
       0.0013191095 -0.67075795 0.58452284 0.6288236
0002e0 ea 81 43 bf 0a 70 ce 3e 90 aa a7 bf c6 eb 80 bf
       -0.7637011 0.40319854 -1.3098927 -1.0071952
0002f0 46 4e 61 be cb ba c8 3e b3 3e d7 3e 54 ac dd bd
       -0.22002515 0.39205012 0.42040023 -0.108238846
000300 ee 1c 0a bd 1d 31 92 bf 41 cc 88 be 07 cb 8c bc
       -0.033718996 -1.1421238 -0.26718333 -0.017186655
000310 b0 fa da bb 11 e8 05 bd 4b 13 00 bf 0a fa 07 3f
       -0.0066827163 -0.03269202 -0.5002944 0.53115904
000320 b8 e6 ba ba cc 52 63 3e a0 98 13 b9 88 e4 65 ba
       -0.0014259433 0.22199553 -0.0001407587 -0.00087697105
000330 f0 e2 dc b9 61 4d 6d be 35 5d 9b 3e 3b a8 db 3e
       -0.00042130752 -0.23174049 0.3034455 0.42901787
000340 01 9e 90 ba 38 b6 70 3a 52 4a 09 bd 6d 47 80 be
       -0.0011033417 0.0009182426 -0.033518143 -0.25054494
000350 d3 e6 86 be a9 40 07 3f cd 1c 02 bf f9 15 90 3f
       -0.2634798 0.5283304 -0.50825197 1.1256706
000360 d4 ae 51 ba 84 04 e0 3e 5e c0 0e 3b 7a c3 e2 ba
       -0.00079987687 0.43753445 0.002178214 -0.0017300688
000370 be 0c fd 3e f7 07 04 3f c6 ed fe bd 7f 53 58 be
       0.49423784 0.51574653 -0.124476954 -0.21125601
000380 99 27 0e 3f 72 81 79 3e 37 7f 1b 3f 84 b5 47 3f
       0.5552917 0.24365786 0.6074099 0.78011346
000390 11 e3 12 3f 30 eb 02 bb 89 52 ed bd 1b 68 29 bf
       0.57377726 -0.0019976608 -0.11588008 -0.6617448
0003a0 d6 11 18 bb c7 fd 67 be b2 8f 34 bb f0 48 74 bb
       -0.002320399 -0.22655402 -0.002755147 -0.003727492
0003b0 f0 d0 b7 3e c3 7a ac 3e fc c8 85 be 49 36 bd 3f
       0.35901594 0.3368741 -0.261299 1.4782192
0003c0 ea 3f 30 3e 4e fd ca 3c a6 19 b7 bd 4b 9e 9e 3e
       0.17211881 0.024778988 -0.08940439 0.30980143
0003d0 f6 99 11 bd 11 29 3c bd a5 65 76 be 97 a1 b1 bf
       -0.03554722 -0.0459376 -0.24062212 -1.3877438
0003e0 e4 50 00 bf 4c db ba 3e df e0 5b bf 8e 81 27 3f
       -0.5012343 0.36495435 -0.8589 0.6543206
0003f0 34 57 6e 3f 90 a7 01 bf c7 de 34 bf ac 58 6c bc
       0.9310181 -0.50646305 -0.7065243 -0.014425438

fc2.bias f4 [2]
000000 7e 10 d9 bd 1b be 79 3e
       -0.10598849 0.24388926
