multi_agent/checkpoints/Multi_checkpoint_critic_30_20_local_2500_run3.pth (torch, 425167 bytes, 7 tensors)

fcs1.weight f4 [256, 24]
000000 85 97 c9 3e f8 76 a5 3d f5 a3 78 3c d5 0d bf be
       0.39373413 0.08079332 0.015175809 -0.3731524
000010 6b 43 1e 3e fb 2c 4c be 91 21 c6 3b 73 b5 bd be
       0.15455405 -0.19939034 0.006046482 -0.37052497
000020 3e da 9a 3e 3c 1a 40 3d fe eb a0 be e6 1a af bd
       0.3024463 0.04690002 -0.31430048 -0.08550052
000030 7d 33 07 3e 29 9c 67 be 78 32 9c be 3a 3d a9 bd
       0.13203235 -0.22618164 -0.30507255 -0.08263631
000040 25 16 4b 3e fc 4a 04 be ff d8 66 be ed bf 35 be
       0.19832666 -0.1291923 -0.22543715 -0.17748995
000050 2a f1 1c 3e 23 a4 00 be 9f 9e 51 be 4b 33 27 be
       0.15326372 -0.12562613 -0.20470665 -0.1632816
000060 d4 23 d1 3d 67 32 0e be 9a ea b4 bc df a6 35 3d
       0.10211912 -0.13886414 -0.022084523 0.044348594
000070 16 1e 4a bf df 9c ee be 62 a2 44 3d 6c 00 2f 3c
       -0.7895216 -0.46604058 0.048006423 0.010681253
000080 00 d7 78 bd b7 1e 6c be 6c af 31 bd 7c 51 a7 bc
       -0.060751915 -0.23058592 -0.043380186 -0.020424597
000090 30 5a 93 be eb 16 18 3f c9 73 e8 3c 7b d8 09 bd
       -0.28779745 0.5940997 0.028375523 -0.033653717
0000a0 0e 81 77 3d 0e 07 98 be 58 a9 84 3c b7 57 37 3e
       0.06042581 -0.29692882 0.01619403 0.17904554
0000b0 f7 f3 89 3e c4 23 dd 3f fa a3 ae bd 81 bf 5d 3e
       0.26943943 1.727654 -0.0852737 0.21655084
0000c0 49 23 3d 3d 08 72 c6 3c f8 fc 2c bd 9d 13 ac 3b
       0.04617623 0.024224296 -0.042233437 0.0052513615
0000d0 5a 26 ba bc aa f4 50 bd eb b2 c6 3c 16 ca c7 bc
       -0.022723366 -0.05101458 0.024255237 -0.024388354
0000e0 06 03 a0 3d c2 35 6b bd a4 91 8e 3b c4 14 fd 3a
       0.07813077 -0.057424314 0.004350858 0.0019308557
0000f0 d4 e2 dc bb aa d1 1c 3d e4 44 76 bc af 3e c3 3c
       -0.006740907 0.03828589 -0.015031073 0.0238336
000100 1a 18 a1 3d dc d4 02 bd 6f c5 4a bd 7a e8 87 bd
       0.07865925 -0.03194128 -0.049504694 -0.06636138
000110 8f 68 a5 3c 69 f7 fc bb 40 c9 1c 3c 51 b3 5f bc
       0.020191459 -0.0077199233 0.009569466 -0.013653592
000120 2a 8f 2a 3e 97 a1 82 3e 86 f5 e6 3c cb 2a db be
       0.16656175 0.25513908 0.028193247 -0.42806086
000130 66 a8 93 3e d3 ec 79 be 19 05 35 3d ab c5 d4 be
       0.28839415 -0.24406748 0.044194315 -0.4155706
000140 d8 6c 0a 3e 28 98 2b 3e 08 99 06 3e a6 d8 97 3e
       0.13518083 0.16757262 0.13144314 0.29657477
000150 7b 27 07 3e ca ae cb 3c 62 b3 16 3e 71 1f a7 3e
       0.13198654 0.02486362 0.14716867 0.32641175
000160 96 00 90 3e a1 95 5c 3e 54 43 25 be 07 27 40 bf
       0.28125447 0.21541454 -0.16138965 -0.7505955
000170 ee 5b ce be 93 33 95 3f ab d3 0d be 35 eb 26 bf
       -0.40304512 1.1656364 -0.13850276 -0.6520265
000180 1e 19 3a 3d b0 90 e4 3b ac a5 f9 3c 28 36 78 bc
       0.04543411 0.006975256 0.030474506 -0.015149631
000190 8c 67 ce 3c aa cb 2b 3d b6 c7 17 3d 58 36 63 bc
       0.02519586 0.041942276 0.037055694 -0.013867937
0001a0 9c d0 95 3c 54 b5 79 3d 58 70 4b bc d6 82 23 bd
       0.01828795 0.060963944 -0.012416922 -0.039919697
0001b0 06 90 5e 3d 96 23 01 3d 28 3e 75 3d 98 50 bf bc
       0.05433657 0.031528078 0.05987373 -0.02335386
0001c0 b0 cc 6e 3c ae ee 20 bd 4c c9 44 bd c0 a6 30 bc
       0.0145751685 -0.039290123 -0.048043534 -0.010781944
0001d0 e2 24 24 bd be 44 62 3d 18 51 65 3c 1c a6 9a bc
       -0.040074237 0.05524134 0.013996385 -0.018878035
0001e0 f6 7b 00 3d 7d 15 17 be f7 e9 bc 3b 69 06 9a 3d
       0.03136822 -0.14754291 0.0057651955 0.07520754
0001f0 54 d2 b7 3e 85 75 53 3f 06 63 1b bd 82 0e 38 3c
       0.35902655 0.82601196 -0.037936233 0.011233928
000200 cd ae b5 3c d7 3e 65 be c8 b6 84 3c 64 c8 b1 bd
       0.022178078 -0.22387253 0.016200438 -0.086807996
000210 d0 21 3d 3e 12 b1 7e 3e 76 c6 b3 bc eb 65 c6 bc
       0.1846993 0.24872234 -0.02194522 -0.02421852
000220 1a a8 36 3e 70 fa 4f be ed fb 3e bc 24 81 0c be
       0.17837563 -0.20310378 -0.0116567435 -0.13721138
000230 76 dd d2 be e7 b9 11 c0 5a 44 29 3d 4d 0f ef bd
       -0.41184586 -2.2769716 0.04132495 -0.1167284
000240 43 c2 d7 bc 53 c7 22 bd 2c 17 1f bb 2e f7 b3 bc
       -0.026337748 -0.03974087 -0.0024275286 -0.02196845
000250 3d d1 9a 3f 3e e2 a7 3e b7 72 91 bc 2e 4f 3b bd
       1.2095104 0.32789797 -0.017754896 -0.04572981
000260 d8 d4 b5 3d 4e be f1 bc 3e 99 4f bc a5 d3 cb 3b
       0.08878487 -0.02950969 -0.012670813 0.0062202984
000270 75 3b 78 3e 56 1f 53 3e 0c f1 93 bc 07 25 a5 3c
       0.24241431 0.20617422 -0.018059276 0.020159258
000280 29 f6 b0 3d a3 b6 84 bd 25 d5 95 bb c8 0d 87 3c
       0.08640701 -0.06480148 -0.004572528 0.016486064
000290 b0 4d ad bf 5e ab 9d 3d da 65 81 bc da 60 c3 3d
       -1.3539333 0.07698701 -0.015795637 0.09539957
0002a0 21 44 6a 3e 0a 13 c5 be fc c1 08 3c d1 75 39 3d
       0.22877552 -0.38491088 0.008347031 0.045278374
0002b0 a9 90 13 3f 4d ea 87 be e0 1e 2e bd 14 52 9f 3d
       0.5764261 -0.26545945 -0.042509913 0.07779327
0002c0 0c d2 d0 3e 9d 0e e2 be ca 1a c3 3d 19 e7 2f bd
       0.40785253 -0.44151774 0.09526594 -0.042945
0002d0 1f 28 d9 3e 49 f5 f2 be 77 f3 70 3d 15 bb 3f 3d
       0.42413422 -0.47452763 0.058825936 0.046809275
0002e0 27 cb e6 3e f0 e3 d8 be 8f ec 26 3a dc 3a 6e 3e
       0.45076868 -0.42361403 0.00063676474 0.2326464
0002f0 82 bb ff 3e 70 40 ba bf d7 23 1b 3d 3e ca 71 3e
       0.49947745 -1.4550915 0.037875976 0.23612306
000300 61 9b bf 3c f2 3e f5 bc b0 0e b9 3c d1 f7 22 3c
       0.02338952 -0.029937241 0.022590011 0.009946779
000310 5c 85 4a bd f3 44 95 bc de df 24 bd 47 48 4b bd
       -0.049443588 -0.018221354 -0.04025256 -0.049629476
000320 34 a1 be 3c 2e 69 5a 3d 99 fd 22 bc 87 49 a9 3b
       0.023270227 0.053322963 -0.009948158 0.005166236
000330 fe 75 63 3d 68 45 2b bd 84 02 22 bd 5a 7e d9 bc
       0.055532448 -0.041814238 -0.03955318 -0.026549507
000340 61 f1 65 3d f5 f8 5d bd d9 3b 93 bc 6e d1 5a 3d
       0.0561384 -0.054192502 -0.017972874 0.053422384
000350 bb 93 5d bd 12 87 a4 bb 7b b7 39 bc 06 8f 19 bd
       -0.054095965 -0.0050209844 -0.011335249 -0.037489913
000360 59 59 f4 bc d2 76 43 3d fa 19 56 3c 39 3d f7 bd
       -0.02982776 0.047720738 0.013067717 -0.12072224
000370 0e 64 91 3e 71 ce 42 be e2 eb a4 bc 1b 66 be bd
       0.28396648 -0.19024064 -0.020132009 -0.09296819
000380 9f 69 7c 3d 66 b5 0a bd 29 fd 12 bd b9 fe 67 bd
       0.061624166 -0.0338644 -0.035885964 -0.056639407
000390 17 fb cd 3e 80 e5 96 be 46 13 63 3c db 72 08 be
       0.4023063 -0.2947197 0.013859576 -0.13325064
0003a0 e2 58 47 3e 3f 5f f0 3d df c0 28 3e 5c b5 40 3f
       0.194675 0.11736917 0.16479824 0.7527673
0003b0 db e4 b6 3e ff 40 17 c0 87 44 09 3e 6c 6a 37 3f
       0.35721478 -2.363342 0.13405047 0.7164676
0003c0 71 ad 42 bc fd 91 8a 3b c9 cc 41 bd 03 56 75 bc
       -0.011882172 0.004228829 -0.04731444 -0.01497412
0003d0 f7 9e 95 bd ff 1d d0 3b 68 20 b6 bc f6 b3 6b 3d
       -0.07305711 0.006351232 -0.02223225 0.05754467
0003e0 e8 f6 5a 3d 22 ef 09 3d a9 34 b5 bb 4b 22 fb 3c
       0.053458124 0.03367532 -0.005529959 0.030656
0003f0 e6 dd 22 bd b2 12 1f 39 2f 2c 9d 3c fe 81 ef 3c
       -0.0397624 0.00015170386 0.019186107 0.02923679

fcs1.bias f4 [256]
000000 2b 0e e4 be 46 a5 be bd 69 b0 c5 bd 34 57 de bd
       -0.4454206 -0.09308867 -0.09652788 -0.108564764
000010 17 bc 4f be ca 06 40 3e cb 70 f6 3d a2 c2 0b bd
       -0.20286594 0.1875259 0.12033232 -0.034121163
000020 80 7f 8e bd 9e fb 84 3b 31 25 4c be be 32 cc 3d
       -0.069579124 0.0040583154 -0.19936062 0.09970616
000030 09 d6 9c 3d 86 1f ee be f7 87 a6 3d 14 10 d9 be
       0.076580115 -0.46508425 0.08131402 -0.4239508
000040 ed a8 b5 3d 86 92 7d bd 0e 9e 3d be 84 6a 67 3e
       0.08870111 -0.061907314 -0.18517324 0.22599226
000050 df b3 d4 3c 03 a6 8a be 8a 5f 5a be 3b 3a 0b bf
       0.025964675 -0.27079782 -0.21325508 -0.5438573
000060 bf b4 4b bd 8a 5a 97 3c dc 9a 23 be fc a9 c5 3e
       -0.04973292 0.01847579 -0.15977043 0.3860625
000070 ff 30 03 3e 83 41 b1 3d 9a db 03 3d 12 b5 51 be
       0.1281166 0.086550735 0.03219185 -0.20479229
000080 84 a2 fe bd 8a 0f 29 be ef e5 26 be 75 14 4a bd
       -0.12433341 -0.16509834 -0.1629865 -0.049335916
000090 22 89 28 be 8a 71 76 be 02 30 16 be cb 29 a7 be
       -0.16458562 -0.24066749 -0.14666751 -0.32649073
0000a0 39 9c eb be 35 c4 cf bd 06 af 0f 3e 28 0f 61 be
       -0.46017626 -0.101448454 0.1403161 -0.21978438
0000b0 f5 dd 2b be 95 de d7 bd 85 36 22 be cb b4 0a 3e
       -0.16783889 -0.10540501 -0.1584111 0.1354553
0000c0 35 75 21 be 8a fe 03 be 6c a4 2d be 30 23 b6 be
       -0.15767367 -0.12890068 -0.16957253 -0.3557372
0000d0 88 b7 1a be e4 cc 0c be 47 b2 83 3d aa 9f b6 bb
       -0.15109074 -0.13750035 0.06430488 -0.0055732327
0000e0 50 cf 4a be 09 e1 02 be f9 a4 41 3e 64 04 b1 bc
       -0.19805646 -0.12781157 0.18910588 -0.021608539
0000f0 90 a7 25 be ce 11 72 3e 3a 02 3f be 93 da 41 be
       -0.16177201 0.23639604 -0.18653193 -0.18931036
000100 2a 7a f1 bd 2c 47 13 be 0b c4 f4 bd 46 d0 10 be
       -0.11790879 -0.14382619 -0.11951455 -0.1414195
000110 a0 9e f8 bd 86 ab 08 be 0b c0 bb bd 85 fc 3e be
       -0.1213963 -0.13346681 -0.09167489 -0.18651016
000120 e8 a4 fb 3d 20 5e dc bd 0c e8 4f be a1 f6 56 be
       0.12287313 -0.107601404 -0.20303363 -0.20992519
000130 de a7 a1 be 62 f8 0b 3e 8d ca 0a bc ee 8c 26 be
       -0.31573385 0.1366897 -0.008471143 -0.16264698
000140 e3 8d 29 3e 54 91 08 be ea fc 59 bc 4d 4a 54 be
       0.16558032 -0.13336688 -0.013304928 -0.20731468
000150 ab 80 4b be ae 54 c9 ba 14 44 c3 be d0 c9 ad 3d
       -0.19873302 -0.001536032 -0.38137877 0.08485758
000160 1f bb 21 be 8a 9f 9b be 67 27 e1 3d 09 49 7c be
       -0.15794037 -0.30395156 0.109938435 -0.24637236
000170 34 8f 9f be 83 3c 26 be f3 e4 47 3d de e1 3c be
       -0.31163943 -0.16234021 0.048802327 -0.18445536
000180 5c 64 0b be 15 0c 09 bd 13 03 39 bc 43 aa 0f be
       -0.13612503 -0.033458788 -0.011292237 -0.14029793
000190 9f ed 78 be 9d cf 2f be c9 8f 2e bd d9 b0 3a 3d
       -0.24309395 -0.17169042 -0.042617593 0.04557881
0001a0 69 cd 3d be 51 77 b8 be 17 75 85 bd 6c eb 17 be
       -0.18535389 -0.3602853 -0.06516474 -0.148359
0001b0 08 e5 07 be 08 40 e6 bd 65 3c 1c be 24 02 11 be
       -0.13270962 -0.11242682 -0.15257414 -0.14160973
0001c0 c9 bc db bd 5b 09 1e be 68 d8 bf bd 52 9c 2e be
       -0.10729367 -0.15433256 -0.09367448 -0.17051819
0001d0 2a 77 39 be fb c6 2a be 4c a7 88 be a3 02 8f 3c
       -0.18111864 -0.16677468 -0.26690137 0.017457312
0001e0 a1 b1 1c be 92 9e 0f 3b ce 04 9f be 07 4a 79 bd
       -0.15302135 0.0021914584 -0.31058353 -0.060861614
0001f0 a0 55 cb bd 5f d2 32 3e 96 72 7c 3e 95 65 3b 3d
       -0.09928441 0.17463063 0.24653086 0.045751173
000200 0e 5d b8 be b8 f1 aa bd d9 6e 14 bc 05 e6 9d 3e
       -0.36008495 -0.083468854 -0.009059631 0.30839553
000210 9c ce 0d be fe f1 77 3d 02 64 82 be 47 aa 08 bf
       -0.13848346 0.060533516 -0.25466925 -0.5338482
000220 3f f8 4e be a9 57 8d bd 2e 1e 17 be b0 84 ed 3d
       -0.20211886 -0.069014855 -0.14757606 0.11597574
000230 1c e7 15 be 8a ac ad 3d ae ea 4b 3d d8 52 00 be
       -0.14638942 0.08480175 0.049784355 -0.12531602
000240 bb 3d 84 be f1 8d 8d bc 97 74 63 be 4b 21 af be
       -0.25828347 -0.017279597 -0.22212444 -0.34205088
000250 80 a3 f3 bd f0 ac 4f be 1e 62 f8 bd 23 4c 25 be
       -0.118964195 -0.20280814 -0.12128089 -0.16142325
000260 6a 07 8c be 3e ec ff 3d ae de 83 be 4a 8a d7 be
       -0.27349406 0.124962315 -0.2575583 -0.42097694
000270 c4 00 f8 bd 51 42 37 be f3 73 af bd 3c 3b da be
       -0.12109521 -0.17896391 -0.085670374 -0.42623317
000280 25 07 48 3e 58 b0 88 bd ed ff 4b bd 86 ba bf bd
       0.19533975 -0.0667426 -0.049804617 -0.093617484
000290 38 c9 20 be 07 2f ff 3d b9 64 23 be 13 b7 ca 3d
       -0.15701759 0.12460142 -0.15956391 0.098982
0002a0 4e 93 40 3e d7 d7 8e be df 49 d9 bd 20 d5 04 be
       0.18806192 -0.27899048 -0.10609793 -0.12971926
0002b0 98 e4 18 be c9 72 48 be 7c e5 96 3d 91 5b e4 3d
       -0.14930952 -0.19575037 0.073679894 0.111502774
0002c0 1d 3b 06 bd b8 76 0c be f9 2a c6 bd ad ef 1c be
       -0.03277122 -0.13717163 -0.09676165 -0.15325804
0002d0 84 ae 34 be ea 66 27 be bc 0b d3 bd 45 60 f1 bd
       -0.17644697 -0.16347852 -0.103049725 -0.1178594
0002e0 a2 be d4 bd 48 05 5d be 46 d3 96 3e c5 9d 07 be
       -0.10387923 -0.21584046 0.29458064 -0.13243778
0002f0 28 3f 23 bd f2 7e 7c be c4 fd 5b 3d f8 80 42 3e
       -0.039855152 -0.24657801 0.053708807 0.1899451
000300 38 c2 29 3b d8 7b 8b be bf 07 56 3e 58 08 a7 3d
       0.0025903117 -0.27242923 0.20901392 0.08155888
000310 a1 fd e9 3d f8 d3 dc 3d 6d 81 69 3e 48 13 e2 bd
       0.11425329 0.10782617 0.22803278 -0.11038834
000320 56 18 04 be 6c cc e0 be 72 3c 30 be b6 f1 f6 bd
       -0.12899908 -0.43905962 -0.17210558 -0.120578215
000330 c5 d1 3d be 1c df 98 bd 84 c9 9e be aa 44 c1 3d
       -0.18537052 -0.0746443 -0.3101312 0.09436925
000340 83 a7 47 be d0 f0 07 be 31 2e a9 bd d4 60 76 3d
       -0.19497494 -0.13275456 -0.082607634 0.060150936
000350 84 23 9f be ae 31 50 3e c6 6d 3d be 05 c1 34 bd
       -0.31081784 0.20331451 -0.18498906 -0.04412939
000360 08 09 07 be 1c 7d c4 be bc a6 43 be 3d c4 40 be
       -0.13187039 -0.383767 -0.19106573 -0.18824859
000370 f3 cf 3e be f9 6a 4f be 7f 9d 2a 3e f8 3f ff bd
       -0.18634014 -0.2025565 0.16661642 -0.12463373
000380 38 8c 7e be 52 a1 4d be b8 79 26 be 06 90 17 be
       -0.24858177 -0.2008107 -0.1625737 -0.14801034
000390 f6 42 b5 3c 80 47 2c be 8c 5e 8e 3d 16 42 6b bd
       0.022126656 -0.1682415 0.06951627 -0.05743607
0003a0 88 47 d1 be 71 b3 74 be ff 32 55 be 52 a2 8c 3e
       -0.40874887 -0.23896576 -0.20820235 0.2746759
0003b0 b4 40 9d bd fe 56 f4 bd b7 c5 0e be 40 4d 10 be
       -0.07678357 -0.11930655 -0.1394261 -0.14091969
0003c0 a2 4b 46 be ac e1 a0 bd 76 37 74 be e4 bd ec 3c
       -0.19364789 -0.078555435 -0.23849282 0.02889914
0003d0 d5 d7 a1 bd b5 23 d9 3d 97 03 a8 3d a7 bf 0b be
       -0.07902495 0.10602514 0.0820381 -0.13647328
0003e0 f9 61 99 bd 8d 94 92 bd 6d c1 7c be 23 b4 3a be
       -0.0748939 -0.0715724 -0.24683161 -0.18232779
0003f0 40 1f 0a be fd 3f b4 bd 84 2c 02 be 77 52 8a 3d
       -0.13488483 -0.08801267 -0.12712294 0.0675401

fc2.weight f4 [256, 258]
000000 c0 96 62 bd 37 59 e7 3c f8 f7 d4 3c 19 44 35 3c
       -0.055319548 0.028240783 0.025997147 0.011063599
000010 28 85 72 bc 3d 2b db 3b de 0f 06 3d 36 c9 06 3d
       -0.014802255 0.006688504 0.032729976 0.032906733
000020 22 84 22 3d 75 fa 56 3d ca 88 5c bd f9 85 2e 3a
       0.039676793 0.05248495 -0.05384139 0.0006657537
000030 dd d6 bb 3b e1 d0 33 bd 1c 52 30 3d a6 33 82 bd
       0.005732401 -0.043900374 0.043047056 -0.063575074
000040 b8 12 df bc ba 03 16 3d 60 2c 54 3b e7 6f cd bc
       -0.027230605 0.036624648 0.0032375082 -0.025077773
000050 4b 92 bb 3c 65 4b 97 bd 2e 7b 71 bd f0 01 63 3c
       0.022896906 -0.07387427 -0.058955364 0.013855442
000060 4e e7 60 3d 32 eb 7b bc ac 32 c9 bc f2 0a 7b bd
       0.05490809 -0.015375899 -0.024560295 -0.061289735
000070 33 cb 6d bd 29 cf 12 3d 26 61 d3 3c 5e 50 11 bc
       -0.058055114 0.035842095 0.02580316 -0.008869259
000080 90 dc ff 3b 05 b5 bd 3c 11 03 44 bd 65 a4 09 bd
       0.0078082755 0.023157606 -0.047854487 -0.033604044
000090 70 8a f6 3c 4e e2 24 bd 16 12 2c bd 30 1d ae 3b
       0.030095309 -0.040254883 -0.042009436 0.005313538
0000a0 9c 0d 70 3d 13 6d f3 3c f4 12 00 bd 90 49 de bc
       0.05860673 0.029715097 -0.031268075 -0.027134687
0000b0 4e c8 2f 3d 6c b2 6b 3d 76 71 10 3d 46 b4 55 bd
       0.042915635 0.057543203 0.035264455 -0.052173875
0000c0 78 36 28 3c f0 13 7d bd ec 4f b6 bc 4a 3e 9e ba
       0.010266893 -0.061786592 -0.022254907 -0.0012073007
0000d0 00 67 a5 3a 22 5d 67 3d 95 a0 3f bd 46 9e a5 3c
       0.0012619197 0.056485303 -0.046784002 0.020217072
0000e0 1d 14 bb 3c 04 0c b9 bc d8 45 6f bd 72 81 75 bd
       0.02283674 -0.022588737 -0.058416218 -0.0599379
0000f0 86 05 5a bd c9 8b e0 3c 4c 3d 6f bd b8 b8 cd bc
       -0.053227924 0.027410405 -0.058408067 -0.025112495
000100 6c 0f 50 bd 4e 2c 08 bd d0 15 e9 3c 6a 5a 20 3d
       -0.050795957 -0.033245377 0.028452784 0.039148726
000110 00 d8 a1 b8 58 3d ef bc ac d4 e3 bc e0 5d 8f 3c
       -7.7173114e-05 -0.029204056 -0.02781137 0.017500818
000120 8f 96 bb ba 7c 44 21 bc 18 70 aa bc d4 e2 3f bd
       -0.0014311838 -0.009842988 -0.020805404 -0.04684718
000130 de 51 50 3d 48 83 bf bc 89 0e 82 3c ac 7d 52 3d
       0.050859325 -0.02337803 0.015876072 0.05138938
000140 2d 3f 67 bd e0 e3 c2 bc d2 b6 08 bd 40 90 e8 bc
       -0.056456733 -0.0237903 -0.033377476 -0.028389096
000150 96 40 49 3d be 85 59 3d 18 68 72 3a b3 21 a3 bc
       0.04913386 0.053106062 0.00092470786 -0.01991353
000160 8a 56 3d 3d f4 db b1 bc 78 b2 20 3d ed 15 1d bd
       0.04622511 -0.021711327 0.0392327 -0.03835099
000170 e0 58 03 3d 82 5a 12 bd 9e 52 8b bd 50 5c 2e 3d
       0.03206718 -0.035730846 -0.06802867 0.042568505
000180 41 3d 56 bd 0c aa 89 bc 5e 4d 2f bd c8 25 dd bc
       -0.05230451 -0.016804717 -0.042798392 -0.026995555
000190 e3 8a 51 b8 41 8f 56 3c c4 9c bf bc cb 28 68 bb
       -4.995883e-05 0.013095678 -0.023390181 -0.0035424705
0001a0 59 ed 0c bd 08 f5 c9 bc e4 7e 5c bb 88 23 80 bd
       -0.03440604 -0.024652973 -0.0033644969 -0.06256777
0001b0 22 fc 70 3d a8 00 71 bd e3 0e a9 3c 60 41 57 bb
       0.058834203 -0.058838516 0.020636981 -0.0032845363
0001c0 3a 87 3d bb a6 dc 68 3d a0 e1 2e 3b 88 2f 9d 3c
       -0.0028919713 0.05685105 0.0026684776 0.019187704
0001d0 00 c8 03 bb 80 f0 5a 3a 5b 11 74 bd 85 12 83 3a
       -0.0020108223 0.00083518773 -0.059586864 0.0010000026
0001e0 5b b1 df 3c c0 3c 0f bb be d9 f9 3c 5c 51 db 3c
       0.02730625 -0.0021856278 0.030499335 0.026772194
0001f0 8a 68 35 bd a8 c4 54 3d 12 63 56 3d 10 fa cf 3b
       -0.04428915 0.05194536 0.052340575 0.0063469484
000200 d6 19 76 3d a3 0b 81 bd fe c8 5b 3c 5e d7 e6 bc
       0.060083233 -0.06301048 0.0134146195 -0.028178867
000210 7f 23 e6 b9 38 7c 81 3b d0 8d 74 3d 42 3f e5 3b
       -0.00043895465 0.0039515756 0.059705555 0.0069960663
000220 a0 7e 9d bc 10 fc 7b 3c 02 a2 80 bd 2f 6d 7a bc
       -0.019225419 0.015379921 -0.062809005 -0.01528482
000230 11 ae 39 bd e1 31 7c bd 3f 85 ce 3c a4 7e fb bc
       -0.04533202 -0.061571006 0.025210021 -0.030700035
000240 b7 ec e9 3b 5a 70 80 bd 58 ed 2f 3d 5e aa be 3c
       0.0071388143 -0.06271429 0.042950958 0.023274597
000250 4a 1a 1a 3d 60 3a f1 bc ec d3 08 bd 77 db 76 bc
       0.037622727 -0.02944678 -0.03340523 -0.015066973
000260 08 c3 0b 3d e0 5a 91 bb 6e 25 43 3d c9 ae 88 3c
       0.034121543 -0.004435882 0.047643118 0.016684907
000270 78 0b c4 3c 90 8d ae bb 98 44 c0 ba 68 00 0a 3d
       0.02393125 -0.005326934 -0.001466888 0.033691794
000280 57 e4 50 bd 1c 9b b3 3c 84 6d 74 3d 09 19 2c bd
       -0.05099901 0.021924548 0.059674755 -0.042016063
000290 f4 87 d0 bc 85 74 55 bd 50 e1 f0 bc d9 df 41 bd
       -0.025455453 -0.052113075 -0.029404312 -0.04733262
0002a0 c9 44 a8 3c 70 3a 21 3d 1a 96 7f bd 5c 67 75 bd
       0.020540612 0.03936237 -0.062399007 -0.059913024
0002b0 00 db bc 3a 70 ba 0f bd d6 ab 90 3c f4 17 f5 3c
       0.0014408529 -0.03508991 0.017660063 0.029918648
0002c0 de 2f 1c 3d 22 63 6f 3d 7e 09 ea 3c c0 05 fa bc
       0.038131587 0.05844415 0.02856898 -0.03052032
0002d0 b0 e2 96 3b d4 c4 1e 3d 99 fb 18 3d 00 72 3c bb
       0.00460466 0.03876193 0.037349317 -0.0028754473
0002e0 0a e7 0d 3d bc 71 1f 3d 4e b3 6b 3d 48 49 c4 bc
       0.034644164 0.038926825 0.057544045 -0.023960724
0002f0 3e b0 4b bd b0 93 8f 3c d4 ff 91 bc 69 3d d0 3c
       -0.049728625 0.017526478 -0.017822184 0.025419908
000300 29 52 62 3d 16 d9 1a bb 2e 7e df 3c 7a a5 8f 3b
       0.055254135 -0.0023627928 0.027281847 0.00438374
000310 2f a1 dd 3c d8 d9 69 bc 94 13 20 bd e0 02 0f bc
       0.027054397 -0.014273129 -0.03908117 -0.008728713
000320 84 f4 22 3d 40 00 4c bd 68 94 7f 3d b8 08 b0 bc
       0.03978397 -0.049804926 0.06239739 -0.021488532
000330 e6 23 75 bd e2 eb 57 3d cc 45 52 3d b4 a0 4d bd
       -0.05984869 0.05271519 0.051336095 -0.050202087
000340 00 99 8c b9 e6 43 52 bd c5 6b 17 bd 29 4f 18 bd
       -0.00026816875 -0.051334284 -0.03696801 -0.037184868
000350 4e 7c fb bc ab 1b f8 3c bf fc e9 bb 7c 16 7a bd
       -0.030698922 0.03028663 -0.0071407254 -0.0610566
000360 64 76 60 bd 2e c2 1d bd ba 8e 1b 3d 44 c9 d5 bc
       -0.054800406 -0.038515262 0.03797791 -0.026096947
000370 f0 3b 1b 3d f9 2e 90 bd e8 09 ca 3c df 90 fb bc
       0.037898958 -0.07040209 0.024662927 -0.030708728
000380 2e 32 1b 3c 33 c6 e5 3c 20 d3 12 3c 50 a9 5f 3d
       0.009472413 0.02804861 0.008961469 0.05460483
000390 44 d9 c5 bc d8 b4 14 3c 08 68 2f 3c 38 00 76 3c
       -0.024151452 0.00907632 0.010705955 0.015014701
0003a0 14 b0 5d bd b0 82 b9 bb 54 64 d3 bc 39 3c ee 3c
       -0.054123 -0.005661331 -0.025804676 0.02908145
0003b0 fb 00 1c bd f4 70 74 3d 31 e3 38 bd 62 c9 1f bd
       -0.038086873 0.059678033 -0.04513854 -0.039010413
0003c0 55 1b 93 bd 7e b8 77 bd 60 5d 5f bd 8d b7 c7 3c
       -0.071829475 -0.06047868 -0.05453241 0.024379516
0003d0 94 77 11 3d 00 88 40 b8 2c b2 4c 3d 61 33 4e 3d
       0.03551443 -4.5903027e-05 0.049974605 0.050341967
0003e0 a9 fd e4 3c a0 31 f2 bb 28 4b 3a bc 25 62 59 bd
       0.027952986 -0.0073911697 -0.011370458 -0.053072114
0003f0 00 68 87 39 1c ad 96 3c 41 55 89 3c 07 fc 43 bd
       0.00025826693 0.018393092 0.016764285 -0.047847774

fc2.bias f4 [256]
000000 28 25 af bd 4f c3 a4 bd 80 3d 8e bd 10 7e 8c bd
       -0.08552009 -0.08045065 -0.06945324 -0.06859982
000010 c6 b1 a4 be 20 6e 3d bd 5c cf 7f be f3 74 0f 3e
       -0.3216688 -0.0462476 -0.24981445 0.14009456
000020 36 c7 02 be ca c0 da bd 9b 8a 53 3e d9 2c ac bd
       -0.12771305 -0.10681303 0.20658343 -0.084069915
000030 e1 ca 87 3e 14 f0 40 3d 13 70 e8 bd b1 46 87 be
       0.26521972 0.047103956 -0.113495015 -0.2642112
000040 33 33 fb bd 2b 77 9f bd e8 df 72 3c 85 62 92 bd
       -0.12265625 -0.07786401 0.014823891 -0.07147697
000050 97 35 c9 bd cf c9 b1 bd e2 c0 3f 3e e9 00 91 bd
       -0.098246746 -0.0868107 0.18725923 -0.07080252
000060 d9 22 8e bd ed b9 7a bd 12 43 b1 3e a0 72 80 bd
       -0.069402404 -0.06121247 0.34621483 -0.06271863
000070 ff b7 34 bd ec 56 82 bd c4 a0 8c be 88 d3 a9 bd
       -0.044120785 -0.06364235 -0.27466404 -0.082922995
000080 73 de e0 bd 9f 14 3d 3d be fc cb bd f0 e5 83 bc
       -0.10979929 0.046162244 -0.09960316 -0.016100854
000090 f9 78 89 bc 12 59 b9 bd f5 2e 8f bc 38 e8 7e bd
       -0.016781317 -0.09050192 -0.017478446 -0.06223318
0000a0 20 a2 d1 bd 42 11 cd bd 43 68 05 be 29 43 c5 bd
       -0.10236001 -0.10013057 -0.13028054 -0.096319504
0000b0 d9 16 00 be 0c 94 1a bd 67 60 52 bd 3c 77 9f bc
       -0.12508716 -0.037738845 -0.051361468 -0.019466035
0000c0 42 ce 11 bd e9 ac 73 bd f9 0c eb 3d a0 84 78 bd
       -0.035597093 -0.05949107 0.11477084 -0.060673356
0000d0 cc e1 df bc 87 f7 c8 bd 34 be 58 bd b0 e8 67 bd
       -0.027329348 -0.09812837 -0.052915767 -0.056618392
0000e0 9a b3 8d bd 1b b3 ef bd 34 cd 32 be 49 ec b6 bd
       -0.06919022 -0.117040835 -0.17461091 -0.089317866
0000f0 c2 64 38 bd 6f 25 9a 3e 8c f6 aa bd cd 01 ec bd
       -0.045017965 0.30106685 -0.08347806 -0.11523781
000100 e5 c9 a1 bb a3 ee 30 bc 51 35 ad be 4a 8a 20 bd
       -0.004937398 -0.010799083 -0.3382974 -0.039194383
000110 59 bb 63 bd 41 8c 2a bd 3f a9 07 bc 22 9b 80 bd
       -0.05559859 -0.041637663 -0.0082800975 -0.06279589
000120 6c 38 78 bd 60 13 30 bd 84 81 f5 3d da e3 c8 bd
       -0.060600683 -0.042987227 0.11987594 -0.09809084
000130 6b 32 7c be 7a b7 b4 3e c3 c4 f4 bd 7c 95 9c be
       -0.24628608 0.35296232 -0.11951592 -0.30582798
000140 e5 69 54 bd 17 46 91 bd b2 67 dc bd e3 37 d1 bd
       -0.0518588 -0.07093447 -0.10761966 -0.10215738
000150 96 bb b6 bd 61 b1 38 3e a4 34 f6 bd d4 90 2f 3d
       -0.08922498 0.18036415 -0.12021759 0.04286273
000160 90 fc 0e 3f bd 48 cb bd e3 21 ab bd c6 cf 99 bd
       0.5585413 -0.09925983 -0.08356073 -0.07510333
000170 d3 47 28 bd 05 fb ce bc 43 5d 2c 3e e7 8c 44 bd
       -0.041084122 -0.02526618 0.16832452 -0.047985937
000180 37 98 e4 bd ba f2 a8 bd 88 c5 e9 bd e4 bd ea bc
       -0.11161845 -0.082494214 -0.11414629 -0.028655
000190 96 6e ff bd 11 18 08 be c5 3a c1 bd 8a f0 b3 bd
       -0.124722645 -0.1329043 -0.094350375 -0.087861136
0001a0 29 e8 b0 be 18 54 e3 bd 34 d6 01 be 92 0b 55 bd
       -0.34552124 -0.11100024 -0.12679368 -0.052012987
0001b0 92 d8 9e bd 9f bf 3a be d9 d4 f2 bd 50 bc 59 bd
       -0.07756151 -0.1823716 -0.11857004 -0.053158104
0001c0 d4 bc ae bd 1d 7b 9d be b0 77 28 be 4b 8d 05 be
       -0.0853211 -0.3075799 -0.16451907 -0.1304218
0001d0 ed 31 55 bd 9b d5 c2 bd f7 52 f1 bd 66 01 8e bd
       -0.052049566 -0.09513398 -0.117834024 -0.069338605
0001e0 77 65 85 bd 99 42 61 be 91 f2 25 3e b5 44 a3 bd
       -0.065134935 -0.21998061 0.16205813 -0.07972089
0001f0 7c 75 88 bd 2c 61 3c bd b8 05 bb bd 8e 93 cc bd
       -0.06663033 -0.045991108 -0.0913195 -0.09989081
000200 56 35 ec bd fa 07 f7 bc 39 71 05 bd 51 ba 03 3e
       -0.115336105 -0.03015517 -0.03257868 0.12864043
000210 b1 fc 2c be 09 da 3b bd ed bc ca 3d 0d 03 aa bd
       -0.16893269 -0.04586223 0.09899316 -0.08301363
000220 4b eb bb bd 8b f6 5b 3d de 77 e7 3c 22 22 ae bd
       -0.09175738 0.05370192 0.0282554 -0.08502604
000230 de 4c a1 bd eb 8c a2 bd 8e 6b 53 bb b6 48 e1 bd
       -0.078759894 -0.07937034 -0.0032260153 -0.11000197
000240 38 50 b8 bd f8 fa 28 3d 61 3a 92 bd d3 a1 41 3e
       -0.089996755 0.041254967 -0.07140041 0.18909387
000250 ee 9d 4f bd a0 fc 96 bd 90 33 ba bd f5 b3 f9 bd
       -0.050687723 -0.07372403 -0.09091866 -0.12192527
000260 46 10 93 bd fb a4 1a be 95 09 81 bd b8 f0 c7 bd
       -0.07180838 -0.15101998 -0.06300656 -0.0976271
000270 7d 6c 00 bd b4 c3 b7 bd 14 69 bb bc f8 3c b2 bd
       -0.031353462 -0.08972874 -0.022877254 -0.08703035
000280 2f 40 bc bc 51 e2 fe bd e7 fa c0 3d 8c 0b 86 be
       -0.022979824 -0.1244551 0.09422856 -0.26180685
000290 2f 12 d3 bd 29 b0 95 be 12 bd 93 bc 6b 04 bd bd
       -0.103062026 -0.29235962 -0.018034492 -0.09229358
0002a0 c1 7a 08 be 43 93 81 bd ad d0 92 bd 04 65 45 be
       -0.13328077 -0.06326916 -0.07168708 -0.19276816
0002b0 2c 5a b3 bd 77 22 82 bd 04 94 b0 bd a7 ab ac bd
       -0.08757433 -0.0635423 -0.08621982 -0.084311776
0002c0 e3 3f cc bd b5 39 af bd 19 97 06 bd 06 d4 03 be
       -0.09973123 -0.085559286 -0.03285894 -0.1287385
0002d0 6d ac 46 3e c1 7b a5 bd 4f 4a 70 bd 55 c2 bf 3d
       0.19401713 -0.08080245 -0.058664616 0.09363238
0002e0 b0 3b ab bd 2f 43 49 be 6a f5 7b be d7 ab cb bd
       -0.08360994 -0.19654535 -0.24605337 -0.09944885
0002f0 7d f1 7b bd dc 39 6d bd 15 c8 af bd 53 33 fe bc
       -0.061509598 -0.057916507 -0.085830845 -0.031030333
000300 ba 1d 74 be 26 e8 ed bd 4a 6d bf bd 58 e6 4c bd
       -0.23839465 -0.116165444 -0.09347017 -0.05002436
000310 4e e2 f2 bd 72 92 90 bd ac a0 70 bd 59 15 4a 3d
       -0.118595704 -0.07059182 -0.05874698 0.049336765
000320 6e 02 eb bd 67 57 c1 bd 9f ab 1d bd 4a 57 7b bd
       -0.11475073 -0.09440499 -0.03849375 -0.061362542
000330 bf 48 ec bd 4f 27 cf bd 36 91 8e bd ec cd 1f bd
       -0.11537313 -0.101149194 -0.069612905 -0.03901474
000340 10 c9 98 bd be 0e 51 bd ea 49 bf bd 8e dd 6e be
       -0.07460225 -0.05103945 -0.0934027 -0.23326704
000350 88 3b 3e be 84 df 9f bd 1d da ec bd d5 fc a3 bd
       -0.18577397 -0.07806304 -0.11565039 -0.08007208
000360 39 55 9b bd 7f 6e 2b bd 9f 1b ab bc d8 a5 a7 bd
       -0.07584614 -0.041853424 -0.020887194 -0.08185929
000370 ba 1d 71 3d 31 84 68 be 05 cc d0 bd 7a fd 2e be
       0.05886624 -0.22706677 -0.10195164 -0.17088881
000380 60 67 e1 bd cc e8 4e be f2 92 80 bd 0e b4 85 3b
       -0.11006045 -0.20205992 -0.062780276 0.004080302
000390 d3 be 91 bd 57 ac 3b bd be 0e a7 bd 69 38 c6 bd
       -0.07116475 -0.045818653 -0.08157109 -0.09678728
0003a0 8b b8 a5 bd 2b 22 34 bd 52 32 21 bc 2b 16 65 3e
       -0.080918394 -0.043977898 -0.009838657 0.22371738
0003b0 84 ce 36 bd c0 fb b8 bd 87 fb 91 3e 3b 64 ac bd
       -0.044630542 -0.090323925 0.28512213 -0.08417555
0003c0 9d 16 b0 bd 5f cd c7 3e 75 0f c5 bc ef 11 7c bd
       -0.08598063 0.39023873 -0.024055222 -0.06154054
0003d0 45 ec c6 3d 9f 26 ce bd ba 09 d2 bd 39 10 f6 bd
       0.097130336 -0.1006596 -0.102557614 -0.12014813
0003e0 db 49 a0 3e 20 a9 a4 bc bd bd 4f bd dd ad eb bd
       0.31306347 -0.020100176 -0.050718058 -0.11507771
0003f0 c1 c0 a3 bd 16 bc c0 bd 65 19 d9 bd bb b4 bf bd
       -0.07995749 -0.094108745 -0.10600547 -0.093606435

fc3.weight f4 [128, 256]
000000 42 2d dc 3c 72 dd 79 3d e6 cd af 3c 26 84 6c 3d
       0.02687705 0.061002202 0.021460485 0.057743214
000010 80 a9 8a bd 33 b6 32 bb 8b 09 af be d4 c3 c4 bd
       -0.06770611 -0.0027269244 -0.34186968 -0.09607664
000020 96 f2 5d be 4c a9 0a bd 39 6c a2 3c 0a 7a 88 bd
       -0.2167457 -0.03385286 0.019826995 -0.06663902
000030 3a dc 98 3e 82 ad 64 be 8c ea 69 3d b4 96 e0 be
       0.2985552 -0.22331813 0.057108447 -0.43864977
000040 e0 fe a2 3c 87 5d 73 3d a8 97 14 3d 73 bd 11 b9
       0.019896924 0.059415367 0.036277443 -0.00013898853
000050 a8 cb 2f bd a7 90 95 3d 3d 5f 34 3e 32 6c cb bd
       -0.04291883 0.07302981 0.17614456 -0.09932746
000060 03 40 e5 bb 2b 8f 2a bc af 42 b5 3e 90 0d a6 bb
       -0.006996156 -0.0104101105 0.35402438 -0.0050675347
000070 3c f0 97 bd 49 ae c2 bd 4b 8c 2d bf ee 43 9f bd
       -0.07418868 -0.095058985 -0.67792195 -0.077766284
000080 2b 80 64 bd 05 b1 4d bd 9d e6 41 bd 88 6e 5f bd
       -0.055786293 -0.050217647 -0.04733907 -0.05454877
000090 76 02 53 3c 20 92 95 bb ad f5 5d bd fe fa 32 bd
       0.012879005 -0.0045645386 -0.054189373 -0.043696396
0000a0 af fe 00 bd 30 ee 85 bd 23 7b 7e be 00 9a b8 3d
       -0.031492885 -0.06539571 -0.2485166 0.09013748
0000b0 76 1a 2b 3d 29 0b cd bc a3 da b7 3c d1 85 67 bd
       0.041773282 -0.025029736 0.022443121 -0.0565241
0000c0 e2 4c f5 3c a4 af f4 bc f0 0e e3 be 01 eb d4 bc
       0.029943887 -0.029868908 -0.44347334 -0.025990965
0000d0 d4 ba 68 bd 6e 50 9f bc 8a c7 9a bc f8 64 8b be
       -0.0568188 -0.019447532 -0.018893976 -0.2722547
0000e0 9b 40 08 3d d1 fb ab 3d 09 57 06 bf ac 74 91 3d
       0.033264738 0.083976395 -0.52476555 0.071023315
0000f0 f6 7a 92 3d c1 e7 a4 3d e1 43 1f 3d 15 24 25 bf
       0.07152359 0.08052016 0.038883094 -0.6450818
000100 a1 e3 82 bc 34 f5 46 bd 4c 95 c8 be 69 46 03 bd
       -0.015977683 -0.048573688 -0.39176404 -0.03204957
000110 9e c2 36 3c 85 4d 3a bd c4 6d 85 bd 1c 2f 65 bd
       0.011154799 -0.045484085 -0.06515077 -0.05595313
000120 68 0f c3 bd 36 99 16 bd 31 33 d0 3d 73 9f 97 3d
       -0.09524423 -0.036767207 0.10166014 0.074034594
000130 d8 8e 57 3e 0f 73 80 be e5 90 0f be df 62 c9 bf
       0.21050584 -0.25087783 -0.14020117 -1.5733298
000140 d2 b8 6e bc 9e 9d b8 3c 05 cc 41 3d 86 fe 63 3e
       -0.014570432 0.022536095 0.04731371 0.22265062
000150 6e 7e 3b bd ad c6 3d 3d 71 c2 c0 3d 67 04 d6 3e
       -0.04577487 0.04633205 0.09412087 0.41800234
000160 f3 71 b5 3c 00 ff 24 bd dc c0 75 3c 10 08 6a bd
       0.022149062 -0.04028225 0.014999595 -0.057136595
000170 da 3d be 3d d3 b2 81 3d 2e 84 a4 be 08 5c b9 3d
       0.09289141 0.06332936 -0.32132095 0.09050757
000180 c2 cf a9 bd de e5 ee bc 80 62 39 bd 0e 77 0f bd
       -0.0829158 -0.029162344 -0.045259953 -0.03502565
000190 60 db e1 3c 7b e9 8a 3d d1 d5 84 3d 6f 3f 8f bd
       0.027570426 0.06782814 0.06486095 -0.06994521
0001a0 a7 5a 4b 3e 40 80 ef 3d 52 64 25 3e 63 4a 7a 3d
       0.198588 0.116943836 0.1615155 0.061106097
0001b0 ea 60 8d bd c9 20 e5 bd 1a 19 b6 bd 14 83 0a 3d
       -0.069032505 -0.11187894 -0.088915065 0.033816412
0001c0 04 f6 a2 bd 99 ec e5 bf 97 ab d0 3b ba b2 2f be
       -0.0795708 -1.7962829 0.0063681114 -0.17158023
0001d0 73 23 23 be 9c 69 4c bd 17 98 9e 3d ad 22 83 bd
       -0.15931492 -0.049905404 0.077438526 -0.06403098
0001e0 01 bf 74 bb cd b6 62 be 5a 51 25 bd ed ff cd bc
       -0.0037345293 -0.22140045 -0.040360786 -0.025146449
0001f0 da 38 15 be 72 fb 77 bd 64 e9 a1 3d 6c 5a 85 bd
       -0.14572468 -0.06054253 0.07905844 -0.06511387
000200 61 4e 4a 3d 8f f4 17 3e 6e 54 89 3c 84 df 12 be
       0.049391154 0.14839385 0.016763892 -0.14343077
000210 4a 43 3c 3d 19 d1 c9 bd 77 1b 9e 3e 1f 4d b5 bd
       0.04596261 -0.09854335 0.3088033 -0.088526
000220 02 74 ed 3c c2 b1 c9 be c8 8e 5a 3d b7 b5 77 3c
       0.02898598 -0.3939343 0.053358823 0.015119008
000230 74 ef fa bc d8 19 40 bd f1 bd 1c 3c 9e 4b 24 bd
       -0.030631758 -0.046899647 0.00956677 -0.040111177
000240 ef ea 39 3d f0 df cf be 65 e2 90 3c 6a 32 1e bf
       0.045390066 -0.40600538 0.017686078 -0.61795676
000250 43 b9 1c be 48 05 d5 bc 9d 0b 99 bc be cc a1 bd
       -0.15305047 -0.026003495 -0.018682295 -0.079003796
000260 f0 1a d6 3c f3 e2 10 bf 1e e1 27 3d 87 9c 02 3c
       0.026135892 -0.565963 0.040986173 0.007971889
000270 cc d8 70 be 3f 41 c4 3d 38 3f a0 3d 92 47 af 3d
       -0.23520201 0.09582757 0.07824558 0.08558573
000280 8d 13 a7 3c de 89 a5 3d 61 25 8d be 87 1a 64 be
       0.020395065 0.08082937 -0.2756758 -0.22275744
000290 56 6d 9e bd 7b 55 65 be 62 2c 4e 3e c5 7c 29 bd
       -0.07735698 -0.2239589 0.20134118 -0.041378755
0002a0 dc 18 a0 3e ad b4 76 3d b4 c8 54 bc b7 1c 30 be
       0.31268966 0.0602309 -0.0129873045 -0.17198454
0002b0 0d be e9 bd 7c b3 b8 bd cb 07 4e bd a2 aa 1b bd
       -0.114132024 -0.09018609 -0.0503004 -0.038004525
0002c0 74 9f ab 3c 02 0c e1 3d ce c0 54 3d dd 73 a4 3d
       0.020950057 0.109886184 0.051941685 0.08029912
0002d0 71 5a ad 3e e4 6c 0a bd 74 d9 c7 bd 2b 8f f3 bc
       0.33858064 -0.033795252 -0.09758273 -0.029731354
0002e0 3f 54 75 3d 2d 00 87 bf f7 fb ee be 7b a6 13 bc
       0.059894796 -1.0546929 -0.4667661 -0.00901186
0002f0 a0 2b 03 3e 56 89 b7 bd ae c1 7e bd 33 ed e1 3c
       0.1280961 -0.089617416 -0.062196426 0.027578926
000300 79 40 b6 bb 1a 0c c9 bd 3b 7f b3 bd a6 d1 85 3d
       -0.005561885 -0.09816761 -0.08764502 0.06534128
000310 38 d2 73 bd 6a ce 68 bc 90 a5 29 3d 0d 00 c1 3d
       -0.059526652 -0.014209369 0.04141766 0.09423838
000320 f0 2f 95 bd be 02 d5 3c aa 33 71 3d 1b 87 aa 3a
       -0.07284534 0.026002284 0.05888716 0.0013010235
000330 02 ed 33 3d 7b 92 26 3d a0 36 a1 3d c1 19 10 3d
       0.0439272 0.04066704 0.07871747 0.03518081
000340 43 08 fc bd 84 46 46 bd 44 7d 8b 3d e8 63 b5 be
       -0.12306263 -0.048407093 0.06811002 -0.35427785
000350 14 22 65 bf 8b 50 3c bd 9b 4c e3 3d 67 ee 2a be
       -0.89505124 -0.04597525 0.11098596 -0.16692506
000360 9a d1 55 bd 2c bb 25 3d 10 91 14 bd 39 65 1d be
       -0.052201845 0.040461704 -0.036271155 -0.15370645
000370 4d b3 07 be 8b 45 00 be 65 6d a0 bd 16 4f 50 be
       -0.13251992 -0.12526529 -0.07833365 -0.20342669
000380 e0 4a 7f bd d2 13 97 be 9f d9 b1 bd 2c 01 d7 be
       -0.062327266 -0.2950731 -0.08684086 -0.41993082
000390 e5 2e 19 bc f7 25 68 be b8 b0 ec bc da 93 2e 3d
       -0.009349559 -0.22670732 -0.02889286 0.04262147
0003a0 45 1a 16 be 7a ed 24 3c f2 db 45 bc 49 38 8f be
       -0.14658459 0.010066384 -0.012076365 -0.2797263
0003b0 e0 d8 d9 bc 79 3a 55 3c 42 8e 53 3d 93 39 87 bc
       -0.026592672 0.013014429 0.05164934 -0.016506946
0003c0 e6 ec 54 bd d8 5d ed 3e 59 67 85 3c f0 b1 c5 bd
       -0.051983736 0.4636066 0.016284632 -0.096530795
0003d0 6f 57 05 3e f6 ba 88 bd ff f0 8b bd 74 04 8e 3d
       0.13021635 -0.06676285 -0.06833076 0.06934443
0003e0 ac 7f 34 be 75 eb 09 be 38 95 86 3d 5c 3e d8 bd
       -0.17626828 -0.13468726 0.0657143 -0.10558769
0003f0 20 02 fa bc dd 25 d6 bc a5 b0 04 be 25 00 5f 3d
       -0.030518591 -0.026141101 -0.1295801 0.054443497

fc3.bias f4 [128]
000000 8a 40 35 3e ac e9 d9 bd 54 6b 07 be bf 58 32 be
       0.17700401 -0.106402725 -0.13224536 -0.17416666
000010 7a 28 85 3e 1a bc ce 3d e7 54 da be 1f e0 f4 bd
       0.26007444 0.10094471 -0.426429 -0.1195681
000020 49 7b 6d 3c d2 45 15 be 24 af a7 bd 79 87 12 be
       0.0144947255 -0.14577416 -0.08187702 -0.14309491
000030 32 fd 26 3d 9a 22 48 3d ba 73 5a be 9d aa 23 be
       0.04076881 0.048861124 -0.21333209 -0.15983053
000040 59 e0 df bd 1b cb 19 be 18 67 fc bd 33 c7 18 be
       -0.10931463 -0.15018885 -0.12324351 -0.14919738
000050 d8 a3 8f be bf 80 22 be 52 38 26 be 58 41 8c bd
       -0.2805469 -0.15869425 -0.16232422 -0.06848401
000060 19 0a c4 3d cd 11 36 be f6 db d7 bd 96 96 14 be
       0.095722385 -0.17780228 -0.10540001 -0.14510569
000070 df eb 0b 3d 6b 27 e8 bd 3b 06 8d 3e 13 93 86 3d
       0.03416049 -0.113356434 0.27543816 0.06571021
000080 dd da 39 be 9d a0 d6 3d 57 aa 9f bd 4e 77 03 be
       -0.18149896 0.10479853 -0.077961616 -0.1283848
000090 91 af 8d bd d7 90 34 be c4 8e 97 bd 44 fc 07 3e
       -0.06918252 -0.17633377 -0.07400277 0.13279825
0000a0 87 39 c7 bd f8 0a 60 bd 7c 77 2c be 85 a9 b1 bd
       -0.09727769 -0.05469796 -0.16842455 -0.086749114
0000b0 fd af 9b bd e8 b3 ea 3b 90 8b e0 bd 5e 71 09 3e
       -0.076019265 0.00716256 -0.109641194 0.13422152
0000c0 da 80 96 bd e5 4f 82 bd ac a0 30 be bc e6 20 be
       -0.07348795 -0.06362895 -0.17248791 -0.15713018
0000d0 ae b7 4b be ee 9e 18 be dd 25 41 be a1 94 77 bd
       -0.19894287 -0.14904377 -0.188621 -0.060444478
0000e0 42 35 91 3e 8e bf d7 bd 89 90 8b bd 7c 9d 0d 3d
       0.28360945 -0.10534583 -0.06814677 0.034574017
0000f0 4b 7f 75 bd a8 8f bd bd 39 54 04 be ee 28 ec bd
       -0.05993585 -0.09255916 -0.12922753 -0.11531244
000100 9a 61 dc bd 8c 68 22 be aa 1e 3f bc c4 37 27 be
       -0.107608035 -0.15860194 -0.011665026 -0.16329867
000110 dd 86 e3 bd 2e c0 09 be 9f 09 18 be 3e f5 5e bd
       -0.111097075 -0.13452217 -0.1484742 -0.0544331
000120 e9 33 db 3d d8 dd 3c bd f8 30 69 3e 7e 4b 01 be
       0.107032605 -0.046110004 0.22772586 -0.12626454
000130 56 c2 62 3d b2 eb 04 be fe 31 87 3e 55 1a 2b bd
       0.055361114 -0.12980536 0.2640533 -0.04177316
000140 77 92 1b be 72 46 21 be 86 6c 44 3e c1 43 87 bd
       -0.1519259 -0.15749529 0.19182023 -0.0660472
000150 b1 bc fc bd 65 77 18 be 5f db bd bd 9d 99 c9 bd
       -0.123406775 -0.14889295 -0.09270357 -0.098437525
000160 49 5d b2 bd ea 3c c1 bd 47 65 79 bd c7 cf cf bd
       -0.08709199 -0.094354466 -0.0608876 -0.10147052
000170 02 9e 64 3e 1a f9 11 be fb cf ab bd 13 63 a5 3d
       0.223259 -0.14255181 -0.083892785 0.080755375
000180 55 16 ca bc 29 35 6f bd 47 e1 76 3c 58 3f c8 3d
       -0.024668852 -0.058400307 0.015068359 0.09777707
000190 6a 4e 01 be 0b 85 d0 be fc bf 3d be 82 9e 0a be
       -0.12627569 -0.40726504 -0.18530267 -0.13537028
0001a0 0e 6b 90 bd 11 2d c8 bd 39 91 c5 bd fc c8 39 3e
       -0.07051669 -0.09774221 -0.0964684 0.18143076
0001b0 11 ed 3f be 5b 1e 1e be 63 dd 9d bd fc a6 fe bd
       -0.18742777 -0.15441267 -0.07708242 -0.124341935
0001c0 0d fc ee bd c6 62 18 be 65 1d 34 bd 65 75 e0 bd
       -0.116691686 -0.14881429 -0.043973345 -0.10959891
0001d0 9a 38 be be d5 80 40 3e 47 b9 be bd fd 6f 40 be
       -0.3715256 0.18799146 -0.093126826 -0.1879272
0001e0 b6 e6 9c 3d 5b f5 59 be b1 9a 10 bd 49 81 31 bd
       0.07661192 -0.21285002 -0.035303775 -0.043336187
0001f0 a5 f0 37 be 3d e1 20 be d7 e3 09 be b3 b8 50 be
       -0.17962892 -0.15710922 -0.1346582 -0.20382957

fc4.weight f4 [1, 128]
000000 cc 6a 98 3d 3c 5e 81 bc 81 8d 22 3c f6 4d 1f bd
       0.07442245 -0.015792005 0.0099214325 -0.03889271
000010 62 59 b8 bd 1e 09 84 bd ae 0a 8b bd 30 ff ea 3a
       -0.090014234 -0.064470515 -0.06789146 0.0017928835
000020 13 39 28 bd 28 45 8f bd 37 20 fb bb 28 b8 de 3c
       -0.041070055 -0.069956124 -0.0076637524 0.027187422
000030 28 39 6f 3d f7 cc 3e be a4 a6 1f bd bb 9a 82 3c
       0.058404118 -0.18632875 -0.03897728 0.015942922
000040 1d 50 bc 3c 4a 44 30 3c 53 74 54 bc 7c 49 44 bb
       0.02298742 0.010758469 -0.012967187 -0.0029951027
000050 85 f1 ca bd cc 4d ec bc 8c 83 43 3b b9 c3 41 3b
       -0.099093474 -0.02884569 0.0029833047 0.0029566123
000060 07 c3 e7 bd a5 6a cd 3b 2c 64 96 3c ea a5 81 3e
       -0.113164954 0.0062688165 0.018358313 0.25321895
000070 07 69 1e 3e 88 94 9c bb 57 8a 57 3d a0 8c a6 bd
       0.15469752 -0.0047784485 0.052622166 -0.08132291
000080 ee cc 9a 3b f8 f8 3f 3d 0f e7 2c 3b bb 95 a3 3c
       0.0047241366 0.046868294 0.002638284 0.019968858
000090 bb 88 cb 3d 90 37 a4 bc 34 93 b5 bc 83 f9 fa 3c
       0.09938189 -0.020046026 -0.022164918 0.030636555
0000a0 b6 7c 86 bc 23 4d 18 3d 42 b2 af bd 16 5b 65 3c
       -0.016416889 0.03718294 -0.08578922 0.013998767
0000b0 af 6c b6 bd 67 71 a5 3d 46 6c 0f be d9 3c d4 3d
       -0.089074485 0.080782704 -0.14006147 0.10363168
0000c0 bc 13 c4 bc b5 29 c5 b9 8e 59 93 3c 2b 71 c5 3c
       -0.023935191 -0.00037605842 0.017987039 0.024101814
0000d0 bd bf 36 3d cb 74 a9 3c b1 31 93 3d f8 09 80 3c
       0.04461645 0.020685574 0.07187212 0.015629753
0000e0 08 09 c7 bd 44 27 58 bc dc b6 86 bc 55 06 2b 3d
       -0.097185194 -0.013192955 -0.016444616 0.041754086
0000f0 90 41 02 bc 33 98 32 3c 73 c7 8a bc cc 96 cf ba
       -0.007950202 0.010900545 -0.016940808 -0.0015837788
000100 5d 5e d9 bc 17 e2 90 3c 35 6e 99 be b1 34 84 bc
       -0.026534254 0.017685933 -0.29966894 -0.016138406
000110 00 45 c6 3c 3c c5 49 bd 84 be 20 3c a4 be e0 bb
       0.024202824 -0.049260363 0.009811047 -0.0068586636
000120 52 cf cb bd 45 69 30 3c e3 75 6f 3d be 4e 02 3c
       -0.099516526 0.010767286 0.058462035 0.007953344
000130 c3 4a 99 bd c2 74 13 3e 46 35 31 3d c7 f1 c8 3c
       -0.07484963 0.14400008 0.043263696 0.02452935
000140 a0 26 43 bc 1b ff 63 bc 7f d0 53 be 86 2b 1a bc
       -0.011911064 -0.013915802 -0.20685004 -0.009409791
000150 de f4 81 3c f5 5d c6 3c 1a 69 dc bb 64 0a 90 3c
       0.015863832 0.024214724 -0.0067263963 0.01758308
000160 dd 70 e8 3c 17 0f ae 39 a7 dd ac 3c 92 27 62 3c
       0.02837413 0.0003319911 0.021101786 0.01380338
000170 18 76 2c 3d e3 85 42 bc d8 d1 66 3d 72 25 15 bd
       0.04210481 -0.011872741 0.056352466 -0.036412664
000180 25 8d 2a bc 77 31 6d bb 86 aa 6f 3d 31 dd 8c bd
       -0.010409628 -0.0036192813 0.058512233 -0.068781264
000190 17 32 99 3c 81 83 b5 3d fd 4d 5f bc d3 ce ff 3c
       0.018700643 0.08862973 -0.013629434 0.031226551
0001a0 7c 8b 9b bb 33 4e 9a 3c f1 a3 8f bc a5 8f 3e bd
       -0.0047468524 0.018836116 -0.017534228 -0.04652371
0001b0 4a 8c ba 3c 21 92 b1 3c 03 9f 0a be 44 ff 65 3c
       0.022771973 0.021676125 -0.1353722 0.014037911
0001c0 2e a5 29 bc 4b 5b e3 3b ee f7 52 3b 49 4e 0a 3c
       -0.010354323 0.006938373 0.0032191235 0.008441516
0001d0 c0 51 11 3e 8f da 87 3d 6d ff 4e bb 94 c3 0d 3c
       0.14191341 0.066334836 -0.003158535 0.0086525865
0001e0 1e 48 98 be 9f 20 97 3d 86 fb 02 be b1 97 6e 3c
       -0.2974252 0.07379269 -0.12791261 0.014562533
0001f0 e1 46 f0 3d e0 99 a3 bd 02 13 01 3c 87 32 72 3b
       0.11732269 -0.07988334 0.007878067 0.0036956386
