multi_agent/checkpoints/Multi_checkpoint_actor_30_20_target_2500_run1.pth (torch, 29087 bytes, 4 tensors)

fc1.weight f4 [256, 24]
000000 d0 82 19 be 05 eb c5 be ad 60 c7 3d f3 7e 03 bf
       -0.14991307 -0.38655868 0.09735236 -0.51365584
000010 7c 47 32 bd 61 a6 84 3e 6d 2c c9 3d ec 87 10 bf
       -0.043525204 0.25908187 0.09822927 -0.564574
000020 5d 38 e0 bc 73 d2 c7 be c2 33 1a 3e c6 77 91 be
       -0.027370626 -0.39027748 0.15058807 -0.28411692
000030 4c ed dd 3c fc a3 62 3d b5 d8 28 3e 11 9f 9e be
       0.027090691 0.05533217 0.16488917 -0.30980733
000040 95 97 39 bd 3a c2 ad be 3a 42 62 3d 71 ae dd 3d
       -0.045310576 -0.33937246 0.05523894 0.10824288
000050 1a 25 31 3e 8e 9d 87 bd 14 55 11 3d 80 d4 2a 3e
       0.1729931 -0.06621848 0.035481527 0.16682625
000060 7a 89 11 be 25 56 06 bf e4 16 b7 bd 0e ce 5b be
       -0.142126 -0.52475196 -0.08939913 -0.21465322
000070 6b c4 76 bc ae 4b f7 3e 9a 51 44 be 51 48 25 be
       -0.015061478 0.48299927 -0.19171754 -0.16140868
000080 36 81 a9 bd ec a8 e2 be df 1b 31 3e 9f 7f 97 3c
       -0.08276598 -0.44269502 0.17295788 0.018493472
000090 8d 8e ec 3b 67 21 7f 3e 1e e1 67 3e e3 87 17 bd
       0.007219142 0.24915086 0.22644469 -0.036994826
0000a0 cd f7 22 3d 1e 12 51 be c7 dd cd bd 31 23 b6 bd
       0.039787102 -0.20417067 -0.10052066 -0.08893431
0000b0 46 44 51 be b8 f9 6d bd 50 9e 83 bd 15 ef bc bc
       -0.204362 -0.05809948 -0.0642668 -0.023063222
0000c0 0b 13 ed bd ab 2e 51 bf b8 f1 5e 3d c8 db a9 be
       -0.11575898 -0.81711835 0.05442974 -0.33175492
0000d0 2a 33 8c 3e 14 b0 ae be 29 52 bb bc 12 70 a4 be
       0.27382785 -0.34118712 -0.022866325 -0.32116753
0000e0 79 80 cd bd 2c d2 50 bf e4 53 d9 3b c4 e3 95 bb
       -0.1003427 -0.81570697 0.006632315 -0.004574271
0000f0 06 04 b8 3e a4 cb 04 bf 09 67 ae bd 31 cd 61 bc
       0.3594057 -0.5187323 -0.08515746 -0.013781832
000100 04 65 8b bd 00 74 2f bf 7c d8 7b bc 4f ff 38 3e
       -0.068063766 -0.68536377 -0.015371438 0.18066142
000110 dd 51 0f 3f ec 42 80 bf f6 70 f8 bc f6 8c 0a 3e
       0.5598429 -1.0020423 -0.030327301 0.13530335
000120 e8 b0 ac be ae bf ec 3e e7 bc 91 3d d4 66 04 3f
       -0.3372872 0.4623999 0.071161084 0.51719403
000130 0b 4a d0 bd 83 cd d3 be 0c e6 c7 3d 8b 88 08 3f
       -0.101703726 -0.4136773 0.09760675 0.5333335
000140 77 81 33 be dc ad 24 3f b6 0a 15 3e ca 91 9f 3e
       -0.17529856 0.6432779 0.14554867 0.31165916
000150 7a a0 1c 3d ac f4 31 bf 17 c5 15 3e 00 e9 b4 3e
       0.03823898 -0.69513965 0.14625965 0.35334015
000160 1a 1b a3 bd d5 66 23 3f d9 bc 29 3e ab d4 09 3e
       -0.079641536 0.63828784 0.16575946 0.13460033
000170 6b 76 3c 3e 65 d4 91 bf 98 21 61 3e 54 bd 57 3e
       0.18404548 -1.1392943 0.21985471 0.21068317
000180 90 48 5a bc 4f 99 79 bc 14 cb 20 bd 80 4c 9c bb
       -0.013322964 -0.0152343055 -0.03925617 -0.0047698617
000190 f2 45 6a bd 9c 09 2d 3d bc d4 5c 3d d0 8d 88 3c
       -0.05719561 0.042245492 0.053913817 0.016669184
0001a0 ba 1d 72 3d da f2 00 3d 26 b2 29 3d f6 72 6c 3d
       0.05911038 0.0314816 0.04142966 0.057726823
0001b0 34 02 30 bd c0 ac a0 bb d8 59 c0 3c d4 0b 89 bc
       -0.04297085 -0.004903406 0.02348034 -0.016729273
0001c0 a0 98 35 bd c0 c3 a0 bc 73 cf fd bc 5c 93 b3 bc
       -0.044335008 -0.01962459 -0.030982709 -0.021920852
0001d0 46 05 43 bd 9f 71 9a bc 24 af 12 3d 4c b8 e0 bc
       -0.04761245 -0.018853007 0.03581156 -0.02743163
0001e0 4e 2a 35 3d 8b 2e 2d 3e 56 43 42 bd b2 d1 0f bf
       0.044229798 0.16912286 -0.047427498 -0.56179345
0001f0 de c1 bd 3c 78 f5 b4 be 6f f8 9c 3c c8 ad 0e bf
       0.023163732 -0.35343528 0.019161431 -0.5573392
000200 56 d1 6f 3c df bc d3 3d d0 9b 27 3e 36 41 43 bf
       0.014637312 0.10338759 0.16368032 -0.7627138
000210 b4 f5 9f 3c 01 1c 8b be 43 b6 37 3e 39 f3 43 bf
       0.01952634 -0.27169803 0.17940621 -0.76543003
000220 04 f4 2e 3e b7 e1 39 3e dc 4a 66 be 7a 18 12 bf
       0.17085272 0.1815251 -0.22489494 -0.570686
000230 63 d5 1c 3c bf 73 64 be f9 76 14 be 2b 48 10 bf
       0.00957236 -0.22309779 -0.1449851 -0.5636012
000240 8a 95 e0 3d 96 05 85 bd d2 69 94 bd 20 e2 5f 3e
       0.10966022 -0.06495206 -0.07246746 0.21863604
000250 47 01 0d 3d aa 89 e7 3e da 62 24 bd 85 fe 2c 3e
       0.034425046 0.45222217 -0.040133335 0.16893966
000260 fc c9 e1 3d 5a 3f 3b 3c d3 8b 46 bd fa 67 07 3d
       0.110248536 0.011428678 -0.04847319 0.033058144
000270 b2 e4 7e bd e6 da 05 3f f6 71 02 bd df 70 98 3d
       -0.06222982 0.5228714 -0.031846963 0.074434035
000280 6f 18 81 3e 40 fd 39 3e dc a9 0e 3d e0 87 74 be
       0.25213954 0.18163013 0.03482996 -0.23879957
000290 cd 5b f7 be 07 d9 04 3f 68 3a a0 3d 4e d2 65 be
       -0.48312226 0.5189366 0.0782364 -0.22443506
0002a0 a4 6c ee 3d 1a 24 1f 3e 33 e2 00 3d 19 67 fe 3d
       0.11641815 0.15541115 0.03146572 0.12422008
0002b0 24 0e 0a be 84 c9 1b be 96 0d 79 ba 7b 19 bc 3d
       -0.13481957 -0.15213591 -0.00095006207 0.091845475
0002c0 22 1b 4b 3e cd fa f2 3d 76 6f 7a 3d 0f c3 83 bd
       0.19834569 0.11864243 0.061141454 -0.06433689
0002d0 5e 34 6d be ff e0 95 be f6 57 ba 3d c5 94 8f 3c
       -0.23164508 -0.2927322 0.090988085 0.017526994
0002e0 22 c4 70 3e a1 97 18 3e cd 88 b9 3d 8c 44 b6 be
       0.23512319 0.14901592 0.09059296 -0.35599172
0002f0 04 06 88 be 20 37 14 bf 43 12 9c 3d 67 3a bd be
       -0.2656709 -0.57896614 0.07620671 -0.3695862
000300 19 20 3b be 55 66 08 bf 65 18 29 3c a2 e2 c8 3c
       -0.18273963 -0.53281146 0.0103207575 0.02452213
000310 01 99 87 3c 50 a7 60 3f 3f ea bf bd f9 14 a2 3a
       0.01655245 0.877553 -0.09370851 0.001236587
000320 b8 f0 04 be 55 76 11 bf 72 66 df bd cd e4 bb bc
       -0.12982452 -0.56821185 -0.10908212 -0.02293625
000330 ab 3d 95 3c 55 bc 64 3f e0 9e 75 bd f9 76 f7 bb
       0.018217882 0.8934987 -0.059965968 -0.0075520244
000340 02 b4 95 3d 17 fd 29 be d7 19 ad bd 83 81 b5 ba
       0.073097244 -0.16600452 -0.08452194 -0.0013847802
000350 0d ed ca be 51 b7 df 3e 41 7f e7 bd a1 bc a4 3d
       -0.3963398 0.43694547 -0.11303569 0.080437906
000360 27 41 46 be 46 c3 cb 3e 00 85 fc 3d c8 58 bf 3b
       -0.19360791 0.3979742 0.12330055 0.005839441
000370 00 7e 10 be 35 1b e5 be bf 5b 72 3e 16 43 ab ba
       -0.14110565 -0.4474732 0.23667811 -0.0013066258
000380 be a6 36 be 73 6a 92 3e 9e 5b 85 3d 42 62 45 be
       -0.17837045 0.2859684 0.06511615 -0.19275764
000390 57 66 3a be 84 18 00 bf e9 23 f2 3c 2a 2a 84 be
       -0.18203102 -0.5003741 0.029558139 -0.2581342
0003a0 27 cf 72 be fd 08 87 3e 45 cf f7 bc e8 20 05 be
       -0.23711835 0.26374045 -0.030250201 -0.13000834
0003b0 0d 13 ff bc be ec 8e be b8 86 f1 39 3a f6 f5 bd
       -0.031137014 -0.27914995 0.00046067475 -0.120098546
0003c0 f9 20 c3 bd 89 68 c7 be 3b b3 15 3c 85 e3 cd 3d
       -0.095277734 -0.38946941 0.00913697 0.100531615
0003d0 16 e4 02 be fe be 27 3f 87 13 3e bc 5a 76 bc 3d
       -0.1278232 0.65525806 -0.011601335 0.09202261
0003e0 40 33 b7 bd 09 d2 ef be c6 14 3f bd 27 47 12 3d
       -0.08945322 -0.46839932 -0.04665067 0.035712387
0003f0 ea e8 30 be 58 e8 57 3f b3 23 c0 bd 93 19 2f bc
       -0.1727635 0.84338903 -0.09381809 -0.01068725

fc1.bias f4 [256]
000000 63 7d 62 bc 63 83 75 3c ac 7b 9e bd 01 68 b2 3c
       -0.01382384 0.014984938 -0.07738432 0.021778109
000010 17 bc 4f be 81 65 44 bd f0 f8 aa 3d e4 7d 29 be
       -0.20286594 -0.047948364 0.08348262 -0.1655193
000020 7c 55 c4 3c dd 1a 8d 3e 8c 36 74 bb 22 c7 76 3e
       0.023966543 0.27559558 -0.0037263958 0.240994
000030 8c e0 d8 3c dc 9a f6 3d 2b bd 8d 3e 09 21 72 3d
       0.02647426 0.12041256 0.27683386 0.059113536
000040 b0 52 51 3d cc 7d 6c be 0e 9e 3d be 0c ea 2c 3d
       0.051104248 -0.23094863 -0.18517324 0.042215392
000050 2c 12 58 3e ae 62 77 3d 59 38 d9 3d 42 1b c0 bd
       0.21100682 0.060396843 0.106064506 -0.09380199
000060 06 88 4c 3d a5 d8 10 3e dc 9a 23 be 74 a3 7b 3e
       0.04993441 0.14145143 -0.15977043 0.24574071
000070 44 90 95 3b ce 6a 1d 3d c8 dc 70 3e ab 29 ba 3d
       0.004564317 0.038431935 0.23521721 0.09089979
000080 3d a1 46 be d4 96 08 3e 7b 68 5e 3e ef 0b 3e 3d
       -0.19397445 0.13338786 0.21719544 0.0463981
000090 a0 b3 33 3e 1c 53 b1 bc 02 30 16 be 48 1a cc 3d
       0.1754899 -0.021646075 -0.14666751 0.0996595
0000a0 58 7e b2 3d cd 1f 71 3e fd 28 9a 3e 63 70 4a be
       0.087155044 0.23547287 0.30109397 -0.19769435
0000b0 48 20 70 3e da 73 1e 3d d5 5c 12 be 2e f8 72 3e
       0.23449814 0.038684703 -0.14293225 0.23727486
0000c0 7f 95 23 be 22 42 d7 bd 90 41 31 bd b0 1d a8 3c
       -0.15974997 -0.10510661 -0.043275416 0.020521969
0000d0 ef b7 1a be 17 f9 30 bd da d8 9d 3e ad 10 61 3d
       -0.15109228 -0.0432063 0.30829507 0.054947544
0000e0 25 a5 26 3e 29 d8 12 3e c8 89 68 3d 28 1a af 3c
       0.16273935 0.14340271 0.056772023 0.021374777
0000f0 6d fe 1c be 0b 49 50 3e 45 4d 23 be a5 61 93 3b
       -0.1533143 0.20340364 -0.15947445 0.004497724
000100 65 f4 d4 bd d0 3b 6c 3c 51 f7 72 3d fa b6 bc 3a
       -0.10398177 0.014418557 0.05931789 0.0014397793
000110 4e 9f f8 bd 1b 42 be bd 93 6a 72 3e 6d 57 97 3d
       -0.1213976 -0.09289952 0.23673467 0.07389722
000120 ea a4 87 3e 1e 71 07 3e 0c e8 4f be 87 eb 50 be
       0.26493007 0.13226745 -0.20303363 -0.20402347
000130 4e f5 fa 3c c4 81 31 3c 57 ca 1d 3e 9d 42 e9 bc
       0.030634549 0.010834161 0.15409218 -0.028474147
000140 4b 76 ef 3d 86 94 67 3d 3e 32 8d 3d bb 33 6a 3d
       0.116924845 0.056538127 0.068943486 0.05717824
000150 ae 50 6f bd 8b f5 0c 3d b6 bc 3b 3b ff 04 14 3e
       -0.05842655 0.034413856 0.0028646416 0.14455031
000160 1f bb 21 be 3d de e5 3d 22 1e c4 3d 4b a4 fa 3d
       -0.15794037 0.11224029 0.0957606 0.12238368
000170 5a 86 aa 3d 07 60 95 ba 48 3d 8e 3e 9d 10 2e bb
       0.08326407 -0.0011396416 0.2778113 -0.0026560195
000180 6c 6b 04 bc d8 b9 2c 3e 76 cb 07 3c 8a 6a 9b 3d
       -0.008082252 0.16867769 0.008288255 0.0758868
000190 6b c0 4e be e4 6d 5a 3e 14 ec 2a be b8 c8 33 3e
       -0.20190589 0.21330982 -0.16691619 0.17557037
0001a0 98 91 20 3d 66 c9 0d bd 58 09 b0 bd e8 b9 cf 3a
       0.03920135 -0.034615897 -0.08595532 0.0015848251
0001b0 33 31 04 be 52 5b 98 bc 7d c6 1f 3e 6b ec 60 3e
       -0.12909393 -0.018598232 0.15603061 0.21965186
0001c0 be 84 e2 3d 91 05 24 3c 55 2e fb 3d 3e d7 8c 3c
       0.11060475 0.010011093 0.122646965 0.01719248
0001d0 eb e9 25 be 9c 89 1e be e2 52 02 3e b6 06 47 3d
       -0.16202514 -0.15482181 0.1272693 0.048590384
0001e0 dd 17 41 3d df e9 de 3d 3c 74 35 bd cb 11 30 bc
       0.0471419 0.10884451 -0.044300303 -0.01074643
0001f0 17 1b 7a bd 29 b4 97 3d 0e 9f f5 3d c5 c9 f7 3c
       -0.06106099 0.0740741 0.11993228 0.030247578
000200 93 52 69 be ff 0f 25 3e 51 ee 5e 3e 5c ff ea 3d
       -0.22785406 0.16119383 0.21770598 0.11474487
000210 45 a9 a6 3d 00 37 96 3d 13 c4 6f 3d 2c b4 d7 b7
       0.08137754 0.07334709 0.0585366 -2.5713896e-05
000220 98 8d ab bd 15 93 12 bd 8e af f5 3d 56 45 a1 3d
       -0.08376616 -0.0357848 0.11996375 0.07874553
000230 be de 3e 3d b9 af 3b 3d b0 70 6d 3e c5 30 35 3e
       0.046599142 0.04582188 0.23187518 0.17694385
000240 73 4f 51 3e f3 33 d0 3d 23 b4 98 bc 80 33 16 3e
       0.20440464 0.101661585 -0.018640583 0.14668083
000250 1a 4c 87 bd b3 1d 9c 3d 59 6c 7a 3d 12 10 8a 3e
       -0.06606312 0.07622852 0.061138485 0.26965386
000260 6d e4 09 3d ee 0c a8 3c 0c e1 d2 3d 40 02 13 3e
       0.03366511 0.020513978 0.102968305 0.14356327
000270 4c fd 6b 3e 79 83 fa 3d 3d 72 a2 3d 14 65 9f bd
       0.23045844 0.12232108 0.079319455 -0.07782951
000280 43 ae f9 3b be 98 2e 3d 55 14 6e be 67 d0 3b 3e
       0.0076196506 0.042626135 -0.23249944 0.18341218
000290 c7 8f a1 3c 5c 0f 39 3e e8 3c 9a be ae 7c 95 3e
       0.019721879 0.18072265 -0.30124593 0.29196686
0002a0 ca b2 c6 3d 68 71 0b 3e 86 d9 1c be 0c e4 82 3e
       0.0970207 0.1361748 -0.15317354 0.2556461
0002b0 98 e4 18 be 1e 73 48 be 63 3d ee 3d 0d e2 86 3e
       -0.14930952 -0.19575164 0.11632802 0.26344338
0002c0 d4 4a ec 3c 22 7b d1 bd f8 2c 38 3e 5f 26 a3 3d
       0.028844275 -0.10228564 0.17985904 0.07966303
0002d0 84 ae 34 be 16 2e 3d bd 35 e8 12 3e fd 8f 0f 3e
       -0.17644697 -0.04618653 0.14346392 0.14019771
0002e0 59 59 80 bd ca a0 f1 bb c0 b2 31 3e ed 85 e5 3d
       -0.06267042 -0.007373904 0.17353344 0.11207185
0002f0 8c 23 f0 3d b8 d2 28 3e de 17 8c 3e d9 c9 9a 3e
       0.1172553 0.16486633 0.2736196 0.30232123
000300 3a 37 f7 3d 87 9e 1a 3d 73 df 27 3c b9 a5 f0 3d
       0.120710805 0.03774884 0.010246146 0.11750359
000310 4a ff 09 3e 66 9f e8 3d 08 cb f2 3d 10 46 1d 3d
       0.13476291 0.11358528 0.118551314 0.038396895
000320 55 25 1c 3e 30 0d d8 bc 72 3c 30 be b6 f1 f6 bd
       0.15248616 -0.026373476 -0.17210558 -0.120578215
000330 c5 d1 3d be 54 b7 c2 3d ef 38 d5 3d 52 61 1b bd
       -0.18537052 0.09507623 0.1041125 -0.03793461
000340 c2 3b 40 be d0 f0 07 be 78 65 e9 3d f2 2e 8b bc
       -0.18772796 -0.13275456 0.11396307 -0.016990159
000350 67 a9 69 bd a4 ce fd 3d 17 d4 86 bd f1 79 87 bc
       -0.05704632 0.12392929 -0.06583422 -0.016537638
000360 34 d6 bf bd 0e 7c cc 3d bc a6 43 be 3d c4 40 be
       -0.09367028 0.09984599 -0.19106573 -0.18824859
000370 55 e8 be bc 9e 79 49 3e 2d 6b 6a 3e 57 1e 36 be
       -0.023304144 0.196753 0.22892447 -0.17785011
000380 6c 94 39 3e 1a 42 e6 3d 13 7f 1c 3e 1b 3a c1 3c
       0.18123025 0.112430766 0.1528285 0.023587277
000390 3b 54 38 3e 80 47 2c be e3 e3 07 3d 78 f7 bb 3d
       0.18000881 -0.1682415 0.033176314 0.0917806
0003a0 da f0 22 be 8f a0 ad 3c 11 5f 38 be 33 21 73 3e
       -0.1591219 0.021194724 -0.18005015 0.23743133
0003b0 72 89 f2 3d 98 6b 0a bd 61 48 75 3e 48 98 6d bd
       0.11842622 -0.033794016 0.23953392 -0.058006555
0003c0 f7 55 5a 3e 2b cc 6c bc 81 84 b9 3d 0e 8f 6c 3e
       0.21321855 -0.014452974 0.09058476 0.23101446
0003d0 44 c1 84 3d 5e 58 1b 3e c4 b5 42 3d 8c 3a 68 3d
       0.06482175 0.15170428 0.047536626 0.05669646
0003e0 b6 2f 81 3e a9 d4 6b 3e bc f0 00 be de b6 ef 3d
       0.25231713 0.23030342 -0.12591833 0.11704801
0003f0 7b d6 ca bd 26 b5 ba bc a5 45 6b 3d 9e ab 37 3e
       -0.0990419 -0.022791456 0.057439465 0.1793656

fc2.weight f4 [2, 256]
000000 d9 95 2f 3e f6 b6 38 be 73 4a 05 bf f9 44 90 3e
       0.17147006 -0.18038544 -0.52066725 0.28177622
000010 94 c4 f9 3a 09 1c 19 3f d8 97 05 bf 38 38 52 bf
       0.0019055777 0.59808403 -0.5218482 -0.82117033
000020 85 c4 e9 be 74 2c 58 3e be 89 d8 be 3d f6 77 3e
       -0.45657745 0.21110708 -0.4229259 0.24215026
000030 99 39 99 3e 30 e0 3a 3e 4c ef 98 be 9d 33 cf 3d
       0.29926756 0.18249583 -0.2987007 0.10117266
000040 b0 64 8f be 37 f5 76 bf e8 c8 c0 3a 41 f5 86 be
       -0.28006506 -0.9646792 0.0014708312 -0.2635899
000050 24 52 55 3e 18 63 9d 3e 1c d2 22 be ed f9 b0 3e
       0.20832115 0.30739665 -0.15900463 0.34565678
000060 18 6b 22 bf 7a d2 d7 be 44 e7 55 3a 9d e2 6e 3e
       -0.6344466 -0.42152768 0.00081597664 0.23328634
000070 e0 72 5a 3e 43 5e 16 3e 44 75 64 3e d2 61 19 bf
       0.21332884 0.14684395 0.22310358 -0.59914887
000080 67 e8 2b bf 83 55 eb be 61 ac e5 be d4 2b 8a 3e
       -0.6715149 -0.45963678 -0.44858077 0.26986563
000090 4d 62 83 3e 72 4f 82 3e 82 11 3b 3b 1b 86 ca be
       0.25660935 0.25451237 0.002854437 -0.3955544
0000a0 81 7f 90 be 1f 47 f1 bd 93 a4 52 3e bf 7f d7 ba
       -0.28222278 -0.117811434 0.20570593 -0.001644127
0000b0 80 b8 aa 3d 38 90 d3 be 9c 1a 28 3b 6d 4a 5e 3e
       0.08335972 -0.41320968 0.0025650626 0.21708079
0000c0 98 0d 1d ba 8b c4 67 3e cd d0 cf be 45 e6 fe be
       -0.00059911003 0.22633569 -0.4058899 -0.49785057
0000d0 f9 7b 59 39 3d bd 95 be 11 95 4c 3e cf d3 7d 3e
       0.00020740916 -0.2924594 0.1997874 0.2478783
0000e0 89 8e 0b bf 42 59 6a be dc 9b e7 bd 3d 58 ef 3d
       -0.54514366 -0.22885612 -0.11309025 0.11686752
0000f0 10 47 1c 39 6b 95 95 bd 4d 53 05 b9 f0 7c 61 3e
       0.00014903792 -0.0730389 -0.000127149 0.22020316
000100 da 3a 21 be a1 8a a5 bd cd bf ce be b2 65 ac be
       -0.15745106 -0.08083082 -0.40380707 -0.33671337
000110 2e dd 99 3a 23 2c 6d bf 61 77 e2 be 6f 9f 9c 3e
       0.001173889 -0.9264547 -0.44231704 0.30590388
000120 a6 8c 42 3e a8 ee ee be 28 6d cb b9 82 70 12 3b
       0.18998966 -0.46666455 -0.00038800505 0.0022344892
000130 63 bc a0 bd 74 7a 9b 3c 8d 1c 70 3e 4d 29 83 3e
       -0.07848432 0.018979289 0.23448391 0.25617447
000140 b0 15 ee 3d ca b5 37 bf c4 f8 ec 3e fe 57 bf be
       0.1162523 -0.71761763 0.46283543 -0.3737182
000150 91 65 ab 3d c2 f3 83 3d 62 82 1d 3e 09 b2 6f 3e
       0.08368982 0.064429775 0.15381768 0.23407759
000160 84 88 20 3a 92 90 03 3e b7 39 84 3e 54 e6 56 3f
       0.0006123858 0.12848118 0.25825283 0.839452
000170 93 21 9c 3a 16 6b be be 5f 64 c9 be f1 fb 70 be
       0.0011911861 -0.37191075 -0.3933439 -0.23533608
000180 8d e5 40 3e e3 03 03 bf 1d c1 51 bd c8 76 a6 3e
       0.18837567 -0.51177806 -0.051209558 0.32512498
000190 bf c6 e7 39 96 c7 69 3e 92 ed 58 bf a5 9e 04 bf
       0.0004420783 0.22830042 -0.84737504 -0.5180457
0001a0 71 a9 31 3e f4 9c 25 bf 09 91 ef be 27 01 c6 3e
       0.17349793 -0.64692616 -0.4679034 0.38672754
0001b0 39 07 32 3e 43 2e 60 be d7 71 99 be 3d 6f b6 3d
       0.17385568 -0.21892647 -0.29969665 0.08907936
0001c0 7e 99 0b bf 96 f1 25 be 50 ae 00 3e 3f 96 59 3e
       -0.54531085 -0.16205439 0.12566495 0.2124872
0001d0 7c f4 00 3a 30 6c 45 b9 fa 11 cf be 09 07 c0 be
       0.00049192435 -0.00018827687 -0.40443403 -0.37505367
0001e0 00 dd 43 3e 57 8c 80 be 59 26 1b bf 4d 88 04 bf
       0.19127274 -0.2510707 -0.6060539 -0.5177048
0001f0 3e 9c 3b bf 6e ab 06 3e d5 1f 4f be 75 ae 47 3e
       -0.7328528 0.13151333 -0.20226987 0.19500144
000200 42 75 d8 be 3a ad a5 be 29 b2 77 3e 73 95 4a 3e
       -0.4227696 -0.32358724 0.24189056 0.19783573
000210 2f 9e a7 be 8a a2 9c be ea 14 1d 3f 2b be eb bd
       -0.32737872 -0.30592757 0.6136004 -0.11510881
000220 9c 08 bc be 30 36 23 3e b4 cd 5c 3e 39 9e bc 3e
       -0.36725318 0.1593864 0.21562845 0.36839464
000230 2d 11 8a 3e 58 36 4b 3e 65 22 d0 be c1 bc a6 3e
       0.2696623 0.19844949 -0.4065124 0.32565883
000240 b1 86 11 bf 5b d6 1a bf ca 21 a9 3e 15 04 c5 3e
       -0.5684615 -0.6048333 0.33033592 0.38479677
000250 56 df 83 be a5 60 97 be e5 d6 2c bf e2 4c 64 3e
       -0.2575633 -0.2956592 -0.67515403 0.22294953
000260 8e a9 71 3e c5 fe 41 3e 76 d2 f8 3d ca 15 d1 3e
       0.23599836 0.18944843 0.12149517 0.40836936
000270 48 14 7a 3e 58 ce ae be a1 08 e9 be d9 62 a1 be
       0.24421799 -0.34141803 -0.45514396 -0.31520727
000280 1c 0e 95 3f 50 f4 5b bf 6b 05 75 be 7d c2 53 3e
       1.1644931 -0.85919666 -0.23927848 0.2067966
000290 3f 7e f0 be 50 34 8a be e8 53 05 bf 2c a3 6f 3e
       -0.46971318 -0.26993036 -0.52081156 0.23402089
0002a0 8f 26 30 bf 1d 9a f2 be fc 06 18 bf 40 0a 5c 3d
       -0.68808836 -0.47383204 -0.5938566 0.053720713
0002b0 80 be 0b b8 3c 2b 88 3a f6 da 62 3e 00 b7 6e 3e
       -3.33176e-05 0.0010388861 0.2215384 0.23311996
0002c0 de 2a 97 3f f5 bc 1d 3d d7 f8 3c 3f d7 e6 90 3e
       1.1809957 0.03851028 0.738172 0.28301117
0002d0 f8 e5 ac 3a 34 39 0c bf 52 53 8e be 4a 14 f8 3e
       0.0013191095 -0.54774785 -0.27797943 0.4845298
0002e0 c6 e8 91 be b5 5e 6a be 36 e1 a6 be f5 42 28 bf
       -0.28497905 -0.2288769 -0.32593697 -0.6572717
0002f0 7a c1 ba 3e af 90 03 bf 9f 10 71 3e f1 fa 5a 3e
       0.36475736 -0.51392645 0.23541497 0.21384789
000300 c8 9b 63 be 89 43 0e bf a4 c6 a7 3e ea fd 1d 3e
       -0.22227395 -0.555718 0.32768738 0.15428892
000310 6a 2f 67 3e 38 43 c4 be a3 ba ea 3d 8a 19 6e 3e
       0.22576681 -0.38332534 0.114613794 0.2325193
000320 98 ae 34 3e 3d e4 21 3e a0 98 13 b9 88 e4 65 ba
       0.17644727 0.15809722 -0.0001407587 -0.00087697105
000330 f0 e2 dc b9 1e 27 df be b9 2a bb be 70 7c 05 bf
       -0.00042130752 -0.43584532 -0.36556032 -0.52143
000340 01 9e 90 ba 38 b6 70 3a 8f e9 0f bf 0d 2f a8 3e
       -0.0011033417 0.0009182426 -0.5621576 0.32848397
000350 85 2f fe be b0 dc e2 be b5 91 26 be 75 33 8b be
       -0.4964563 -0.44308996 -0.1626652 -0.27187696
000360 d4 ae 51 ba 1b 2d 88 3e 5e c0 0e 3b 7a c3 e2 ba
       -0.00079987687 0.26596913 0.002178214 -0.0017300688
000370 02 0d 3d bf f3 de 96 3e a9 75 1e 3e d9 e5 5c bf
       -0.73847973 0.29466972 0.15474571 -0.8628822
000380 1c 10 70 3e 23 81 6a be 92 a5 b7 bc 00 ba d2 3e
       0.23443645 -0.22900824 -0.022417817 0.41157532
000390 19 48 bc 3e 30 eb 02 bb 71 62 16 3f d8 6f 2c 3e
       0.36773756 -0.0019976608 0.5874396 0.1683954
0003a0 d6 11 18 bb b8 5a 73 be b2 8f 34 bb 89 2a 57 3e
       -0.002320399 -0.23765075 -0.002755147 0.2101232
0003b0 34 81 bc 3e a8 9a d3 be c1 30 4e 3e b7 04 c9 be
       0.36817324 -0.4132893 0.20135786 -0.3926141
0003c0 b0 36 5c 3e b6 13 ae be fd 81 4f 3e 79 2e 67 be
       0.21505237 -0.33999413 0.2026443 -0.22576322
0003d0 87 ab 83 3d 24 46 bd be 47 41 e7 be d5 cf 5c 3e
       0.064292006 -0.36967576 -0.4516699 0.21563657
0003e0 d3 a3 67 3e 54 d7 12 be 9a c9 00 bf 3b 12 d3 be
       0.22621088 -0.14339954 -0.5030762 -0.41224846
0003f0 52 95 44 3b e3 47 a6 be f5 da 10 bf c6 ba 07 3e
       0.0029996228 -0.3247672 -0.565841 0.13254842

fc2.bias f4 [2]
000000 9a 9e 57 3d c6 65 57 3e
       0.05264149 0.21034917
