multi_agent/checkpoints/Multi_checkpoint_critic_30_20_local_2500_run1.pth (torch, 425167 bytes, 7 tensors)

fcs1.weight f4 [256, 24]
00000000: f9a0 2c3c 179d 25bd cc26 92bc 7368 f23c
00000010: 6f8e dd3c 8f8c ef3c 42ef dcbc eff6 033d
00000020: 5158 0d3c b245 4e3c 0173 20bd 5a9f 8f3c
00000030: de79 813c 694f 993c e64d f5bc 1dce 013c
00000040: d299 993c 5521 1b3d d326 133b 4df5 203d
00000050: c00f a2bc 6431 13bd bf37 bc3c ed27 5b3d
00000060: edfb 4f3e 941d fcbe 49fd 1f3d 35ea 6c3e
00000070: 42a0 c93e d882 46bf 548a df3d 3370 4a3e
00000080: 383b 0d3e de65 1abf 27af 713b 800c 8d3e
00000090: f59b f93d b0e9 28bf 8082 9a3d 3cc0 873e
000000a0: 1b26 363e fabf 06bf f010 81be 0801 003f
000000b0: 913e 6fbe 239b 1fbe 5604 b5be 069b 093f
000000c0: 1c8f 953e c27d 25be 3341 4abd 019b 883c
000000d0: 126e 4f3e 69f3 c83e 322a 8c3c 426a 54bc
000000e0: 3cbe b93e ef3e 45be 85d1 903c 8242 99bd
000000f0: 8208 fabe 5585 103f 895b dfba 029e 04bd
00000100: c4aa 5d3e 16da 97be 3233 75bb 28d7 03be
00000110: a6ed bebf 4286 053e 86a4 623d a4bc 9bbd
00000120: 9f6d 5e3e f98b 183f 1b4d 70bc 23cf c73e
00000130: bf3d 1d3b ec0c 49be 34c2 ae3a 2534 ce3e
00000140: 53aa 5c3e 37b4 763f 302d 4bbb 275c 363d
00000150: abf2 873d 569b 0fbf 66db 4e3c 50a4 963d
00000160: bcc2 9b3e 2250 7c3f b0ff 0abd 3342 54bf
00000170: 9878 683c 6cbe 893f 0802 35bc 9b06 3bbf
00000180: 1e19 3a3d b090 e43b aca5 f93c 2836 78bc
00000190: 8c67 ce3c aacb 2b3d b6c7 173d 5836 63bc
000001a0: 9cd0 953c 54b5 793d 5870 4bbc d682 23bd
000001b0: 0690 5e3d 9623 013d 283e 753d 9850 bfbc
000001c0: b0cc 6e3c aeee 20bd 4cc9 44bd c0a6 30bc
000001d0: e224 24bd be44 623d 1851 653c 1ca6 9abc
000001e0: 3ca4 b13e 4e5d 8a3d 28c3 5abe 1a90 f53d
000001f0: f819 403e 057a 2c3c c1c1 83be b813 653d
00000200: c1e7 b63e 864a 373c 8cf8 4a3e 454b cebb
00000210: e885 4ebe c609 2bbd 34e9 233e 7bd4 6e3d
00000220: f616 df3e 077b 513e 9d6a 8a3d 9191 d73e
00000230: f36e 13bf f401 efbe 5bec f63d 6f0e e23e
00000240: 76f7 913e 3bb2 693f 4aa4 1d3e 5efd 08bd
00000250: 942d d33e dd8c 053f e6f1 0d3e d650 6abd
00000260: 8de0 e23e c467 6b3f dd8c 143e 3d93 abbd
00000270: a64d 583e d051 d33c 5108 0f3e 84d9 93bd
00000280: 1821 9c3e 85cf 5b3f 0f49 87be b64a 23be
00000290: 407d c6bb 6bf2 97be 1508 8dbe c7f6 a4bd
000002a0: 5daa b23e 4e0d 673e fdac 533e 3f95 903e
000002b0: bca0 dc3e e4ca 1dbf 4999 1f3e ca3a a13e
000002c0: 202f bb3e f5fd 8d3e 2a22 0a3e e317 873c
000002d0: 0d0f e33e 31bf 19be 5ea3 c93d 1e6a c13d
000002e0: bb30 da3e 51c1 db3e f92b 0ebb bcad 15bd
000002f0: 9e1e 5d3f 00be 9abe 60a5 0f3d 3270 07bd
00000300: a8ec 973c 2feb e9bc efae 073b fd14 3c3c
00000310: a553 44bd 80f2 a3bc 40ec 78bd fa00 45bd
00000320: 8dd2 a43c 57c0 603d 3090 30bc 0b11 e33b
00000330: 8e72 6a3d 0345 34bd 2c67 25bd f4f9 c2bc
00000340: 8195 4f3d c074 55bd cdff 92bc cad5 473d
00000350: e2fc 57bd 35e6 dabb 673f 39bc aa8a 2cbd
00000360: 301b 593d cd18 f53c e078 a43b 2df2 73bd
00000370: a3cc c1be f131 db3d 0bd9 e6bc c742 02bd
00000380: 1cc6 633e f010 023e 32a9 80bd e7ac 243d
00000390: a16c 693d 1aad 313f 8f48 56bc 6ddf 19bd
000003a0: 7e3f e73e fe50 2d3e 428b 993d bcf2 a5be
000003b0: 793a 7e3f b5be abbd ec25 353d 2288 b8be
000003c0: 1f99 19bc 322b 32bc 76b3 00bd a65e 36bd
000003d0: f8c8 d3b9 ccd6 0abd 95b6 cfbb b955 e53c
000003e0: 4088 433d d1fb 393c 1215 03bc 90c7 d33c
000003f0: 08a5 063d e8e5 eebc d2ee 883c 01c4 d23c
0.010536426 -0.040433016 -0.017840765 0.02959082 0.027045457 0.029241828 -0.026969556 0.032217916
0.008627013 0.012589859 -0.039172176 0.01753204 0.015805181 0.018714624 -0.029944371 0.007922676
0.018750105 0.037873585 0.002245356 0.039296437 -0.0197829 -0.035935774 0.0229758 0.053504873
0.20310946 -0.49241316 0.03905991 0.23136218 0.3938008 -0.775434 0.10915056 0.19769363
0.13792121 -0.60311687 0.003687808 0.275486 0.121879496 -0.6598158 0.07544422 0.2651385
0.17787974 -0.52636683 -0.25208235 0.50001574 -0.23363711 -0.15586524 -0.3535487 0.5375217
0.29210746 -0.16161254 -0.049378585 0.016675474 0.20256832 0.39248207 0.017109964 -0.012964787
0.3627795 -0.19262289 0.017678032 -0.074833885 -0.48834616 0.5645345 -0.0017040829 -0.03237725
0.21647173 -0.29658574 -0.0037414548 -0.12875044 -1.4916275 0.13039497 0.055332683 -0.0760434
0.21721505 0.5958858 -0.014666821 0.3902522 0.0023993102 -0.19633836 0.0013333024 0.40274158
0.21549349 0.96368736 -0.0031002276 0.044521477 0.06638082 -0.560964 0.012625551 0.07355559
0.30422008 0.9855977 -0.03393525 -0.8291351 0.014188908 1.0761237 -0.011047848 -0.73056954
0.04543411 0.006975256 0.030474506 -0.015149631 0.02519586 0.041942276 0.037055694 -0.013867937
0.01828795 0.060963944 -0.012416922 -0.039919697 0.05433657 0.031528078 0.05987373 -0.02335386
0.0145751685 -0.039290123 -0.048043534 -0.010781944 -0.040074237 0.05524134 0.013996385 -0.018878035
0.34695613 0.06756078 -0.21363509 0.11990376 0.18759906 0.010527139 -0.2573376 0.05592701
0.3572369 0.011187201 0.19821376 -0.006295594 -0.20168269 -0.041757368 0.16006929 0.058308106
0.43572205 0.20457087 0.06758616 0.42103246 -0.5759117 -0.46681178 0.120568 0.44151637
0.2850911 0.91287583 0.15394703 -0.033444755 0.4124571 0.52168065 0.13861808 -0.057205997
0.44311944 0.9195521 0.1450686 -0.08377693 0.2112337 0.025795847 0.13968016 -0.07219222
0.30494 0.85863525 -0.26422927 -0.15946469 -0.0060574114 -0.29677138 -0.2754523 -0.080548815
0.34895602 0.22563669 0.20671459 0.28238866 0.4309138 -0.6163771 0.15585817 0.31490165
0.3655939 0.27732816 0.13489595 0.016490882 0.4434742 -0.1501434 0.09845613 0.09444068
0.42615303 0.42920926 -0.002169369 -0.03654264 0.86374843 -0.30223083 0.035069823 -0.033065982
0.018545464 -0.028554527 0.0020703634 0.011479613 -0.047931332 -0.020013094 -0.06077218 -0.048096634
0.02011993 0.05487093 -0.0107765645 0.006929522 0.057238154 -0.044011127 -0.040381595 -0.023800828
0.050679687 -0.052113295 -0.017944241 0.04878787 -0.052731402 -0.006680275 -0.01130662 -0.042124428
0.053004444 0.029919052 0.0050192922 -0.05955713 -0.37851438 0.10702885 -0.028179666 -0.031801965
0.22243541 0.12701774 -0.062822714 0.040203955 0.056988362 0.6940476 -0.013078823 -0.03756659
0.45165628 0.16925427 0.074972644 -0.32411754 0.9930797 -0.08385984 0.04422562 -0.3604136
-0.009374886 -0.010874556 -0.031421147 -0.044523858 -0.0004039479 -0.033896253 -0.006338904 0.027994977
0.04773736 0.011351542 -0.008000629 0.025851995 0.03287223 -0.029162362 0.01671544 0.025728228

fcs1.bias f4 [256]
00000000: 0c76 33be 2627 82be 9500 74bd 56d4 5e3e
00000010: 17bc 4fbe 0e6c b2bd eb93 5ebe 849a dbbd
00000020: 03df 8dbd 87df 433e 356c 42be e611 533e
00000030: a9c4 443c a510 3abd 530e 043e 0ba1 91be
00000040: 2b62 9b3d d58e 42bd 0e9e 3dbe 28c6 ad3d
00000050: 6c48 0bbe 860a 33bd aad4 4fbe 801d 58be
00000060: 5617 93bd 6c77 7e3d dc9a 23be 304e 1a3e
00000070: 9cc6 63bd b35f aabe d80e 933d 2846 4dbd
00000080: 9c5f fabd 71ac d0bd 285c fc3c b836 813e
00000090: acb0 e1be cb89 31be 6e99 1abe d02d 68be
000000a0: a61a 43be fd70 55bc 44ea 773d 82e5 4bbe
000000b0: aaef 9ebe 0e73 fcbd d917 33be d77c acbd
000000c0: 3575 21be 69be f7bd 8790 43be 90b0 b2be
000000d0: 88b7 1abe 996e 16be 564f 5d3c 4e73 383e
000000e0: 42bb 8eba f1ac c13d a5f4 103e b706 27be
000000f0: 4306 27be 4564 ba3c 2c56 34be c93d cbbc
00000100: f571 01be ff20 1ebe 0bc4 f4bd 677a 05be
00000110: a09e f8bd 5b56 5cbe c48a 12be 85fc 3ebe
00000120: 37f6 123e abcc 9abe 0ce8 4fbe 2201 66be
00000130: a32a 85be e4d4 5cbd c813 27bd 0ffa b2be
00000140: 7ff4 df3d d2ad eabd fea7 ddbb 85d7 8ebe
00000150: ab80 4bbe 86e7 0f3e a7d1 b8bd affd 0c3d
00000160: 1fbb 21be 79bb 9ebe c298 63be 2296 87be
00000170: e3b1 9bbd 7b13 23be baf7 babc dee1 3cbe
00000180: 4439 ddbd 369f ccba c6ad 4ebe 8cc0 0fbe
00000190: 209c 68be 3dc2 833d a0e2 edbd 36a5 75be
000001a0: c319 d63c 269f 23be 9c09 d7bd f5dd 45be
000001b0: ab5c a6be b969 e9bd 95e7 6abd 4f15 ecbd
000001c0: eba2 57be bc73 03be f198 28bc 9fbc 32bd
000001d0: e62e 37be e94f 2cbe 6452 78bd 749e 73be
000001e0: c024 a9bd ce85 0fbd c8e3 c9be e415 72be
000001f0: f876 bebd 0089 e03d d213 aabc 2fbe e9bd
00000200: 0daf 0dbe 40b4 6a3d cd25 12bc d5b2 893e
00000210: c2e5 5ebe 5ab8 9fbd 5201 0c3d 63c1 e3bd
00000220: 3ff8 4ebe 0b2b 93bd 24d4 9c3c ee2a a6bd
00000230: f524 8ebd c513 b23d 74b9 6fbd 0b5b bcbd
00000240: 2e44 2e3d 4b3e 6cbd db2b 8cbc a707 ffbd
00000250: 80a3 f3bd 3bca aabe f1f4 ef3d cc2f bdba
00000260: 5ee9 42be 6538 b23b 5731 90be 5b21 e8bd
00000270: 3681 96be ea78 3fbe f824 d63c 86c0 01be
00000280: de37 fa3d f0d0 3cbd 3d04 8bbd d8eb e9bd
00000290: 8dd1 08be 540c 613e 3928 07be ac7f 333e
000002a0: 7506 863d f735 af3d 3dfe 65be 90e1 ebbd
000002b0: 98e4 18be c972 48be 3ef2 473e 25d1 303e
000002c0: 420f 933e d2f4 dfbd be2a dabd 7329 dd3d
000002d0: 84ae 34be ea66 27be 11c1 f1bc 7fbb 27be
000002e0: 31e1 95be 39ce 12be d788 bd3d 3384 debd
000002f0: 1661 01be 1b52 75be 1b48 f03d af39 823d
00000300: 3e32 a33c 5c0d 9fbe b851 df3d a8fe 803e
00000310: e3fd 3bbc f017 4a3e 733d 4c39 c1b0 73bd
00000320: e814 dc3d 709e 82be 723c 30be b6f1 f6bd
00000330: c5d1 3dbe dfe9 a0bd 93f5 e9bd e143 c8bd
00000340: c23b 40be d0f0 07be 1b0f 1ebd 6414 aebd
00000350: e576 093e ab4e 16bc f537 78be 1622 03be
00000360: 410a 02be 2096 81be bca6 43be 3dc4 40be
00000370: 91f2 07be 554e 0f3e 9b26 113e d985 26bd
00000380: 4841 0d3e 0c8b 89bd b879 26be d388 e5bd
00000390: b0c2 0ebe 8047 2cbe 0fce 90bc 8d45 aabd
000003a0: 1ab9 d8be 5c66 07be 6aef 43be 1b9d a93e
000003b0: 73be fa3d c39a cabd fa4c c73b c1ff d6bd
000003c0: 5f92 413e ace1 a0bd 2e42 be3d f2d2 113e
000003d0: 498f 873a ec67 9d3d 9d97 cebc b9d9 a83d
000003e0: b03f 223d ca42 2fbe 9c91 acbd 116a e6bd
000003f0: 6042 b6be 7f5c f2bd 1fe7 fcbd 437a 2b3e
-0.175255 -0.25420493 -0.059570868 0.21760687 -0.20286594 -0.08712016 -0.21736114 -0.10722831
-0.06927302 0.19128238 -0.1898659 0.20612296 0.012009778 -0.04542603 0.1289609 -0.2844318
0.075870834 -0.047499496 -0.18517324 0.08485061 -0.13601846 -0.043711208 -0.20295969 -0.21105003
-0.07182185 0.06212561 -0.15977043 0.15068889 -0.05560933 -0.33276138 0.071805656 -0.050115734
-0.12225267 -0.101891406 0.030805662 0.2523706 -0.44080102 -0.1733772 -0.15097591 -0.22673726
-0.19053134 -0.013027427 0.060526147 -0.19911769 -0.31042224 -0.123266324 -0.17489566 -0.08422249
-0.15767367 -0.12096865 -0.19098102 -0.34900331 -0.15109074 -0.14690627 0.013507685 0.18012735
-0.0010889547 0.09456814 0.14155824 -0.16311155 -0.16310982 0.02275289 -0.17610997 -0.024809735
-0.12641127 -0.15442275 -0.11951455 -0.13034974 -0.1213963 -0.21517317 -0.14310747 -0.18651016
0.14351736 -0.30234274 -0.20303363 -0.2246137 -0.26009092 -0.053913966 -0.04079035 -0.34956405
0.10935306 -0.11458935 -0.006764411 -0.27898803 -0.19873302 0.14053163 -0.09024363 0.03442162
-0.15794037 -0.31002405 -0.22226241 -0.2648173 -0.076022886 -0.159254 -0.022823203 -0.18445536
-0.10801938 -0.0015611413 -0.20183477 -0.14038295 -0.22715807 0.064335324 -0.11615491 -0.23988804
0.026135331 -0.15978679 -0.1049988 -0.19322951 -0.32492575 -0.11397118 -0.05734976 -0.11527502
-0.21058242 -0.12837118 -0.01029037 -0.043636914 -0.17888984 -0.16827358 -0.06062545 -0.23790914
-0.08258963 -0.035039715 -0.39431596 -0.23641163 -0.09300035 0.10963631 -0.020761404 -0.11413228
-0.13836308 0.057300806 -0.008920145 0.2689425 -0.21767333 -0.07798834 0.034180947 -0.1112087
-0.20211886 -0.07185944 0.019144125 -0.08113657 -0.06940643 0.08695177 -0.05852647 -0.091970526
0.04254549 -0.057676595 -0.017110756 -0.124526314 -0.118964195 -0.33357415 0.11716641 -0.00144338
-0.19034335 0.0054388517 -0.28162643 -0.11334487 -0.29395455 -0.18698469 0.026140675 -0.12671098
0.12217687 -0.046097696 -0.06787918 -0.11421937 -0.13361187 0.21977359 -0.13198937 0.17529172
0.065442 0.08555215 -0.22460265 -0.11517632 -0.14930952 -0.19575037 0.19526002 0.17267282
0.28722578 -0.10935368 -0.10652684 0.107989214 -0.17644697 -0.16347852 -0.029511007 -0.16380118
-0.2927337 -0.1433648 0.09254616 -0.10865059 -0.12634692 -0.23957102 0.11732503 0.063586585
0.019921418 -0.3106488 0.109042585 0.25194287 -0.0114741055 0.19735694 0.00019477848 -0.059494738
0.10746175 -0.25511503 -0.17210558 -0.120578215 -0.18537052 -0.07857107 -0.11423793 -0.09778572
-0.18772796 -0.13275456 -0.038588624 -0.08499983 0.13424261 -0.009174029 -0.24240096 -0.12805972
-0.12699224 -0.2530985 -0.19106573 -0.18824859 -0.13276125 0.13994725 0.14174883 -0.04065499
0.13794434 -0.06715974 -0.1625737 -0.11207738 -0.13941455 -0.1682415 -0.017676381 -0.08314047
-0.4232872 -0.13222641 -0.19134298 0.33127674 0.122433566 -0.098928 0.0060821744 -0.10498
0.18903492 -0.078555435 0.092899665 0.14240626 0.0010342385 0.07685837 -0.02521878 0.08244652
0.03961152 -0.17115322 -0.0842621 -0.11250699 -0.35597515 -0.118340485 -0.1234877 0.16745858

fc2.weight f4 [256, 258]
00000000: c458 4ebd 6221 16be d379 b83e 7e0e edbe
00000010: 2885 72bc 2c6e 683c b2ed 93be 92df 053f
00000020: 2284 223d cf0c eabd 4fa8 5dbd bb8d d93c
00000030: 709e 2cbf 0cd1 973c d538 913e 2437 79be
00000040: 05fa 0e3e ba03 163d 602c 543b 4b37 913d
00000050: 8d13 393e 6d2a ffbd 03ac 30bd a0ad 9cba
00000060: 1e5c fe3e 2db2 78bf ac32 c9bc 2c48 f3be
00000070: eac6 243e 3c8e 803d 99d2 fcbc e535 97be
00000080: 90dc ff3b 253e b8bd 2637 873e 11e7 53be
00000090: 161f b83d 6c50 26be 1612 2cbd 5761 873e
000000a0: e17f af3d a87b 93be 64c1 bb3c 1126 84bd
000000b0: f7ba bcbd 6800 913d 9ee8 263d 2ce1 b73d
000000c0: 7836 283c 5bf5 7cbd 3b4b a6bc f485 f3be
000000d0: 0067 a53a 225d 673d e05d a2bd c850 0b3e
000000e0: d844 08bd c46c c5be efa4 c13c 528a 83bd
000000f0: 8605 5abd d837 823d aaa7 73bd 68f6 223e
00000100: 48e5 4fbd 781f 09bd d015 e93c 7848 793c
00000110: 00d8 a1b8 5869 82bd 1fcd b4be e05d 8f3c
00000120: e61b 913e 4c3f b2bd 1870 aabc d4e2 3fbd
00000130: 70ec 53bd 661c 2d3d f8a9 23be 1bfe 30be
00000140: 151b 03bf e0e3 c2bc 97c9 aabe 9dc1 5f3e
00000150: 9640 493d 5bdf cb3c 0efc 27bd e9d3 2cbe
00000160: 8a56 3d3d b32b aebe e6fb 943c bde3 23be
00000170: b6d0 02be 825a 12bd 56df 523d 505c 2e3d
00000180: 3435 4dbd e74a 713e a483 7cbd e596 e9bc
00000190: 0088 66b8 b498 093e 180b 203d 27cf 4c3d
000001a0: 7989 103f 7f0b cabc d917 153b 7d53 4abf
000001b0: e4b9 b8be a800 71bd 9859 53be 6041 57bb
000001c0: 8bd9 413d a6dc 683d 4629 163b 74c7 6f3e
000001d0: 00c8 03bb 6e8f 85bc 6137 03be f237 5d3d
000001e0: 0c30 8c3d 94fc 8abc 9e0a 92be 8f62 25be
000001f0: 8a68 35bd 1f98 bbbe 90d7 133e 4b19 023f
00000200: d619 763d 8e8c 88be 0180 8f3e efa4 48bd
00000210: be5f 30be 0d22 c5be 13e3 80c0 9114 e83b
00000220: a07e 9dbc 0113 da3c 86cd b83d ba55 04bf
00000230: 7819 8dbe 8409 febc f8b5 813d 2fb3 b4be
00000240: bdf1 04bf ca55 8fbe 8446 3cbf f20e 213d
00000250: 4a1a 1a3d 13f1 a3be 253e 71bf 7470 9bbb
00000260: 18d9 5c3c b525 88be 09a4 5c3e 55f2 cfbc
00000270: e758 2dbe 5e64 5abe c917 39bf 178d 353c
00000280: f805 aebd cb69 b43c 14c3 39ba cd6c cbbd
00000290: 13d1 d1bc 528b 2abe 50e1 f0bc 1702 8fbf
000002a0: c2df 2d3d 52f1 af3e 3802 2cbe b16a 88bf
000002b0: 00db bc3a 70ba 0fbd 56f7 89be f6c6 90be
000002c0: 37a9 bc3d 7fc6 653d 84d1 31be 883a fd3d
000002d0: b0e2 963b d4c4 1e3d 8169 d9bb 788a c03c
000002e0: 53a3 1dbd bc71 1f3d 7c72 0abe 4849 c4bc
000002f0: ef13 88bd 738d 1e3e d9ec 89bd f156 c2be
00000300: 7889 9d3d c165 ce3d c99d ab3d c2a7 abbd
00000310: 90b3 393e 1ff7 813e 5990 033d 18cc 51be
00000320: e265 4f3e 28dc 42be 6894 7f3d b808 b0bc
00000330: e623 75bd 1cda 303d de1b 9b3d 665c 49bd
00000340: 0099 8cb9 e643 52bd dfbe cb3d aef5 0cbd
00000350: a39f 243b 9ec0 b83d 3c00 c43d 7c16 7abd
00000360: 694c 1dbe 2e0c 8cbe ba8e 1b3d 44c9 d5bc
00000370: 54e5 95bd d84c f8bd 14fd 1d3d 20b9 fabd
00000380: 8ac7 aabe 1588 97bd 20d3 123c 50a9 5f3d
00000390: a4d4 2dbf d8b4 143c 1698 a3bc 13c5 a4be
000003a0: 0b2e c1bd f5ca 71be 552d 393b d89a 883e
000003b0: c9d6 ddbe f470 743d b292 17bf add0 dbbe
000003c0: be9c 1ebe 7eb8 77bd efb4 d5be 5119 c33e
000003d0: 5016 e83d 772c cd3b 5e9b 1f3e d10d b0bd
000003e0: 2b67 a8be 6c30 4dbe 284b 3abc 343e a03e
000003f0: a1b4 dc3c 41c0 22bc 067f 0abe 7174 2abf
-0.050377622 -0.14661172 0.36030445 -0.4630012 -0.014802255 0.014186423 -0.28892285 0.52294266
0.039676793 -0.11428224 -0.05411559 0.02655684 -0.67429256 0.018532299 0.28363672 -0.2433744
0.13962562 0.036624648 0.0032375082 0.070906244 0.18073864 -0.12459264 -0.043132793 -0.00119536
0.49679655 -0.97146875 -0.024560295 -0.47516 0.16091505 0.06277129 -0.03086214 -0.29533306
0.0078082755 -0.08996228 0.26409262 -0.20693614 0.08990304 -0.16241616 -0.042009436 0.26441452
0.08569313 -0.2880528 0.022919364 -0.06452573 -0.09215348 0.070801556 0.040749185 0.08978495
0.010266893 -0.061757427 -0.020299545 -0.47563136 0.0012619197 0.056485303 -0.079280615 0.13605034
-0.03326878 -0.38559544 0.023638217 -0.06422867 -0.053227924 0.063583076 -0.05948607 0.15914309
-0.05075577 -0.033477277 0.028452784 0.015215032 -7.7173114e-05 -0.06367749 -0.35312745 0.017500818
0.28341597 -0.08703479 -0.020805404 -0.04684718 -0.051739156 0.04226341 -0.15982807 -0.17284434
-0.512132 -0.0237903 -0.33356926 0.21851201 0.04913386 0.024886778 -0.041011862 -0.16877712
0.04622511 -0.34017715 0.01818652 -0.16004844 -0.1277493 -0.035730846 0.05148252 0.042568505
-0.050099567 0.23563729 -0.06164898 -0.028514335 -5.4962933e-05 0.13437158 0.03907308 0.050002243
0.56459767 -0.024663685 0.002274981 -0.79033643 -0.36079323 -0.058838516 -0.20639646 -0.0032845363
0.047326606 0.05685105 0.0022912784 0.23415929 -0.0020108223 -0.016303744 -0.12814094 0.05400843
0.06845102 -0.016966142 -0.28523725 -0.16150878 -0.04428915 -0.36639497 0.144377 0.50819844
0.060083233 -0.26669735 0.28027347 -0.048985418 -0.17224023 -0.3850254 -4.027719 0.00708253
-0.019225419 0.02662039 0.090235755 -0.5169331 -0.27558494 -0.031010397 0.06333536 -0.35292956
-0.51931363 -0.2799514 -0.735451 0.039320894 0.037622727 -0.32019863 -0.9423545 -0.00474363
0.013479494 -0.26591268 0.2154695 -0.025384108 -0.16928445 -0.2132735 -0.7230192 0.011081002
-0.08497232 0.022023102 -0.0007086259 -0.099328615 -0.02561239 -0.16654709 -0.029404312 -1.1172513
0.04244972 0.343638 -0.16797721 -1.065756 0.0014408529 -0.03508991 -0.26946515 -0.28276795
0.09211963 0.056097504 -0.1736508 0.123646796 0.00460466 0.03876193 -0.0066348915 0.023503527
-0.038485836 0.038926825 -0.13520235 -0.023960724 -0.06644427 0.15483646 -0.06734628 -0.37956956
0.07692236 0.10078002 0.083797045 -0.08381607 0.18134904 0.2538385 0.032120083 -0.20488012
0.20253709 -0.19029295 0.06239739 -0.021488532 -0.05984869 0.043176755 0.075736746 -0.049160384
-0.00026816875 -0.051334284 0.09948515 -0.034413986 0.0025119565 0.09021114 0.09570357 -0.0610566
-0.1536118 -0.27353042 0.03797791 -0.026096947 -0.073191315 -0.12124032 0.038571432 -0.12242341
-0.3335536 -0.073990025 0.008961469 0.05460483 -0.6790259 0.00907632 -0.019969981 -0.32181606
-0.0943261 -0.23612578 0.002825578 0.26680636 -0.4332793 0.059678033 -0.59208214 -0.42932644
-0.1548948 -0.06047868 -0.41739604 0.38105252 0.11332381 0.006261404 0.15586612 -0.08596385
-0.3289121 -0.20038003 -0.011370458 0.31297457 0.0269416 -0.009933532 -0.13525018 -0.66583925

fc2.bias f4 [256]
00000000: 934b 0f3e f6bc 163e e77c 65bd 5fe9 88bd
00000010: 128c 293e ec82 a7bc 6b08 223e 9443 b9bc
00000020: c416 043e d7c4 10be 12ad 85bd ce6f 90bd
00000030: d0ec 13be 6b9c 363e a76d e2bd 7368 df3d
00000040: 8e04 a6bd e10d cdbd b3d8 97bc 4245 b2bd
00000050: dce1 ddbd eb44 dabd fa95 c4bc f91c 2bbd
00000060: 09cc 00bc 9181 4fbd fb2c 2cbd 56a5 c3bd
00000070: 692e f7bb c65c abbd e2b1 75bd 018d 84bd
00000080: 3c01 dcbd 9a8b a13e 2ee8 00be d241 6bbe
00000090: 74d9 d5bc 0714 babd 2d7d c8bc 79b7 22bd
000000a0: 1b6c f4bd 207d fbbd 9a66 063e a2e6 6dbd
000000b0: 6dbb bebd 6c9a 01bd c3ad 30be 1873 bebc
000000c0: 6a31 95bd b6d5 69be 8fee 1abd d61a 663d
000000d0: 5394 51be eaf9 ebbd 777a 87bd 25fb 0fbd
000000e0: 8dcb b6bd 8777 60bd f285 c7bd 0e51 3abd
000000f0: 0dfb d5bc bbbd 53bc 7f00 98be 0082 983e
00000100: ec61 26bd 744f e13c 949a 65be aa30 3c3e
00000110: 556c 073e d375 08be 65c9 13bc 5b3f be3d
00000120: b848 91bd 2598 e5bc b92e af3d ec04 b4bd
00000130: 270d 2a3e 4974 ac3d b011 57bd 9ee0 a33e
00000140: 8e31 843e 471d d6be 98b3 f4bd bff1 d8bd
00000150: 2cac b5bd dd0b 3cbb b681 27bd cd17 59bd
00000160: 1c9b 13bd 0618 e2bd 496d 53bd 2b27 c1bd
00000170: 957e a0bd b4ac 4cbc c212 2ebd 442e 84bd
00000180: 842f b9bd dec0 00be 2e9b bcbd 0c0e a9bc
00000190: 9056 b63c 7706 aebd 29f1 61bd 80f2 6cbd
000001a0: bdad 99be a1e3 9b3a 15d9 0abd 74d9 4abd
000001b0: ddbd 59bd 24c9 9fbd 7f51 afbd 10f5 a2bd
000001c0: 1577 4cbd a0b3 953d 4f45 00be 67a6 b6be
000001d0: fe92 b33c 608b 89bd 6ea4 a2bd 5861 b9bd
000001e0: b4e6 9bbd 51fe 79be 722c 0ebd 71b6 ab3d
000001f0: b153 8abe 55a4 acbc 49f4 79bd c680 8fbd
00000200: 78e4 aabd 70ce d13d 86da 0bbd c169 c63d
00000210: 24b4 9cbd b4cc 85bc 3d4f a43d a4ff 1abd
00000220: 021c bdbd 21eb 653d 665a 46bd 15e1 cbbd
00000230: e655 a9bd 6089 d3bd 3d17 d5bc 7ca4 93bd
00000240: 37ff 893c 9c21 67bc 2bc3 2dbd 8ee5 7fbd
00000250: b8ac 7bba 64c2 c8bd 78a3 93bd 630b a2be
00000260: c573 a63d 896c 833d 5d02 e1bd 9664 aabd
00000270: 91e4 febd 2f91 41bd 18b6 d43c aaa8 c2bd
00000280: 1674 823e 030a dbbd fe05 18bd dc1d 3e3e
00000290: 0e7d a3bd 5392 e8bd 7f53 c3bd 23a3 8bbd
000002a0: 953a 9ebc 2f40 7fbd d584 93bd 5300 7e3e
000002b0: e75e 3fbd b6a2 34bd 498d 90bd b7f0 b5bd
000002c0: 48af bfbd 6062 4abd cc30 cbbd 1bb9 fdbd
000002d0: 41ec b7bd 993e bcbd b503 b3bd 99dc 1d3d
000002e0: 3258 a8bd 6374 cbbd 1176 1abe 2c67 febd
000002f0: 84ef 69be 686d dbbc a706 913d d543 0abd
00000300: 8e34 fcbb a3ae 8bbd 927b fcbd 9bdf e6bd
00000310: f3b3 0cbe 705f 77bd 7d15 71bd ec6f 8cbd
00000320: a9ba efbd bc2a 88bd 8a9f 53bd 648f d0bb
00000330: fa62 a1bd fc23 b5bd 316a 89bd 37c0 abbd
00000340: e03e b239 c1af 24bd 568e 68bd df68 323e
00000350: c769 b0bd 4896 a4bd d0b9 8e3d 0532 f0bc
00000360: d257 adbd 98c5 bdbc bc82 7e3e 5a1c a13d
00000370: f338 623c 9466 943d 3892 dcbd df49 91bd
00000380: 21f6 d7bd acab bd3e 2ece 93bd 5ec7 643d
00000390: 1872 a7bd 632f d9bc e644 8cbd 88f6 8dbe
000003a0: d50d 8bbd 1784 9cbd 5e66 42ba a053 27bc
000003b0: ec16 5b3e 5dba 2fbe 1923 ccbd cdb5 31be
000003c0: 36ca a7bd da11 b4bd 391b 06bb d29a 76bd
000003d0: 31a6 72bd 8b08 cf3d 8bb0 82bd 48b2 d7bd
000003e0: 3167 f73d 59ec aebd 7999 8cbd 2f02 f3bd
000003f0: 3647 9dbe 359f 47be e487 cebd ea34 88be
0.13993673 0.1472052 -0.05602732 -0.06685137 0.16557339 -0.02044817 0.15823524 -0.022615232
0.1289931 -0.14137588 -0.06527151 -0.07052575 -0.14445806 0.17833106 -0.11056071 0.10908594
-0.081063375 -0.10012413 -0.018535947 -0.08704616 -0.10834095 -0.10657676 -0.023997296 -0.041775677
-0.007861146 -0.050660674 -0.042035084 -0.0955302 -0.0075433743 -0.083673045 -0.059984095 -0.06472207
-0.10742423 0.3155182 -0.1258857 -0.22974327 -0.026104666 -0.09085851 -0.024473751 -0.039725754
-0.11934682 -0.12279725 0.13125077 -0.058081277 -0.093130924 -0.03164141 -0.17253785 -0.02324824
-0.072848156 -0.2283543 -0.037825163 0.056177936 -0.20466737 -0.11522277 -0.06615155 -0.03515162
-0.08925543 -0.05480149 -0.09742345 -0.045487456 -0.026120687 -0.012923653 -0.29687878 0.29786682
-0.04062073 0.027503707 -0.22422248 0.18377939 0.13224919 -0.13326196 -0.009020184 0.09289428
-0.07093948 -0.02802665 0.085538335 -0.08790001 0.1660658 0.08420617 -0.052507102 0.32007307
0.25819057 -0.41819212 -0.11948317 -0.105929844 -0.0887073 -0.0028693595 -0.040895186 -0.053001214
-0.036036596 -0.11039738 -0.051617894 -0.09431299 -0.078366436 -0.0124923475 -0.042498358 -0.06454137
-0.09042266 -0.12573573 -0.09209286 -0.02063658 0.022258073 -0.08497327 -0.05516163 -0.057848454
-0.30015364 0.00118934 -0.03389843 -0.049523786 -0.053159583 -0.078020364 -0.08560466 -0.07956898
-0.049918253 0.073096514 -0.12526439 -0.3567383 0.021920677 -0.06716037 -0.07941519 -0.0905177
-0.076123625 -0.2441342 -0.034710355 0.08384407 -0.27016976 -0.021074453 -0.061023984 -0.070069835
-0.08344358 0.10244453 -0.034143947 0.0968814 -0.076515466 -0.016332962 0.08022926 -0.037841454
-0.09233858 0.05613244 -0.048426054 -0.0995504 -0.08268337 -0.103289366 -0.026012057 -0.07209107
0.016845329 -0.014107134 -0.042422455 -0.06247478 -0.0009600627 -0.09802702 -0.072089136 -0.31649312
0.0812755 0.06417186 -0.10986779 -0.083199665 -0.12445939 -0.0472576 0.025965735 -0.09504826
0.25479192 -0.10695269 -0.03711509 0.18566078 -0.07982837 -0.11356034 -0.0953741 -0.06818225
-0.019315043 -0.06231707 -0.0720307 0.24804811 -0.046721365 -0.044100486 -0.07058198 -0.08883803
-0.09359604 -0.049410224 -0.09921417 -0.12388822 -0.08980609 -0.09191627 -0.087409414 0.038540456
-0.08219947 -0.099343084 -0.15084101 -0.12422022 -0.22845274 -0.026785567 0.07081347 -0.033756096
-0.0076966947 -0.06820419 -0.12328257 -0.11273118 -0.1374052 -0.06039375 -0.058858383 -0.06857285
-0.117055245 -0.06648776 -0.05166582 -0.0063647497 -0.078802064 -0.08844754 -0.067097075 -0.083862714
0.0003399765 -0.040206674 -0.056776367 0.17422818 -0.086139254 -0.080364764 0.06969035 -0.029320726
-0.08464016 -0.02316551 0.24854559 0.07866736 0.013807523 0.07246128 -0.107700765 -0.07094168
-0.10544992 0.37045038 -0.0721706 0.055854194 -0.081760585 -0.026511854 -0.06849079 -0.2772715
-0.067897476 -0.07642382 -0.00074157666 -0.010212809 0.21395463 -0.17160936 -0.09967632 -0.17354508
-0.081928656 -0.087924674 -0.0020463003 -0.060206242 -0.059240524 0.10109051 -0.06381329 -0.10532051
0.12080229 -0.085411735 -0.0686521 -0.11865651 -0.30718392 -0.19494326 -0.10084513 -0.2660287

fc3.weight f4 [128, 256]
00000000: 398b 9d3e c4df 6fbe e141 3d3c 199c d43c
00000010: 546b 063e 50d0 293c e848 a2be e0c4 8c3b
00000020: 3bab 913e 2aa8 c6bc 76f8 813e a98c afbd
00000030: 4bde 68bd f130 943d 0245 7d3d 32cb d03d
00000040: 9ecc 5b3d bfeb be3d f4b1 033d 8061 5aba
00000050: d43c aabc 82c9 9d3d 15ba bc3d ea85 a2bd
00000060: b3ab 35bc 1108 60bc e8bc 4ebc 0c04 02bd
00000070: eb55 a3bd 1ee8 74bc 88f7 24bd 7532 a7bd
00000080: bde3 6fbd 5222 65be 9e0d 6dbd e2df 3abe
00000090: 101c cb3c bf07 903c a95d e2bd 086b 423e
000000a0: 289a 0bbc c17e 273c b95d 61be 3d27 a53d
000000b0: 25cc 7d3d d8e8 3abc 7836 abbe a81f 97bd
000000c0: 5b1d a0bc 4321 27bf 014b b33d 9aac d13c
000000d0: 8070 0b3d 3d43 e5bc 6fef c1bc 6bc5 8dbd
000000e0: 9a65 043d fd7e ca3d 4b48 1bbd 10eb 843d
000000f0: 7eef a63d ea73 3a3d 29a1 a5be 966e c03e
00000100: 24b7 353d 5e8b f4bd 6be2 20be b40e 92be
00000110: d987 54be 9673 0b3e 85da 22bd b553 89be
00000120: 4e52 adbd 401f 31bd 538c 523d 1ae9 583d
00000130: 5432 133d 2503 dbbc f57e 933d 3df1 263e
00000140: 631c ad3e 8814 4cbf 930e 9c3d 6fcd a23d
00000150: 5f0b 84bc cff2 633d ce43 893d 4833 7d3d
00000160: 740c 063c 41bb 19bd f252 5b3d 0c82 28bc
00000170: bb6b 953d bfb6 823c 1879 9b3d df71 8b3d
00000180: 1675 bebd 2d2e 62bf 845f 56bd 6a56 813d
00000190: f20b 2e3e aa84 b63d 4977 b33c bdf3 35bd
000001a0: fc72 ecbe 3172 e73e e23a 043c 58c9 de3d
000001b0: 2355 a8bd 595c 78bd a380 0bbd 6b5d 643d
000001c0: 3f2c 35bd 58e7 29bf 5942 01bd 4e90 d9be
000001d0: 1fe6 103e 00ca 6fbd 2151 8d3d 1f42 c0bd
000001e0: a8cf d2bc e2d4 973d bfb8 f9bc 9874 a23c
000001f0: 7d9c 88bd 27a8 53bc 1d90 a13d 12ea 4fbd
00000200: 884d 4b3d 6cdb 093f cd86 43bd 9579 27bc
00000210: dae3 e5bc b411 22bf 8001 003f b62e 83bd
00000220: 9468 e43c 0e77 673e 77c6 bf3d 0075 edba
00000230: 9356 76bd 0671 1abd ef48 05bd 1833 e7bc
00000240: 4bdb b2bb 4da7 383d bb53 703c 21a0 ed3e
00000250: bd26 24be 590c b53c 8200 efba b4f5 2b3d
00000260: 8568 82be 0b97 86bd 7cee 823d 1c04 8dbc
00000270: ec9a e7bd 6006 ed3c f9ab 44be 9c97 b23d
00000280: 586e 6ebe 3fd6 a83d e887 0f3d 2de1 b13e
00000290: 9721 97bd 1783 6abc 1ed1 b13e 8f7d 9fbd
000002a0: b70e 1f3e 2dab b03d b525 11bc 16aa 3d3e
000002b0: 36b2 1d3d ca8e 5dbd 26a1 11bd d025 7abd
000002c0: 8fa9 233e b105 b33d 19f0 023e 3b34 913d
000002d0: 81f6 a63d 16e6 0cbd e6ac eb3d e0fc 883e
000002e0: 20b4 81bd ac20 293d da6b 80ba 54e5 573d
000002f0: 412c cbbe 58c3 02bd cb6d a73c bf94 033d
00000300: 8d34 80bd 6ca8 93bd 1d39 173c 475a abbe
00000310: 34e5 c0bd 13fe a03b 44fc 233c bfb8 b43d
00000320: 7e25 df3d d1c9 2d3c 1a1d b63c b071 283e
00000330: b307 603d 0d10 763d 0c7d 883d 9e32 fa3c
00000340: 2b5e bb3e 97f7 71ba 5f04 e43d 3378 293d
00000350: 1753 16be dbc4 90bc ed4f 323d b2f7 f13d
00000360: 9c44 35bd 950f 2b3e 40c4 ddbd 3eea 9f3e
00000370: 2723 b13c 71b5 64bb f0c8 78bd 3bab 7b3d
00000380: 5f42 9dbd a655 e4bb 5033 c8bd 9c81 8bbd
00000390: 823d 87be 459c c2be 78e4 0bbd fbcf cfbe
000003a0: 3263 81bc bd5f aeb9 5d90 4a3d 9a3a 9dbd
000003b0: 64d1 eabe 46d1 c9bd 57e8 9e3e 7d7d 933d
000003c0: cc58 5dbd fcc8 103e 0e49 1ebe 1d18 80bd
000003d0: cb64 773d 879f 9b3d e588 57bd b8ae 843d
000003e0: 83f9 263e a7c9 47bd cfe7 003e 1700 9a3a
000003f0: 6f05 803f ef41 2abe 30db cbbb 604f 9cbd
0.3077028 -0.23425204 0.011551351 0.02595334 0.1312688 0.010364607 -0.31696248 0.0042959303
0.2845095 -0.024250109 0.25384873 -0.08571751 -0.05685262 0.07235897 0.06183339 0.101950064
0.053661935 0.09322309 0.03215213 -0.00083305687 -0.020780958 0.0770445 0.0921518 -0.07935698
-0.0110883 -0.013673798 -0.012618281 -0.03174214 -0.07975372 -0.014947919 -0.040275127 -0.08163921
-0.058566798 -0.22376373 -0.057874314 -0.18249467 0.024793655 0.017581819 -0.110530205 0.18986142
-0.00852064 0.010223092 -0.22008409 0.08064125 0.061962266 -0.011408053 -0.33439994 -0.07379085
-0.019545248 -0.6528513 0.0875454 0.025594998 0.034042835 -0.027986163 -0.023673741 -0.0692242
0.032323457 0.09887502 -0.03791074 0.06490147 0.08151148 0.0455207 -0.32349518 0.3758437
0.04436411 -0.11940645 -0.15711372 -0.28526843 -0.20754947 0.13618311 -0.039759178 -0.26821676
-0.08462964 -0.043242693 0.051403355 0.052956678 0.03593667 -0.026734898 0.072019495 0.16302963
0.3381072 -0.7971883 0.07619967 0.079493396 -0.016118703 0.055651482 0.06702386 0.061816484
0.00818168 -0.037532095 0.0535459 -0.010284912 0.072959386 0.01595628 0.07591456 0.068088286
-0.09299676 -0.8835171 -0.052337185 0.0631531 0.16996744 0.089120224 0.021907466 -0.0444219
-0.46181476 0.4520431 0.008070679 0.10878247 -0.082193635 -0.060634945 -0.034058224 0.055753153
-0.04423165 -0.6636863 -0.031557415 -0.42492908 0.14150284 -0.05854225 0.0690024 -0.093876116
-0.025733784 0.07413651 -0.030483602 0.019830987 -0.06670473 -0.012918509 0.078888156 -0.050760336
0.049634486 0.53850436 -0.047735978 -0.0102218585 -0.02806275 -0.6330826 0.5000229 -0.06405394
0.027881898 0.2260401 0.09364026 -0.0018116534 -0.060141157 -0.037705444 -0.032540258 -0.028222606
-0.0054582707 0.045081425 0.0146684 0.4641123 -0.16030402 0.022100614 -0.0018234404 0.041982368
-0.25470367 -0.06571778 0.063931435 -0.017213874 -0.11308846 0.028933704 -0.19206227 0.087203234
-0.2328428 0.08243989 0.03504172 0.34742108 -0.07379454 -0.014313481 0.34729856 -0.0778762
0.15532957 0.08626399 -0.008859088 0.18521914 0.038500033 -0.054091252 -0.035554074 -0.061071217
0.1598265 0.0874132 0.12786902 0.0709004 0.08152486 -0.034399115 0.11507587 0.26755428
-0.06333184 0.041290924 -0.0009797767 0.05270894 -0.396822 -0.031924576 0.020438096 0.032124277
-0.06260023 -0.07209858 0.009229925 -0.33467314 -0.09418717 0.0049131005 0.010008875 0.088243
0.10895823 0.010607199 0.022230674 0.16449618 0.054694843 0.0600739 0.06664476 0.030541714
0.36595282 -0.0009230314 0.11133646 0.041374397 -0.14680134 -0.017671993 0.043533254 0.11814822
-0.044254884 0.16705163 -0.10828447 0.312334 0.021623207 -0.0034898187 -0.060738504 0.061442595
-0.07678675 -0.006968218 -0.09775412 -0.068118304 -0.26414114 -0.3800985 -0.03415343 -0.40588364
-0.01579437 -0.00033259197 0.04945408 -0.07677193 -0.45862877 -0.09854369 0.31036636 0.07201669
-0.05403976 0.1413917 -0.15457556 -0.06254599 0.060398858 0.07598787 -0.052620787 0.064786375
0.16306119 -0.048776295 0.12588428 0.0011749294 1.0001658 -0.16626714 -0.0062211975 -0.07632327

fc3.bias f4 [128]
00000000: 5b83 67be 3a1b 8a3e faf5 25be c619 dfbd
00000010: ee57 81bd 6fd8 03be d362 19be d688 5abe
00000020: 9c1c 1ebd b3bd 283e c71b a3bd afed 13be
00000030: ea60 1abe 75b2 fdbd 5a76 8d3e f3c4 eebd
00000040: e558 c1bd 028f 0cbe 8b4d 0fbe 1f5c 39be
00000050: 4590 2fbe 6241 f4bd e0c4 1cbe 0b82 ddbd
00000060: 88dc 9fbd 22ae f7bd ea29 c3bd e104 a5bd
00000070: c554 5abd 45dc 2bbe 8d10 febd d02f 613e
00000080: 9fde e2bd d382 a23e 6596 c0bd 2123 a3bd
00000090: 5354 863d 8994 2cbe 5dc1 8fbd 8638 583e
000000a0: d55d 8abd b0bd f6bd 1680 18be 251d 09be
000000b0: 8cbf 763c 6d42 ecbd f65d e2bd 1f2d 94bd
000000c0: fc25 3abd 4409 8ebd 9f08 e7bd 6dca 36bd
000000d0: 305b d0bd b864 48be a5ed e2bd 16cc 36be
000000e0: f6c0 06be fbc6 0fbe c3e2 263e 4f8c 55bd
000000f0: 0348 c7bd b971 5e3e caac dfbd 7754 b6bd
00000100: 8519 0bbd e9c4 14be 2395 32be 9580 43be
00000110: 5b8c d7bd 4add 21be 25a8 813d a745 e4bd
00000120: 5f66 dbbd 22e9 9fbd 1add b23d 8525 ba3c
00000130: 6e93 803d 3f74 61be 5fa6 1dbe 1777 ce3d
00000140: ac58 d0bd e6ab cbbd 2724 3bbd ca24 1a3e
00000150: b484 1fbe d3df 3ebe f073 01be 4605 0fbe
00000160: 4c14 a7bd 7435 cfbd 27b6 b03d 66c2 12be
00000170: 63d7 dfbd 6581 83bd ab76 25be 2408 9dbd
00000180: 7e09 03bd 9f80 a13d 25f2 fe3d 111c 643e
00000190: e750 62be f23c 00be 1121 01be 25ef 60bd
000001a0: 20aa bcbd 9163 cfbd 7f03 103d 3aff debd
000001b0: 4dca 15be 7431 ddbd d3de c9bd 9119 07be
000001c0: 89dd 09be 0022 0dbe 9d17 223e 0d1d f2bd
000001d0: a75b b2bd c4d1 6d3b 6cc4 2cbe 8239 17be
000001e0: 230d febd 28cb b1bd 8fdc b23c 56eb b4bd
000001f0: c5ea dcbd eed8 05be 6ba7 07be 212b d4bd
-0.22608702 0.26973897 -0.16207114 -0.10893588 -0.063155994 -0.12875532 -0.14979105 -0.21341261
-0.038601503 0.16478615 -0.079642825 -0.14446138 -0.15076032 -0.123875536 0.27629358 -0.11658659
-0.094407834 -0.13726428 -0.13994424 -0.18101548 -0.17144878 -0.11926533 -0.15309477 -0.10815819
-0.07805735 -0.1209376 -0.09529479 -0.08057571 -0.0533035 -0.16783245 -0.124055006 0.21990895
-0.11077618 0.31740436 -0.094036855 -0.07965685 0.06559052 -0.16853537 -0.07019303 0.21115312
-0.06756178 -0.12047899 -0.14892611 -0.13390024 0.015060317 -0.11536107 -0.11053078 -0.07235169
-0.04544638 -0.06935361 -0.11280941 -0.044626642 -0.10173643 -0.19569671 -0.11080483 -0.1785129
-0.13159546 -0.14040749 0.1629744 -0.05213576 -0.09730532 0.21723069 -0.10921629 -0.08902829
-0.033959884 -0.1452824 -0.17439704 -0.19092019 -0.105248176 -0.15807071 0.06330899 -0.11146098
-0.10712885 -0.078081384 0.08733578 0.022722969 0.0627812 -0.22017 -0.15395497 0.10081308
-0.10173163 -0.099448964 -0.045688774 0.15053096 -0.15577966 -0.1864007 -0.12641883 -0.13966855
-0.08158168 -0.10117617 0.08628493 -0.1433197 -0.10929754 -0.064211644 -0.1615855 -0.07667568
-0.031991474 0.07885861 0.12448529 0.22276331 -0.22101174 -0.12523249 -0.1261027 -0.054915566
-0.09212136 -0.10126413 0.035159584 -0.10888524 -0.14627953 -0.10800448 -0.098569535 -0.13193347
-0.13463415 -0.13782501 0.1582932 -0.11821947 -0.087088875 0.003628836 -0.16871804 -0.14768031
-0.124048494 -0.08681327 0.021833686 -0.08833949 -0.10786966 -0.13071033 -0.13247459 -0.10359789

fc4.weight f4 [1, 128]
00000000: 78bc 58bd fcfd b5bd 2b7b b43c e044 8c3c
00000010: 8a44 5d3c 71cd d93a c4cd a3bc 7020 5fbc
00000020: b789 f9bd 6c14 d9bd 0711 de39 2d72 8f39
00000030: 35f1 13bd c825 893d 403b 91bd a37b 703c
00000040: 62de 3fbc 959a 253c 6451 2ebc 5296 3c3d
00000050: 32dc 8bbb 0727 1bbd c928 b4bb c3fc c2bc
00000060: daf5 d33b 7dfc 58bc 43a1 16bc 7441 83bb
00000070: a64f 85bd e015 ff39 d953 f7bd 1594 8dbd
00000080: 4def 433b a224 8c3d da26 d3bc 23e9 2a3c
00000090: a324 373e ea3f ecba f147 31bd 8537 713d
000000a0: 7080 783c e646 8b3c 3255 943b 4293 5dbb
000000b0: b713 dcbd 279e e7ba 2d20 b43c 2407 b43c
000000c0: 8a6b 26bd d6c3 223b c8af 583b 07d6 78bd
000000d0: 3064 443c 2ca4 90bd da35 2ebe 1339 943d
000000e0: bb9f 0b3d 0692 e23a ace7 8f3d 7598 3c3e
000000f0: 8850 e0bb 74c0 92bd 8e39 5ab9 9b30 6e3c
00000100: 9441 e83d 18b3 f53b feb8 d83d 14f0 21bc
00000110: f90f 93bc dbd5 263c 492d 9fbd 0619 1f3d
00000120: 147c 97bb fb63 8a3c bab4 3c3d ea6b 2cbd
00000130: e207 673e 45f1 373d 62ad 7a3d af5b 73bd
00000140: ce38 c93c 1c13 dbbd 26bf 62bd f48b 763e
00000150: 1234 ddbb a157 01bc 5ed7 da3c 1dbf c5bc
00000160: 4ee4 d9bc f393 3e3b d2ca 50be a8f9 de38
00000170: 847c a7ba 1c01 283e bf76 283b a34e b8bc
00000180: 8ec0 6f3d e724 84bd 3245 c2bd c6ca 273e
00000190: 3fb2 ae3d a396 18bc 4ebf ecbd 2bc6 a8bb
000001a0: 6c3e 933b 9139 9b3c 85cc de3d 92d5 993c
000001b0: a54b 3b3c ed52 a6bc aaf0 ba3d e265 8c3a
000001c0: 6c71 b0bc 7ea3 cd3b 7400 e73d 1620 41bd
000001d0: d1d3 49bc ec5e 1cbe 04df 543d 439a b3bc
000001e0: 7104 603e 12d8 443c 6a5b e4bd 7a28 3d3c
000001f0: f3ba 9e3b 68b6 b0bc 2a11 b63b 7595 5e3c
-0.052914113 -0.08886334 0.022031387 0.017122686 0.0135051105 0.0016617012 -0.019995578 -0.013618574
-0.1218447 -0.10599598 0.00042355826 0.00027360153 -0.036118705 0.06696659 -0.07091379 0.014677915
-0.011710735 0.010107656 -0.010639522 0.046041794 -0.0042681927 -0.037879016 -0.005498026 -0.023802167
0.006468517 -0.013243792 -0.009193721 -0.0040056054 -0.06509332 0.00048653688 -0.120765395 -0.0691301
0.0029897273 0.06842925 -0.025775362 0.010431561 0.1788507 -0.0018024419 -0.0432815 0.05889084
0.015167341 0.01700158 0.0045267576 -0.0033809696 -0.10745948 -0.0017671034 0.021987999 0.021976061
-0.0406299 0.0024835966 0.0033063758 -0.060750987 0.011986777 -0.07062563 -0.1701273 0.072374485
0.034087878 0.001728595 0.0702661 0.18417533 -0.0068455376 -0.07165614 -0.00020811541 0.014537956
0.11340633 0.0074981563 0.105821595 -0.009883899 -0.017951952 0.010182823 -0.07772309 0.038842224
-0.0046229456 0.016893378 0.04607079 -0.042095102 0.22561601 0.044907827 0.061200507 -0.05941361
0.02456322 -0.10697004 -0.055358075 0.24076825 -0.006750592 -0.0078944275 0.026714023 -0.024138981
-0.026598122 0.0029079884 -0.2038987 0.00010632287 -0.0012778197 0.16406673 0.0025705544 -0.022498434
0.058533244 -0.06452351 -0.09485854 0.16385946 0.085300915 -0.009313258 -0.11559926 -0.0051505766
0.0044935253 0.018948348 0.10878853 0.018778596 0.011431609 -0.020303214 0.09127934 0.0010711516
-0.021538459 0.0062755933 0.11279383 -0.04714974 -0.012318567 -0.15270585 0.051970497 -0.021924144
0.21876694 0.012014406 -0.11150248 0.011545295 0.0048440634 -0.021571353 0.0055562453 0.013585438
