multi_agent/checkpoints/Multi_checkpoint_actor_30_20_local_4000_run3.pth (torch, 29087 bytes, 4 tensors)

fc1.weight f4 [256, 24]
000000 cd 99 db 3d be eb 8e 3f e2 19 81 be 53 5d 53 3e
       0.107226945 1.1165693 -0.2521506 0.20641069
000010 d3 86 06 3d 77 2e 6f bc eb a6 80 be 67 39 1f 3e
       0.032843422 -0.01459848 -0.25127348 0.15549241
000020 50 5f 6a 3d 80 42 57 3f 99 0e d2 3d a7 50 49 be
       0.057219803 0.84085846 0.102566905 -0.19659673
000030 2d 6d 59 3d 3b f6 7e 3e 4b 59 ef 3d 5e 06 62 be
       0.053082634 0.24898617 0.11686953 -0.22072741
000040 14 9f 5b 3d 7a 89 5c 3f 29 0e 1f 3e b3 01 aa bd
       0.053618506 0.8614727 0.15532745 -0.08301105
000050 0b 87 a9 bd fb 86 8a 3e ee d2 0a 3e 20 19 c8 bc
       -0.082777105 0.27056107 0.13557026 -0.024426043
000060 51 1b 66 be af 6f a3 3e e8 00 1f 3c 67 d8 a6 be
       -0.22471358 0.31921145 0.009704806 -0.32586977
000070 66 d5 2c 3d bd 50 39 be ae ab bd bd d5 95 8b be
       0.0421957 -0.18097205 -0.09261261 -0.2726275
000080 83 17 ca be 7f 03 d3 3d 66 ac 72 3d 7f da a7 be
       -0.39471063 0.10303401 0.059246443 -0.32783887
000090 9d 34 7f 3e 6d 2d 1b be bb df e6 3d 45 4e c6 be
       0.24922414 -0.15154047 0.11273142 -0.3873159
0000a0 55 22 5b be 81 f7 ea 3e 47 e1 79 3c 7d d2 5b 3d
       -0.21399815 0.45891955 0.015251464 0.053667534
0000b0 a4 85 af 3e 25 a9 1d bf 59 f6 52 3d 29 d2 f4 3d
       0.34281647 -0.6158622 0.051504467 0.11954147
0000c0 b6 94 c5 3e 40 48 dd 3c e5 f1 42 3d 58 29 42 3e
       0.3859002 0.02701199 0.04759397 0.18961084
0000d0 30 77 65 bd 5c 47 cd be 82 50 f3 bc d8 00 4d 3e
       -0.05602187 -0.40093505 -0.029701475 0.20019853
0000e0 6c 67 a4 3e e0 0b f5 3c 10 0a f8 3c 89 d8 80 3d
       0.32110155 0.029912889 0.030278236 0.06291301
0000f0 18 7b 09 be 97 3d b4 be 76 f3 7b bd 13 23 4e 3d
       -0.13425863 -0.3520324 -0.06151148 0.050326418
000100 01 0b 5a 3e 38 d8 27 3d 25 c6 30 3c 72 ce 30 bd
       0.2129326 0.040977687 0.010789429 -0.04316563
000110 23 ec c2 bd fd 2a a6 be 9f 86 88 bb 99 4b b5 bd
       -0.09517696 -0.32454672 -0.0041664387 -0.0885231
000120 80 13 10 be 51 b3 05 bf c0 3c 9a 3d 93 76 51 3d
       -0.14069939 -0.5222674 0.075311184 0.05113847
000130 96 ad 41 bc e8 f7 32 3e a6 65 d0 3d f3 c7 89 3d
       -0.011821171 0.17477381 0.10175638 0.067275904
000140 e5 28 1a 3d 11 71 a2 be 08 c8 c8 3d 9f 54 c2 be
       0.037636656 -0.31726888 0.09803778 -0.37955186
000150 58 ce 49 be e6 5a 5d be 82 3c ca 3d bc c9 b1 be
       -0.1970762 -0.21616706 0.09874822 -0.34724224
000160 d1 a3 96 be 32 6b 01 bf 62 41 d5 3c d6 12 db be
       -0.29421857 -0.5055419 0.026032154 -0.42787808
000170 7c 2d ae bd 96 a3 f2 3d 4a 19 a4 3d 2b 1e b4 be
       -0.08504769 0.11847608 0.08012636 -0.35179266
000180 90 48 5a bc 10 99 79 bc 14 cb 20 bd 80 4c 9c bb
       -0.013322964 -0.015234247 -0.03925617 -0.0047698617
000190 f2 45 6a bd 9c 09 2d 3d bc d4 5c 3d d0 8d 88 3c
       -0.05719561 0.042245492 0.053913817 0.016669184
0001a0 ba 1d 72 3d da f2 00 3d 26 b2 29 3d f6 72 6c 3d
       0.05911038 0.0314816 0.04142966 0.057726823
0001b0 34 02 30 bd c0 ac a0 bb d8 59 c0 3c d4 0b 89 bc
       -0.04297085 -0.004903406 0.02348034 -0.016729273
0001c0 a0 98 35 bd c0 c3 a0 bc 04 cf fd bc 5c 93 b3 bc
       -0.044335008 -0.01962459 -0.030982502 -0.021920852
0001d0 46 05 43 bd 90 71 9a bc 24 af 12 3d 4c b8 e0 bc
       -0.04761245 -0.018852979 0.03581156 -0.02743163
0001e0 80 c0 bb 3d c3 2a 13 bf 88 14 4b 3d 24 26 ef bc
       0.09167576 -0.57487124 0.049580127 -0.029192992
0001f0 80 97 d7 3c 20 90 f4 3d 8f e9 ed 3d 7a aa ca bc
       0.026317358 0.11941552 0.116168134 -0.024739493
000200 09 9d 99 3d 9c 1d 03 bf 3d 45 3a 3e 13 c5 9b bd
       0.07500655 -0.51217055 0.18190475 -0.07605948
000210 27 90 51 be 55 d1 a1 3e 85 5f 4a 3e c9 8a aa bd
       -0.20465146 0.3160502 0.19763 -0.083272524
000220 31 0b 99 3d f9 97 09 bf 06 91 b7 3d cd 1e ef bd
       0.07472838 -0.53747517 0.08963208 -0.11675797
000230 b1 33 ac be d3 48 1f 3f 51 9c 2d 3e b3 9b e0 bd
       -0.33633187 0.62220496 0.16954161 -0.10967197
000240 15 ec 30 be 36 da 56 be f4 fe a9 bd ce ae a7 3e
       -0.17277558 -0.20981678 -0.083005816 0.32750553
000250 39 5c 4a bd a8 cd c6 3d 77 8d 4f bd b7 3c 8e 3e
       -0.049404357 0.097071946 -0.05067202 0.27780697
000260 c5 93 d8 bd ae 88 3b be f7 ed dd 3d 97 25 5c 3e
       -0.1057506 -0.18313858 0.10836404 0.21498714
000270 89 36 c7 bd 43 b0 ec 3e 90 fa ff 3d 70 3b 80 3e
       -0.09727199 0.46228227 0.12498963 0.25045347
000280 4a b5 69 3e 12 9f 07 bd 4e e5 34 3e ae 63 86 be
       0.22823063 -0.033110686 0.17665598 -0.26247925
000290 47 c0 ae be 8a 6f 92 3e 54 58 61 3e 39 12 7e be
       -0.3413107 0.28600723 0.22006351 -0.24811639
0002a0 00 5b c4 bd 22 5b 7c be 52 ce 60 3c 6a ea 81 3e
       -0.095876694 -0.2464414 0.013721066 0.25374156
0002b0 28 b2 c9 be 06 30 f9 be 78 25 99 bc 9a ad 62 3e
       -0.39393735 -0.4866945 -0.018694624 0.22136536
0002c0 3b 08 ff bd 15 64 83 be 1c 41 79 bc 8c c8 a7 3e
       -0.12452742 -0.25662294 -0.015213277 0.32770193
0002d0 3a 84 c6 be aa 11 9d bf 5e c3 6f 3c 92 ee d0 3e
       -0.38772756 -1.2271016 0.0146339815 0.40807015
0002e0 41 e7 82 be 45 77 09 be 3f 56 60 3e e4 29 68 3f
       -0.25567058 -0.13424404 0.219079 0.9068892
0002f0 e9 cb 0f be 58 0c b4 bf cb 9a 51 3e ea ae 64 3f
       -0.1404263 -1.4066267 0.20469205 0.893294
000300 04 96 43 3d 82 f5 9d bd 2e 61 f6 3d 5f 8b 60 3e
       0.047750488 -0.077128425 0.12030254 0.21928166
000310 90 4b 87 bd 8d 88 4f 3d 9c 54 85 3c dd b2 48 3e
       -0.06606209 0.050667334 0.016275696 0.19599481
000320 ba 16 c7 3d bc 62 54 be 03 cf 75 3d 76 8c 91 3e
       0.097211316 -0.20740789 0.060011875 0.28427476
000330 be 89 77 bd 18 e5 2a 3f de 7e df 3d 2e 3e 9c 3e
       -0.060434096 0.6675582 0.1091287 0.3051619
000340 18 08 e6 3d de bf 89 be 33 f7 2f 3d ff 64 06 be
       0.112320125 -0.26904196 0.042960357 -0.13124464
000350 05 8f 9b be 10 f5 50 3f 88 b4 6c 3c 03 72 4a bd
       -0.30382553 0.81623936 0.014447339 -0.049425136
000360 fc 4a 65 3c 08 61 62 be ce 41 aa bd 44 94 89 ba
       0.013994928 -0.22107327 -0.083133325 -0.0010496457
000370 c5 0b 76 bd ad 23 e7 3d 53 bf f7 3c 60 46 06 bc
       -0.060069818 0.112861015 0.030242598 -0.00819549
000380 ed 4c 44 3d c9 dd a0 be c0 2f 18 3e be 2d 2c be
       0.047924925 -0.3141921 0.14861965 -0.16814324
000390 9f 27 9f be 33 61 c2 3e 7d 8c e7 3d c6 29 75 be
       -0.31084916 0.37964782 0.11306093 -0.23941717
0003a0 92 3b 2b bd 2e 4f 31 be 01 f9 66 3e 4a ab 1a be
       -0.041804858 -0.17315361 0.22555925 -0.15104404
0003b0 d2 e5 9c be 77 21 34 3f 89 36 83 3e 68 85 10 be
       -0.3064409 0.70363563 0.25627545 -0.1411339
0003c0 39 43 28 bf bc 19 a6 be 98 00 9e bd c4 11 c9 bd
       -0.65727574 -0.3244151 -0.07714957 -0.09817842
0003d0 fa 6d 28 3e a1 61 db 3c 94 79 c8 bd 4a 7e da bd
       0.16448203 0.026779952 -0.09788814 -0.10668619
0003e0 1c 7f 02 bf 7d 6a 7c be 0e d0 45 3c 49 54 4a be
       -0.50975204 -0.24649997 0.01207353 -0.19758715
0003f0 86 b9 e9 3d 99 c3 e5 be 2a be 0f bd 8f 46 80 be
       0.11412339 -0.44875792 -0.035093464 -0.25053832

fc1.bias f4 [256]
000000 25 27 b9 3b fa ac fd 3d 35 c1 73 be 91 2b 41 3e
       0.0056504183 0.12386508 -0.23804171 0.18864276
000010 17 bc 4f be ec e0 c5 bd e7 b4 3b 3e e5 c4 cc 3d
       -0.20286594 -0.09662041 0.18330728 0.09998492
000020 28 3b 28 3e 2b 6c 25 bd 50 61 66 3d 2b af 9a bd
       0.16428816 -0.04038636 0.05624515 -0.07552942
000030 a2 f0 14 3e 7d 4c bf 3e 9b f4 57 3e 48 45 47 3e
       0.14544919 0.37363043 0.21089403 0.19460022
000040 19 d1 65 3e 66 5d a0 be 0e 9e 3d be e4 b1 56 3e
       0.22443046 -0.31321257 -0.18517324 0.20966297
000050 4b 5a 48 be b7 2b 15 3e 1c cd d5 bc bb d9 6b bd
       -0.19565694 0.14567457 -0.02609878 -0.05758069
000060 95 84 63 3e 9d a4 17 3e dc 9a 23 be 08 ef a2 3d
       0.22218545 0.14808889 -0.15977043 0.07955748
000070 c0 d6 c9 3b 5e 5c 99 be 81 55 fb 3d 89 5e eb 3d
       0.0061596334 -0.29953283 0.12272168 0.114926405
000080 ab cf 31 3c e4 54 11 3e 9c 7a c6 3d 8c b3 5f 3e
       0.010852735 0.1419254 0.09691355 0.21845835
000090 27 f9 e4 bd 67 75 a6 3d 02 30 16 be e8 79 31 be
       -0.111803345 0.081278615 -0.14666751 -0.1733166
0000a0 80 92 93 be df 2b 12 3e 0b 5c b1 be 63 70 4a be
       -0.28822708 0.14274548 -0.34640536 -0.19769435
0000b0 d9 aa b4 be 0e 5f 0f 3e d5 5c 12 be 3c c2 dd 3d
       -0.35286596 0.14001104 -0.14293225 0.10828063
0000c0 35 75 21 be ea 0b 03 3e 13 5b 0d be 36 89 6f 3e
       -0.15767367 0.12797514 -0.13804273 0.23392186
0000d0 88 b7 1a be af 78 46 3e 4b e5 61 3e da 86 19 3e
       -0.15109074 0.19381975 0.22060125 0.14992848
0000e0 0a d8 ea 3d 67 fc 34 3e 8d e9 22 3e 73 a0 94 3d
       0.114669874 0.17674409 0.15909405 0.07257166
0000f0 6d fe 1c be 07 56 89 bd 45 4d 23 be 5b 0c 11 3e
       -0.1533143 -0.067058615 -0.15947445 0.1416487
000100 b2 95 c9 bd 4b 6f 8f 3d c0 b5 7d be 27 90 ef 3d
       -0.09843005 0.07003649 -0.24776363 0.11697417
000110 a0 9e f8 bd 8b e5 9f be a0 ce 24 3e 5b 91 b2 be
       -0.1213963 -0.31229815 0.16094446 -0.34876522
000120 6c bb 48 3e 5f c1 47 bb 0c e8 4f be 87 eb 50 be
       0.19602746 -0.0030480248 -0.20303363 -0.20402347
000130 cc 08 4c 3d 25 a2 f1 3d 14 2a 1c bd 4a 35 b9 3d
       0.049813077 0.11798505 -0.038126066 0.09043367
000140 aa 26 01 bc 16 49 02 3e 89 df 9f be f7 fc 4f 3e
       -0.007882753 0.12723193 -0.3122523 0.20311342
000150 ab 80 4b be 9d e5 f5 bd fb b6 81 bd 35 6d 4e 3e
       -0.19873302 -0.12006686 -0.06333729 0.20158847
000160 1f bb 21 be e2 58 b3 3c f9 74 5c be 6e f9 01 bc
       -0.15794037 0.021892969 -0.21528997 -0.007933004
000170 5f e9 9f 3d dc be 5a be b5 c9 7f 3e 7c 65 0a be
       0.07808184 -0.2136187 0.24979289 -0.13515276
000180 dc 8d 17 3e 74 91 56 3e 6d 97 33 bc cd fd 68 bc
       0.14800209 0.20953923 -0.010961396 -0.014220667
000190 fb a8 a7 3d 42 bc 3f 3e ce 33 c2 bd 03 7e 43 3e
       0.08186527 0.18724158 -0.09482537 0.19091038
0001a0 32 fe c7 3d 9d ce d7 3d 69 f6 32 3e 31 e0 87 3e
       0.09765281 0.10537455 0.1747681 0.26538232
0001b0 50 12 d2 bc f9 ac 11 3d 56 85 88 3e ae 08 86 3d
       -0.025643498 0.03556535 0.26664227 0.06544624
0001c0 95 2e 0b 3e cc a4 30 3e fd da 89 3e 5f 5d 94 3e
       0.13591988 0.17250365 0.26924887 0.28977486
0001d0 eb e9 25 be 9c 89 1e be 36 e7 22 3e d8 bb 07 3e
       -0.16202514 -0.15482181 0.15908512 0.1325525
0001e0 ca 09 68 3e 5e d0 1c 3e 59 68 45 3e 4f ff 88 be
       0.22659984 0.15313861 0.19278087 -0.26757285
0001f0 70 8b e0 3d 4b 0b dd 3d da 42 60 3e 54 9f 74 3d
       0.109640956 0.107931696 0.21900502 0.05972226
000200 b3 1c ef bd fa cb 43 3d ec 23 45 3e d5 6a 4f 3e
       -0.11675396 0.04780195 0.19251984 0.20255597
000210 d7 cc 98 3d b9 ef 19 3e de a0 e9 3d d8 55 f9 3d
       0.07460945 0.15032853 0.11407636 0.121745765
000220 a0 ba c4 be 9a 9c 57 bd b4 ca 14 3e 0e 2e 3c 3e
       -0.38423634 -0.05263958 0.1453045 0.18376943
000230 4d 6f f0 3d 52 2e 18 3e 38 21 6f 3e b9 6d 0d 3e
       0.11739979 0.1486142 0.23352516 0.13811387
000240 56 f1 d0 3d c4 83 12 bf 82 05 4f be ce a6 20 3e
       0.10202281 -0.5723231 -0.20216945 0.15688631
000250 c8 c5 c8 bc 8b ae 6f be 5c 68 48 3e 84 88 bf 3e
       -0.024508372 -0.23406427 0.1957106 0.3740884
000260 d6 11 e1 be 9e 4c 8e 3e de 54 03 3e 90 a6 d2 3c
       -0.4395892 0.2779283 0.12825343 0.025714189
000270 b8 c1 2c 3d 83 4d 3d be 25 c4 4d 3e 56 13 82 3e
       0.042176932 -0.184866 0.20094354 0.25405377
000280 a3 dc 9e 3e f4 d8 c5 bd 0f 2f c0 3c fa cb c2 3d
       0.31027707 -0.09660521 0.02345994 0.09511562
000290 90 eb c0 3d 82 ce 7d bd 64 08 9a 3d 16 5d f6 3d
       0.0941993 -0.06196452 0.07521132 0.120294735
0002a0 a3 c9 30 3e 3b f7 54 3e 8c f5 8a 3d a1 e2 08 3d
       0.17264418 0.20797436 0.067851156 0.033419255
0002b0 c0 83 18 be c9 72 48 be 2c 92 e3 bd 37 29 16 bc
       -0.14894009 -0.19575037 -0.111118644 -0.0091651
0002c0 d8 33 18 3e de 7d fe 3d a7 dc fb 3c 45 6b 83 3d
       0.14863527 0.12426351 0.030744864 0.064169444
0002d0 84 ae 34 be 94 5a 66 be 72 0a 17 3e 1a 05 c7 3d
       -0.17644697 -0.2249549 0.14750078 0.0971777
0002e0 29 02 12 3e 18 2e e2 bd 5e bd 32 be c1 6b fd bc
       0.14258637 -0.11043948 -0.1745505 -0.03093517
0002f0 57 4f 8b 3e 89 cb 0b 3e 86 2d 6e 3e 93 51 55 3e
       0.2720897 0.13651861 0.23259553 0.208319
000300 26 4b 8d 3e 59 8c 56 3e 0c 34 12 3d f9 3d 81 3e
       0.27596396 0.20951976 0.035694167 0.25242594
000310 f6 74 83 3e dc 8b 8d 3e 2d c6 aa 3e 0c 44 02 3e
       0.25675172 0.27645767 0.3335432 0.1272127
000320 37 01 6a 3e bf ad d6 3d 72 3c 30 be b6 f1 f6 bd
       0.22852026 0.10482358 -0.17210558 -0.120578215
000330 c5 d1 3d be 20 9a 0a 3d 1f 3c 06 3e ba 04 13 3e
       -0.18537052 0.03383839 0.13108872 0.14357272
000340 c2 3b 40 be d0 f0 07 be 54 a1 82 3e 5b 8d 97 3e
       -0.18772796 -0.13275456 0.2551371 0.29600033
000350 f6 06 1c be ec cf f8 3d 09 01 e6 bd 6b 93 7b be
       -0.1523703 0.12149033 -0.11230666 -0.24567954
000360 34 d6 bf bd 59 da 15 3e bc a6 43 be 3d c4 40 be
       -0.09367028 0.14634074 -0.19106573 -0.18824859
000370 ab 4c fa 3d 4f 5d 11 3e bf 92 64 be 44 1e 35 3e
       0.122216545 0.1419575 -0.22321604 0.17687327
000380 89 e7 b9 3d 6b bb d1 3d 4d df 01 3e cc 1a 5b bd
       0.09077365 0.10240825 0.12682839 -0.053492352
000390 ca 5e 54 3d 80 47 2c be 45 64 08 be 23 54 09 3e
       0.05184821 -0.1682415 -0.133195 0.13411002
0003a0 da f0 22 be f2 22 42 3e 11 5f 38 be 19 ec 92 bd
       -0.1591219 0.18958643 -0.18005015 -0.07173938
0003b0 cd e9 30 3e 17 08 f2 bd 9e 2e b2 3d 94 f1 1b be
       0.17276688 -0.11817949 0.08700298 -0.15228873
0003c0 d9 c7 d8 bd 1f 44 8e 3e 84 b6 84 be f0 67 44 3e
       -0.10584993 0.27786347 -0.25920498 0.19180274
0003d0 e5 67 5f 3e 2d 4d 89 3e 4d 0d ff 3d db 98 bd be
       0.21816976 0.26816693 0.12453709 -0.37030682
0003e0 b6 a2 a2 be b2 81 03 3e bd 74 03 3d 45 7f 32 3e
       -0.31764764 0.12842444 0.032093752 0.17431362
0003f0 de 81 7e 3d 3b dc ec 3d 28 2d 24 3e ff ee 63 3e
       0.06213557 0.11565443 0.1603285 0.22259139

fc2.weight f4 [2, 256]
000000 ab b9 1c 3f 28 e3 85 3e 67 74 0e bd 62 b3 51 3d
       0.61220807 0.2614987 -0.03477898 0.051196463
000010 94 c4 f9 3a 59 01 95 be 2a ab 71 be 8c ce 28 3f
       0.0019055777 -0.2910259 -0.2360045 0.65940166
000020 e7 a5 dc be dc 77 0a be 80 84 c8 3e 0c 4d 8c bd
       -0.43095323 -0.13522285 0.3916359 -0.06850633
000030 67 71 4a 3e 00 42 a9 3e c2 b1 4b bd e8 3d 5e bf
       0.19769822 0.33058167 -0.04973007 -0.8681321
000040 f0 0c 1d 3f 89 a9 11 bf e8 c8 c0 3a 97 7f 99 3e
       0.61347866 -0.56899315 0.0014708312 0.29980156
000050 d7 43 02 bf d4 b2 0f 3f 6e b8 2e bf 1a e3 09 bf
       -0.50884765 0.56132245 -0.6825017 -0.53862154
000060 42 5a d9 be d7 93 67 3e 44 e7 55 3a 4d 2b 91 be
       -0.42451674 0.2261499 0.00081597664 -0.28353348
000070 1d 9d 61 be ea 18 bb bd eb bb d2 bd e8 78 52 3e
       -0.2203259 -0.09135611 -0.10289749 0.20553935
000080 8c 27 18 bf 6b ff 74 3e 4e a4 d1 be 58 08 c5 bb
       -0.59435344 0.23925559 -0.40945667 -0.0060129575
000090 e3 0e 9b 3e 94 30 c6 3e 82 11 3b 3b 90 e1 80 bf
       0.30284795 0.38708937 0.002854437 -1.0068836
0000a0 dd 55 48 3f 60 cb 12 bf 88 34 44 bf bf 7f d7 ba
       0.78256017 -0.57341576 -0.76642656 -0.001644127
0000b0 28 a2 b0 bd 2e fe 10 3f 9c 1a 28 3b b5 2e 95 be
       -0.08624679 0.5663785 0.0025650626 -0.29137197
0000c0 91 b1 ff ba b3 f8 58 bf dc 3a 14 bf f2 e4 e0 be
       -0.0019507875 -0.84754485 -0.5790231 -0.4392467
0000d0 50 2e 47 39 93 89 2d bf 17 f8 00 3e b7 6b 68 3e
       0.00018995372 -0.67788047 0.12594639 0.2269734
0000e0 4f 66 54 3e cc 85 72 bc 23 9d b0 be 59 bb 47 3e
       0.20742153 -0.0148024075 -0.34494886 0.19505061
0000f0 10 47 1c 39 ae f4 82 bc 10 53 05 b9 60 0d e0 3e
       0.00014903792 -0.015985813 -0.00012714812 0.43760204
000100 52 71 1f bf 0b eb e0 3e 3e ec 91 3e f0 a0 3c bf
       -0.6228229 0.43929324 0.2850055 -0.7368307
000110 10 dd 99 3a 9a 69 36 bf c9 b0 af be e7 72 44 3e
       0.0011738855 -0.71254885 -0.34314564 0.19184457
000120 9f 01 c3 be d6 99 f1 3d 28 6d cb b9 82 70 12 3b
       -0.38087174 0.1179692 -0.00038800505 0.0022344892
000130 bd 7e ad 3e 21 7a af 3e 3e 13 1f bf 60 33 4b 3e
       0.33885756 0.34272864 -0.62138736 0.19843817
000140 22 19 96 be 71 d2 b1 3e 85 a9 b7 bf 42 55 bb be
       -0.2931605 0.34730867 -1.4348608 -0.36588484
000150 00 f8 09 37 75 f8 90 be 21 45 80 3f 1b ff 9b 3e
       8.223578e-06 -0.28314558 1.0021096 0.30468068
000160 84 88 20 3a a4 32 20 bf 18 ee 79 be 9f 8b 47 bf
       0.0006123858 -0.6257727 -0.24407232 -0.7794742
000170 7f d5 98 be 59 e4 91 bf db 27 14 bd 79 c8 ea be
       -0.29850385 -1.1397811 -0.03617082 -0.45856073
000180 67 31 9d 3c e8 89 6d 3f 36 de 0d bf 20 d2 0f 3f
       0.019188596 0.92788553 -0.5541719 0.5618
000190 d8 8c 1f 3f fe 6d 8b 3e 97 bc b0 be 46 d8 00 3d
       0.62324286 0.27232355 -0.34518883 0.031456254
0001a0 ef 48 62 3e cf a6 2f 3f ef 3c 04 bf bb a7 bb 3d
       0.22098134 0.68613905 -0.5165548 0.091628514
0001b0 fa d4 0f 3f 4f 51 8e 3f 37 f3 43 bd 06 42 08 3f
       0.5618435 1.1118563 -0.04783937 0.53225744
0001c0 5a eb a7 3e ec 09 4d bd 60 14 c2 be f0 53 90 bd
       0.32796746 -0.05005829 -0.3790617 -0.0704726
0001d0 7c f4 00 3a 30 6c 45 b9 4c dc e5 3e 77 68 e9 bd
       0.00049192435 -0.00018827687 0.44894636 -0.11396878
0001e0 a8 8e 34 bd d7 dd fd 3d b7 7e eb be f5 30 4a bd
       -0.04408136 0.12395828 -0.45995113 -0.049363095
0001f0 29 24 7a 3e fe 30 d4 3e ff 28 ad bc de 2e b6 3e
       0.24427857 0.41443628 -0.021137713 0.35582632
000200 e4 a0 10 3f 9c dc 8e 3c 0d 1e 3e 3e 4f 11 47 3e
       0.564955 0.01743918 0.18566151 0.19440196
000210 40 be b4 be ea 22 fe 3e eb 47 64 3e 33 ec 05 3f
       -0.353014 0.49636012 0.2229306 0.52313536
000220 78 72 8c bf 53 55 b2 be 60 75 67 3e 3a 3f 84 3e
       -1.0972433 -0.34830722 0.22603369 0.25829488
000230 f4 89 c6 3e 83 3b c4 3e 73 5c 04 bd 4b 08 f2 3e
       0.38777125 0.38326654 -0.03231473 0.47271952
000240 5f 86 3d be cc 96 cd bf f4 32 a9 bf 2f 8a bb 3e
       -0.1850829 -1.6061645 -1.3218675 0.36628863
000250 8e 47 b7 3e 67 62 62 3f 72 1b 92 3e f8 d7 67 3e
       0.3579678 0.884314 0.28536564 0.2264098
000260 08 3c 17 3e 01 ac 9c 3e 3a f2 34 3f 24 e8 1d 3f
       0.14768994 0.3059998 0.7068211 0.61682343
000270 55 d7 81 bf 30 42 10 bf a5 bd f3 3b 6f 66 19 be
       -1.0143839 -0.56350994 0.007438379 -0.14980482
000280 76 57 a3 3e f1 3f 5a 3f 88 ca 9f be 37 e4 09 3d
       0.31902665 0.85253817 -0.31209207 0.03366491
000290 95 33 e0 3e da f2 5a be 6c 7c ad 3e 59 67 98 be
       0.43789354 -0.21381703 0.3388399 -0.29766348
0002a0 89 76 13 3f 2a a7 70 bd 3d 39 ca 3e 87 6b 55 bf
       0.57602745 -0.05875317 0.39496794 -0.833672
0002b0 92 e9 ab 3b 3c 2b 88 3a 92 53 b0 3b 8f 0c 81 be
       0.0052463496 0.0010388861 0.005381056 -0.25204894
0002c0 74 2e 6b 3e 68 e1 c2 3e 8a 82 2c bf d5 af 57 bf
       0.22966939 0.38062596 -0.67386687 -0.84252673
0002d0 f8 e5 ac 3a d3 40 2c bf 3f 4c 15 3f 35 b7 20 3f
       0.0013191095 -0.67286414 0.5831947 0.6277955
0002e0 f5 ac 43 bf 74 15 cf 3e 05 f1 a7 bf f6 ea 80 bf
       -0.76435786 0.40446055 -1.3120428 -1.0071704
0002f0 5a 9b 60 be 35 11 c8 3e be 3c db 3e 7c 1c d2 bd
       -0.21934262 0.39075628 0.4281978 -0.10259339
000300 4e 92 05 bd fc 24 92 bf d9 59 88 be c2 20 82 bc
       -0.03261023 -1.1417537 -0.26631048 -0.01588476
000310 d6 8e a0 bb e4 02 01 bd 99 13 ff be ce 9f 07 3f
       -0.00489984 -0.031496897 -0.4981964 0.5297822
000320 7a de 2d b9 25 b4 63 3e a0 98 13 b9 88 e4 65 ba
       -0.00016581445 0.22236688 -0.0001407587 -0.00087697105
000330 f0 e2 dc b9 48 54 6d be 4a 13 9b 3e 2c 14 db 3e
       -0.00042130752 -0.23176682 0.30288154 0.42788827
000340 01 9e 90 ba 38 b6 70 3a 8d c7 04 bd e1 d4 7f be
       -0.0011033417 0.0009182426 -0.03241687 -0.2498355
000350 72 e4 86 be 92 14 07 3f 26 82 02 bf 86 2c 91 3f
       -0.26346165 0.5276576 -0.5097984 1.1341712
000360 d4 ae 51 ba ae 1e e0 3e 5e c0 0e 3b 7a c3 e2 ba
       -0.00079987687 0.43773407 0.002178214 -0.0017300688
000370 db a8 fc 3e 59 9c 03 3f 65 9d ff bd 15 9e 56 be
       0.49347576 0.5141044 -0.124811925 -0.20958741
000380 db 3f 10 3f 52 be 79 3e e8 bc 1b 3f 5e 7b 48 3f
       0.56347436 0.24389008 0.60835123 0.78313243
000390 19 df 12 3f 30 eb 02 bb 0f 75 eb bd b2 88 29 bf
       0.5737167 -0.0019976608 -0.114969365 -0.66224205
0003a0 d6 11 18 bb fd 54 66 be b2 8f 34 bb 07 7f 33 bb
       -0.002320399 -0.22493358 -0.002755147 -0.0027388947
0003b0 4f 24 b7 3e 35 fe ad 3e e0 ea 84 be 19 ec bd 3f
       0.3576989 0.33983007 -0.25960445 1.4837676
0003c0 45 63 35 3e 96 a8 a6 3c 25 18 b7 bd 17 1b 9e 3e
       0.1771365 0.02034406 -0.08940152 0.30880043
0003d0 8d 07 0a bd ad bd 36 bd c4 0c 77 be bd df b1 bf
       -0.033698607 -0.044614483 -0.24125963 -1.3896405
0003e0 e8 91 01 bf 2a 7b ba 3e 7f a3 5b bf 6b 80 2a 3f
       -0.5061326 0.36422092 -0.8579635 0.666022
0003f0 ec 37 6f 3f 44 b3 01 bf c6 0c 37 bf 35 98 55 bc
       0.93444705 -0.5066416 -0.71503866 -0.013036777

fc2.bias f4 [2]
000000 3e bc d5 bd ea 63 7b 3e
       -0.10436295 0.24549833
