multi_agent/checkpoints/Run4_reduced_episode-9900.pt (torch, 902685 bytes, 22 tensors)

fc1.weight f4 [256, 8]
00000000: 7eaf 043f 2640 e5be f90b 483e 47e5 823f
00000010: ffff 1fbf 5ffd cd3e 77c0 433e 88ad 843f
00000020: cf9f 533f 3228 913f 9c05 63be 3ef6 51bf
00000030: 41d0 c23e ce7d 2cbf 8bea b0be 3293 5ebf
00000040: a436 243e 6711 00bf f72d df3d 8557 013f
00000050: 62d5 3b3e b766 c6be a8c9 84be 4a8b 783e
00000060: 0266 963e 411a db3f 11ee 7bbd 746b d0bd
00000070: 7a83 fabe 5035 b33f 8ca9 31be 71b3 293d
00000080: 8ea5 ae3d 3257 803c ce07 68be 431c 5cbe
00000090: 6a20 943f 5e8e f3be 4191 853e 47bb 55be
000000a0: 939e b13e 912d 19be 39c0 873e 4030 893b
000000b0: 71ba 3ebe de17 3a3e 6b2d 40be 5cf4 d43d
000000c0: a295 00bf 7140 d03f 212a acbe 474f 7ebf
000000d0: efc6 1a3f 3e2d b03e 7d2b b63e 7f9b 0abf
000000e0: 4f8b de3e 0290 d8bf 0e07 523e 43a1 1ebf
000000f0: 7f49 18bf 1f1c 293f 9e5a 513e b9e3 d4be
00000100: 1f48 f9bd d849 a73f befb 933d 9249 abbf
00000110: f67a bebe d4ef 86bf d4fa 8a3e 5882 bcbf
00000120: 70e0 ea3e 1d67 973e f7a8 9d3e cff0 dfbd
00000130: 4ca1 763f 6a73 623f c1d7 0abe 1d83 15bc
00000140: e6d5 7fbe 7371 f6bf f77d 123e 2d0e 3abf
00000150: b219 ec3e 9ca0 a1bf 8e5e 45be 1386 d1be
00000160: 8584 30be 1b9e e7be 5e82 243e ac42 fcbe
00000170: f14e 593e 4f8b 393e ee49 42be c267 cabe
00000180: 8ce4 f63d d8b2 813d 5700 1abe 9230 dbbd
00000190: dfca a53e 40f8 85bd 461d 4c3e 8ec3 1c3e
000001a0: cae8 83bb 4103 02c0 cefd f13d a625 00bf
000001b0: 5770 353f 6dc7 d63f 302a dcbd d687 82be
000001c0: 22aa c33e ac09 bdbf 275e e83d df2e 21be
000001d0: d81f 5f3f e9a2 d43e 0819 3fbe c303 2dbf
000001e0: 873f 1e3f f072 fbbe 5d98 cd3e df4f a2bf
000001f0: ef76 b63e 468a b03f 1604 91be 3b58 8fbf
00000200: 7bad 503e 0d18 a83e ca6a 61be 0709 9c3d
00000210: 7cb7 9b3e 0b63 6f3e c20d 613e 225d 803e
00000220: 55b4 0f3e 0b98 14bf 6865 6cbf a07e 67be
00000230: c719 adbe 2dcd a7be 2afb 65bf 9cfb 4c3e
00000240: 0a3f e33e b328 a03e 2f8e c6bd f56b fe3e
00000250: 0579 053f 3530 b33f da83 b4be 6d63 3a3f
00000260: ae84 7e3f be05 57bf ee7a b1be ca9b a63e
00000270: 8e9f 473e 4891 f7be 8527 743e e6f6 df3e
00000280: b845 87be 5a4b 0b3e d8d3 e73d 327d 6a3e
00000290: 4d58 3bbe a8fd 9c3d e7cc 03be 90ae a2bd
000002a0: 6e50 90bf 0939 b9be dbb6 87be 7745 ef3e
000002b0: d1b1 3a3e 612e 8c3f f7cd 483e d724 293f
000002c0: 9896 a73f 9aa1 d4be 8a78 47bd 33ca 88bd
000002d0: 3492 d5be d96f 10bf 019f debd 986c d3be
000002e0: efdf 09bf 0a0e 0240 99b3 e1bd da44 1b3d
000002f0: 5bef 683e 4d0b f0bf 2fd7 a43e 71a8 353e
00000300: 4360 033e bb19 7bbe 04a8 423e cd5e 1bbf
00000310: a3a7 1a3f 0834 ce3e a35c 8f3e dc0d 1bbf
00000320: a491 233f 0b42 35be e460 3e3e 8e39 61be
00000330: 6ae9 bc3f d343 c73e a2e8 12be feac c0bd
00000340: aae3 d53f fca1 ecbd dd0a e0bd 4242 ad3f
00000350: 4c77 ebbe e6c8 fe3d 2590 113e b2dc c43f
00000360: e685 0b3f 1971 47bf 0831 08bd 28c4 b73f
00000370: 9772 c5be 2a7d a53f f194 38be 00fa 5f3f
00000380: b70f 023d f672 a538 09b6 653d ff87 143f
00000390: 0aed 8d3e 433d 1340 c7d0 853d 4563 453d
000003a0: b6b1 073f 0989 473e 6df9 47be c458 86bf
000003b0: ff51 07be 4f30 d53f 91e1 2f3e f548 b5bf
000003c0: 5d5d a5be 320d 1cbe 7955 0cbf 7168 b33e
000003d0: 0463 b8be f429 513e 05b7 83bf 83d8 e23d
000003e0: bfce 263f 6f74 cb3e 41e2 4c3e 3616 9b3e
000003f0: 235a cb3e db43 0d3f 18c1 8dbd 12db 7b3e
0.5183028 -0.44775504 0.19535817 1.022622 -0.62499994 0.4023237 0.19116388 1.0365458
0.82665724 1.1340392 -0.22170109 -0.8201636 0.3804951 -0.6737946 -0.34553942 -0.8694335
0.16036469 -0.50026554 0.10897439 0.5052417 0.18343118 -0.3875024 -0.25935102 0.24271885
0.293747 1.7117387 -0.061506335 -0.10176745 -0.48928434 1.4000645 -0.17349833 0.041430894
0.08527671 0.015666578 -0.22659227 -0.21495156 1.1572392 -0.47569555 0.26087382 -0.20872222
0.34691295 -0.14958788 0.26513842 0.00418666 -0.18625809 0.18173167 -0.18767326 0.1039817
-0.5022832 1.6269666 -0.33625892 -0.9933972 0.604598 0.34409517 0.35580054 -0.5414352
0.4346566 -1.6918948 0.20510504 -0.61964816 -0.59487146 0.66058534 0.20444724 -0.4157999
-0.12171959 1.306941 0.072257504 -1.3381827 -0.37203187 -1.054194 0.27144492 -1.4727278
0.45874357 0.29570857 0.30792972 -0.109346025 0.9633987 0.8845736 -0.13558866 -0.009125498
-0.2498394 -1.9253372 0.14305864 -0.7267788 0.46113354 -1.2627139 -0.19274351 -0.40922603
-0.17238052 -0.45237812 0.16065356 -0.49269617 0.2122152 0.18119548 -0.18973514 -0.39532286
0.120553106 0.0633294 -0.15039192 -0.107026234 0.3238134 -0.065414906 0.19933042 0.15308973
-0.0040255534 -2.0314486 0.118159875 -0.50057447 0.7087454 1.677961 -0.10750234 -0.2549426
0.3821574 -1.4768577 0.11346083 -0.15740536 0.87157965 0.4153054 -0.18661892 -0.67583865
0.61815685 -0.49111128 0.40155306 -1.2680625 0.35637614 1.3792198 -0.2832343 -1.1198801
0.20378678 0.3283085 -0.22013393 0.07618909 0.30413425 0.23377626 0.21977904 0.25071055
0.14033635 -0.580445 -0.92342234 -0.22606897 -0.3380873 -0.32773724 -0.8983637 0.20017856
0.44384032 0.3128105 -0.09695088 0.4969174 0.52137786 1.3999087 -0.35256845 0.7280796
0.99421203 -0.83993137 -0.346641 0.32540733 0.19494459 -0.48353028 0.238432 0.43743056
-0.2642038 0.13602963 0.11319703 0.2289932 -0.18295403 0.076655686 -0.12871133 -0.079434514
-1.1274545 -0.36176327 -0.26506695 0.46732685 0.18231894 1.0951654 0.1960982 0.6607184
1.3092833 -0.41529542 -0.04869894 -0.066791914 -0.41713107 -0.56420666 -0.10870171 -0.41293788
-0.5385732 2.0321069 -0.11020584 0.03790746 0.22747557 -1.8753449 0.32195422 0.17740037
0.1282969 -0.24521534 0.19009405 -0.6069153 0.60412043 0.40274072 0.28000364 -0.6056802
0.63894105 -0.17700975 0.18591648 -0.21994612 1.4758732 0.38918933 -0.14346555 -0.09407996
1.6710103 -0.115543336 -0.10939572 1.3535845 -0.45989454 0.12440662 0.14215143 1.5379851
0.5450119 -0.7790695 -0.033249885 1.4356737 -0.38563988 1.2928822 -0.18025567 0.87490845
0.031753268 7.889226e-05 0.056081805 0.58020014 0.2771991 2.300614 0.06533962 0.048190374
0.5300554 0.19485869 -0.19528742 -1.0495839 -0.13214873 1.6655368 0.1717589 -1.416289
-0.32297793 -0.15239409 -0.5481792 0.3504062 -0.36013043 0.2042616 -1.0290228 0.110764526
0.6515922 0.3973727 0.20008184 0.30290383 0.39717206 0.55181664 -0.06921595 0.24595287

fc1.bias f4 [256]
00000000: 0a8b 92be 01df 62bc 463d cb3e a71f 39bd
00000010: 5ce6 783e 7450 99be 1b0c 10be 1adf 7cbe
00000020: a2db 93bc 53b7 aabd 7206 a3bd a797 a63d
00000030: 93dd a8be f44e 54be 76c5 00bf 2ac6 36be
00000040: 2429 50be 94db 9f3d 77fe 38bc 1c69 82be
00000050: 503d 82be bc00 c2be 167f 373e 79f3 6e3e
00000060: 986e b3be e849 5c3c b721 4abe cc15 173e
00000070: c498 e2bb 1a64 c1bd dbfb 02be dfff dfbe
00000080: 706d 91be fda3 74bc acee 87be ce06 2d3e
00000090: e8af d9bd c75d 423e 61f8 39bc 18dc ecbe
000000a0: a595 b83d 362d 84bd 1e1c c4be 7e13 efbe
000000b0: bae6 8fbd a2c6 73be 0cf4 b3be 06fd 893e
000000c0: 70ce dcbd 6047 a73d e97d 913e c0b6 06be
000000d0: e11d a6be fe39 2dbe be64 20be b9d9 023d
000000e0: 37bf d6be 8b5d 45be 5d9d 79bd 9a60 a43d
000000f0: b871 773b ddc4 34be 21eb 043e 2de8 9bbe
00000100: 4207 973e 06b3 1ebe fc76 c93d a61c 89be
00000110: f3e0 643d 2b3f a2bd 0058 29be 113e 95be
00000120: 040c 0b3c 2ad7 5cbe 0d87 413e d0e9 833e
00000130: f9ca b0be 8401 0fbe 84c4 dc3d 5158 ab3d
00000140: d25b 06be 36ac 27bf bf77 3cbe 2314 95bd
00000150: 11a5 3b3e b883 8d3e 5399 00bc 9f20 9a3e
00000160: 4864 e0bc 82d7 b2be 43ee 56bd 489a eebe
00000170: 63a2 30be 13e1 bf3d 7331 c3be 1d61 4cbe
00000180: f44e 9dbe 17b7 f0bc b515 b83d ad5f a7be
00000190: ab5e 323e e3a8 36be 6884 c93d ed5e 133e
000001a0: 3d32 d63e 3bf5 67be e1f8 a03e 0b5c 4f3e
000001b0: e95a bd3d 7bf7 b93e 1c8a a23e ee34 4bbe
000001c0: 613d 93be f6b5 533d 283d 3bbe b659 423c
000001d0: c20b 30be c2c1 d4bd 0a55 04bd 737b 0ebd
000001e0: 5e04 e5be 5a8f b2be 87b3 38bd 7583 5cbd
000001f0: 9203 8d3c b17e 4cbe bb1d 7fbe 1f2d adbe
00000200: b942 883c b53f 763e 2b9e bbbd 8eae f9bd
00000210: 106d 37be 8a06 81be 6b70 61be de05 973d
00000220: a9fc aa3e 60bb 14be 849e 8d3d b155 8f3c
00000230: 0fe1 03be 8480 93be ca4f b2bd b382 f1be
00000240: 99d5 ba3d 36c3 14be 579f 97be 9ecf b4be
00000250: 0d98 a6bd c6f6 a23c 67ec cf3e b9b8 43be
00000260: a1e9 14be 97ef c7be 6aa0 0e3d 62f5 80be
00000270: 2bdb 7d3d 3c9d aebe 804d adbe d55c 82be
00000280: 8265 f93d 52d2 7e3d 7bc2 e0be e1a2 bcbe
00000290: fc39 15be 2c5e cbbd b13d 88be 4c22 573c
000002a0: 56f3 0dbf e7e3 0fbd c3bf 86be a7b6 3abe
000002b0: 8820 6dbe 3936 6f3e a267 70bd fa34 29be
000002c0: 1eb7 d03e b492 babe 5104 38be 109c a23e
000002d0: fe5a a33d 112a b4be 05c4 18be 2a81 6ebd
000002e0: 62f9 40be 1d01 163e 94fb 8cbe ebc5 d6bd
000002f0: bcd0 b9be 1efa 36be 222e d4be 89d1 44be
00000300: 7417 b2be 62e6 adbd 118e f9be 71a8 32be
00000310: e939 b7bd eea5 fabe 07d3 c83e 367c 4e3d
00000320: f51f fcbc f252 1ebf a805 1cbe aeb9 8ebe
00000330: df1e d5be b76d 20be a527 eebc 1b72 0b3e
00000340: d51e 36be eb89 66be 1f54 693e 0959 a2bd
00000350: 32ac 7abe f15f 8fbe 7d3c 85be 0877 273e
00000360: 0e47 bbbd da14 a93e 69b9 e6bc b1d4 c8bc
00000370: e35a b9be 7ade 08be baf6 0d3e 277b 8d3d
00000380: 9833 56be 4a0a f73d d404 473e e310 54be
00000390: 80a3 1cbe 4c9b 15bd 434f bbbe 7b93 a2be
000003a0: d713 03be dad8 883e 03e0 95bc 6a1c 3dbc
000003b0: 949c 93be 7f5a ccbc ce2a cebd 0e7f 963e
000003c0: 1436 1fbd 6a63 9dbe fde4 4cb9 2be1 8abe
000003d0: afcb 02be e29f c43e 74c6 75bc de49 79be
000003e0: 6d46 d0be bfb5 963e 8ecf 66be be6b 14bf
000003f0: 0f7e 56bc ee2d 34bd 7f26 1abe 541b 08bf
-0.28621703 -0.013847114 0.39695185 -0.0451962 0.24306625 -0.29944193 -0.14067118 -0.24694481
-0.018049065 -0.083357476 -0.07960214 0.08134394 -0.32981548 -0.20733243 -0.503013 -0.17849031
-0.20328194 0.07805553 -0.011291138 -0.25470817 -0.25437403 -0.37891185 0.17919573 0.23335065
-0.35045314 0.013445355 -0.19739424 0.14754409 -0.0069151837 -0.09442921 -0.12791388 -0.43749902
-0.28403807 -0.014931676 -0.2654928 0.16897127 -0.106292546 0.18981086 -0.011350722 -0.46261668
0.090129174 -0.06453936 -0.38302702 -0.4669456 -0.070264295 -0.23806241 -0.3514713 0.26950854
-0.10781562 0.081679106 0.28416374 -0.13155651 -0.3244467 -0.16916654 -0.1566343 0.031945918
-0.4194276 -0.19273965 -0.06094109 0.08026238 0.003775699 -0.17653222 0.1298032 -0.30450574
0.29497725 -0.1549798 0.098371476 -0.2677967 0.05587859 -0.079222046 -0.16537476 -0.29148915
0.0084867515 -0.21566454 0.18899174 0.25764322 -0.34529856 -0.13965422 0.1077967 0.083664544
-0.13120964 -0.6549715 -0.18405055 -0.072792314 0.18324687 0.27639556 -0.007849055 0.30103013
-0.027391568 -0.34930044 -0.052473318 -0.46602082 -0.17249446 0.093691014 -0.38123664 -0.19958921
-0.307243 -0.029384179 0.08988515 -0.32690182 0.17418925 -0.17837863 0.098397076 0.1439168
0.41835204 -0.22652142 0.3143988 0.20249955 0.09245855 0.36321625 0.31745994 -0.1984441
-0.28757766 0.051687203 -0.18285048 0.011862209 -0.17191985 -0.10388519 -0.032307662 -0.0347857
-0.44729894 -0.34874994 -0.045093086 -0.053836305 0.017213617 -0.19970204 -0.24913685 -0.33823487
0.016633378 0.2404774 -0.091610275 -0.12191497 -0.17912698 -0.252003 -0.2201554 0.07374166
0.3339589 -0.14524603 0.06915 0.017496916 -0.12878822 -0.28808987 -0.08706625 -0.47170028
0.09122772 -0.14527592 -0.29613754 -0.3531465 -0.0813447 0.019893061 0.40610048 -0.19113435
-0.14542247 -0.3904998 0.03482095 -0.25187212 0.061976593 -0.34104335 -0.3384819 -0.2546145
0.12177564 0.062212296 -0.43898377 -0.36843017 -0.145729 -0.09930071 -0.26609567 0.013130736
-0.55449426 -0.035129454 -0.26318178 -0.18233739 -0.23156941 0.23360528 -0.058692582 -0.16524115
0.40764707 -0.3644005 -0.17970397 0.3175969 0.0797634 -0.35188344 -0.14918526 -0.05822865
-0.18845132 0.14648862 -0.2753569 -0.104869686 -0.36292064 -0.1786885 -0.41441447 -0.19220556
-0.34783518 -0.08491208 -0.487412 -0.17447068 -0.08946592 -0.4895472 0.392235 0.050411426
-0.030776957 -0.61845315 -0.15236533 -0.27876037 -0.41625115 -0.15666853 -0.029071638 0.13617747
-0.17785199 -0.22513549 0.22785996 -0.07927138 -0.2447975 -0.28002885 -0.2602271 0.16354
-0.09144412 0.3302372 -0.028164582 -0.024515482 -0.36202154 -0.13366118 0.1386365 0.06908255
-0.20918119 0.12062509 0.19435436 -0.20709567 -0.15296745 -0.036525056 -0.3658391 -0.31753144
-0.12800537 0.26727945 -0.018295294 -0.011542419 -0.28830397 -0.024945496 -0.10066758 0.2939381
-0.038869932 -0.3073991 -0.00019540261 -0.27124915 -0.12773012 0.3840323 -0.015000928 -0.24344584
-0.4067873 0.29435536 -0.22540113 -0.579769 -0.013091578 -0.043989114 -0.15053748 -0.531667

fc2.weight f4 [128, 256]
00000000: 80b1 ccbb 256a 933c d151 0c3d 0528 febb
00000010: 45be 39bd 18e3 45bd 7963 6bbd dc6a 593d
00000020: 9340 7abd bd2a 13bd 6522 b33c 85cc c03c
00000030: feee 5fbd 464e a23a 2098 f73b d0bb 403d
00000040: 6045 11bb 2392 dd3c e2d2 80bc 3d37 423d
00000050: 500c d1bb b0f3 15bd cfb8 2a3b ef3e 2fbd
00000060: c83b 953c f288 073d 0dfc 3dbd 6173 5bbd
00000070: 0b3c 25bc b2b2 37bc 506c 96bc 7772 2d3d
00000080: c487 e53c c6b3 06bd 3444 2d3c 3160 98bc
00000090: 58e7 23bd e5f9 843c 1d85 51bd 18fb bb3b
000000a0: ad29 013d 72d3 6abd a088 333b 7d97 6b3d
000000b0: 87fe fc3c 7376 11bd e826 213c 8793 63bd
000000c0: 5729 703a 3ef9 2c3d 8c93 5d3d 40da 82ba
000000d0: d7e4 bd3c a933 a6bc a53b e4bc 4544 08bc
000000e0: 44fd 07bd dfc6 503c f04f ab3c 4ec0 68bc
000000f0: eff4 cebc fabb 59bd 9076 153c a0a1 cb3c
00000100: 0301 503d 837e 69bd 4abe 84bd 00aa e73a
00000110: cdc5 463d 0fb3 04bc f243 ee3b 9062 113c
00000120: c3e3 a0bc 0cfb 0a3d 1605 123d c02e 34bd
00000130: 47b5 0dbd 151a 3dbd e181 c2bc 1f9e 33bb
00000140: 0d6a 533d 20c3 77bd 62b2 353d 1af3 02bd
00000150: 6618 5fba 471e acbb d70a 093d 31a8 58bd
00000160: baa9 5fbd c0e1 bb3a 4f84 ae3c 8b85 dcbc
00000170: 9b2c b23c 624f dfbc 7920 90bd 30c2 e93b
00000180: 703c 5abc 716d e73c 569a ed3c 8ffd f73c
00000190: ec8d 003d 235d 70bd 7bac 92bd e05e 583c
000001a0: 8fa2 923c 9987 78bd 27e9 2d3d 643c 8bbc
000001b0: fbb2 3dbd 0038 0e3d 48cf 343d e855 1d3c
000001c0: 9448 a3bc 1f58 093c 1ab6 3cbd 78c8 1d3d
000001d0: c6b5 203d 89ab a4bc 1c4b 49bd 9a1b 123d
000001e0: 4a6d 51bd 6c6e 06bd 854f f03c eccc 0abd
000001f0: 8806 433c 366d 523d 6534 a4bc 7d1c 5dbc
00000200: 9de5 763d 5a54 aa3b 114d 423c a631 00bd
00000210: 28f5 62bd 6d07 753c 24cb 3bbd 3c7b 36bd
00000220: 1918 53bd f659 553d 7a61 5cbd e029 b73c
00000230: 70b3 523c b9bc 323d f6aa 0e3d 7d92 37bd
00000240: 88f5 e23c b044 02bd 6053 163b 8478 b9bc
00000250: 0948 84bd e878 013c 0f3b 55bd 66b2 663d
00000260: a857 ce3c 101a b1bc 2978 39bd 9851 60bd
00000270: eea5 2bbd fdcf 27bd 8039 dc3b b81b 753c
00000280: 9bfc 333d 3c8e 11bb 1ed2 b2bc b066 ecbc
00000290: 4572 95bc 1c73 c13c a4a2 8abd 0e78 68bd
000002a0: 3054 753c fc21 e4bc f088 97bc 5ce7 46bd
000002b0: 1675 2abd 9b8d 6dbd f12a 13bd e3f6 7bbd
000002c0: f168 09bd d35d 583d b6ef 36bd 6106 103d
000002d0: 55f2 55bd 307a ed3b 35dc 73bc da5e 40bd
000002e0: 803b c73a f55c 2e3d 3f71 e9bc ad05 473d
000002f0: b2ac 8ebc b1e1 8bbc 2cbd fc3c ea1f 483d
00000300: 2f1d 303d e70a da3c bdd3 8abd 1d09 2fbc
00000310: c0cd de3b b5a0 d0bc fe32 9c3c 5107 d2bc
00000320: 3c8c 5cbd 958f c7bc 09b9 4cbd d90b 663c
00000330: a3d7 60bd a521 7abc d0f2 c6ba 5ddb b93c
00000340: 94a2 74bd f2ef 003d 510e 36bd ec2d 44bd
00000350: f436 d13c b563 27bd 9eb4 393d 7670 893c
00000360: a4c2 0fbd 7bbc bfbc 92fe 1ebd 0689 2fbb
00000370: 00fa 1db9 d836 3fba cb9f 27bd b47d 55bd
00000380: 96b6 4ebd 9ccc 3b3b 880a 89bb c8f0 01bd
00000390: 0505 b2bc 6716 3bbc ba86 313d ec0b 66bd
000003a0: 83c4 00bd c588 aabc 9a21 b7bc 4530 05bd
000003b0: d0e5 fe3c 5681 08bd 36c3 d83b b9bc 18bd
000003c0: 1c77 5c3d 4cda 17bd 98cc 56bc 605e 1b3d
000003d0: 1ad2 d23c 9add 89bd d4a7 ff3c fb0d 07bd
000003e0: 6436 9fbc 8b28 883c 65ad a4bb 3202 453d
000003f0: 0068 09bd b558 1cbd 3e44 aabb 1c26 b03c
-0.0062467456 0.01799495 0.034257714 -0.0077562355 -0.04534747 -0.048312277 -0.05746791 0.053080425
-0.06109674 -0.03592943 0.021866987 0.023535023 -0.05467128 0.0012382946 0.0075559765 0.047054112
-0.0022166595 0.027047222 -0.015725557 0.04741596 -0.0063796416 -0.03660935 0.0026050096 -0.042784628
0.018216982 0.033089586 -0.046382952 -0.05357683 -0.010085116 -0.011212038 -0.018362194 0.04234549
0.02801884 -0.03288629 0.010575343 -0.018600555 -0.04001555 0.01623244 -0.051152337 0.00573672
0.031533886 -0.057330556 0.0027394667 0.057517517 0.030883087 -0.035513353 0.009835936 -0.055560615
0.00091614336 0.042229883 0.05409579 -0.0009983256 0.023180408 -0.020288305 -0.027860472 -0.008317058
-0.033200517 0.012742727 0.02091214 -0.014206005 -0.025263278 -0.053157784 0.009122506 0.024857342
0.050782215 -0.057005417 -0.06481607 0.0017674565 0.04852848 -0.0080993315 0.0072712833 0.008873597
-0.019639855 0.033930823 0.03564938 -0.043989897 -0.034596708 -0.046167452 -0.023743572 -0.002740748
0.05161481 -0.06048882 0.044359572 -0.03197012 -0.00085104106 -0.005252633 0.033457603 -0.052894775
-0.054605223 0.0014334247 0.021303324 -0.026919147 0.021749785 -0.027259532 -0.07037444 0.0071337447
-0.0133200735 0.028250428 0.029004257 0.030272273 0.031385347 -0.058682572 -0.07161804 0.013206214
0.01789978 -0.06067619 0.04245868 -0.01699657 -0.046313267 0.034721375 0.04414299 0.009603001
-0.019932069 0.008382826 -0.046072103 0.03852126 0.039235853 -0.020101326 -0.049143896 0.035670854
-0.051129617 -0.03282015 0.029334793 -0.033886835 0.011903413 0.051373683 -0.020044515 -0.013495562
0.06027757 0.005198044 0.011859194 -0.03129735 -0.05540958 0.014955384 -0.045848027 -0.04455112
-0.051536653 0.052087747 -0.0538039 0.022358835 0.012860164 0.04363701 0.03483101 -0.044817436
0.027704969 -0.031803787 0.002293788 -0.022640474 -0.06459052 0.007902361 -0.052058276 0.056322478
0.025188282 -0.021618873 -0.04528061 -0.054765314 -0.04190629 -0.040969837 0.0067207217 0.014960222
0.043942075 -0.0022210022 -0.021828707 -0.028857559 -0.018242965 0.023614459 -0.067693025 -0.056755118
0.014973685 -0.027848236 -0.018497914 -0.048560485 -0.041615568 -0.057996374 -0.035929624 -0.061514746
-0.033547346 0.052823853 -0.0446622 0.035162333 -0.05223306 0.007247232 -0.014884044 -0.046965457
0.0015200227 0.04256912 -0.028496383 0.048589397 -0.017416332 -0.017075391 0.030851923 0.04885856
0.04299658 0.026616527 -0.06778667 -0.010683325 0.0067994297 -0.025467256 0.019067284 -0.025638254
-0.053844675 -0.024360457 -0.04998115 0.014040911 -0.054893147 -0.015266811 -0.0015178565 0.022687608
-0.05972536 0.03147883 -0.044447247 -0.047895357 0.025538899 -0.040866572 0.045338266 0.016777258
-0.035097733 -0.023405304 -0.038816996 -0.0026784553 -0.00015065819 -0.0007294244 -0.040923875 -0.052121833
-0.050467096 0.0028655892 -0.0041821636 -0.031723768 -0.02173091 -0.011418915 0.043341376 -0.056163713
-0.03143741 -0.02081717 -0.02235489 -0.032516737 0.031115443 -0.03332647 0.006615068 -0.037289355
0.05382453 -0.03707342 -0.013110302 0.0379318 0.02573495 -0.0673172 0.031207956 -0.032972317
-0.019435115 0.016620895 -0.005025553 0.048097797 -0.033546448 -0.038170535 -0.0051961234 0.021502547

fc2.bias f4 [128]
00000000: abbe bfbc fae6 413e 28ba c339 b679 1abd
00000010: 20f4 a4bd 4b5c 54bd 1535 0e3e c6e0 21bd
00000020: 28e1 813e 45d1 84bd ee83 90bc d1a2 eb3c
00000030: c9fc 2fbd 6519 993e 0f9a 2ebd a152 72bd
00000040: 9143 4dbd cdf9 70bd 9ea8 a3be 0676 793e
00000050: f13b ffbd 3753 4b3e d201 a8bd 48e0 f63d
00000060: 309b 373e e11b 743e a357 1bbd dce6 2abb
00000070: 66ad 9abd fcb4 13bd 9c25 6c3e d0c9 443c
00000080: a74c 7ebe adba 2e3e 1ebe e2bc 11b1 ffbc
00000090: 0481 93bd 29c9 323e b3d4 adbc 41e5 6ebd
000000a0: 4ed1 b93c 7622 83bc 1344 d5bd c390 0b3e
000000b0: d3c7 463e 52c5 6ebd d46c 34bd 36d7 343e
000000c0: 00a6 82bd 16ac 9b3c 194e 6abe 64dd 2ebe
000000d0: f887 803d 08aa 0abd 25e9 3d3d 4aa5 af3c
000000e0: f3a9 f1bd 4f59 593d 8f52 413c a202 1bbd
000000f0: fefc c23c d178 143d a356 213e c97c 90bd
00000100: b063 91bd 90f5 0dbd 9c37 833c 08ed c4be
00000110: 5729 9b3d 8248 603e c6a1 713e 2d23 7dbd
00000120: 2b7a c43d 1ec8 ddbb 624c 133e 610c 1fbb
00000130: 4fe9 5bbd 503d 96bd 2c95 b63c ab77 cd3d
00000140: b9b3 e93d 5308 d13a 2d2d 303d 18b5 a9bd
00000150: 8510 56be 9a09 083e 31d4 81bd 1960 5a3e
00000160: aff6 d9bd 7b4f 11bd e45b dfbd 7587 ed3c
00000170: 0ef7 85bd 541b 52be fa01 45be 26cc 4dbd
00000180: 844d 723e 1741 693e dc49 d8bd 187a 783d
00000190: 17b2 89bd f2ca 25be 148b 86bc badd 163e
000001a0: e9c0 bcbe 2ee6 283e e7ac 59bd b4a2 053e
000001b0: c294 4bbd ead6 073e 705e 653e 6d36 26bd
000001c0: 1a22 a6ba 1823 db3b 63e6 e53c f597 7b3e
000001d0: 9db4 813d 694b 3e3e 73c1 1f3e ddd1 083e
000001e0: 3829 063e 518b 28bc 6cca 6dbd 95da 9ebd
000001f0: 1b69 3cbc a7bc d93c 490a 7fbe e897 50bd
-0.023406347 0.18935767 0.00037331996 -0.03771373 -0.08054376 -0.05184583 0.13887437 -0.039521
0.25367093 -0.064852275 -0.017641034 0.02876416 -0.042965684 0.29902187 -0.04262739 -0.059160832
-0.050113264 -0.05883198 -0.31964582 0.24361429 -0.12462605 0.19855963 -0.08203472 0.12054497
0.17930293 0.2383876 -0.037925374 -0.0026077544 -0.075526044 -0.036061272 0.23061222 0.0120110065
-0.24833928 0.17063399 -0.027678546 -0.031212362 -0.07202342 0.17459549 -0.021219587 -0.058324102
0.022682812 -0.016007643 -0.10413375 0.13629441 0.19412164 -0.058293648 -0.0440491 0.17660221
-0.06379318 0.019002955 -0.22881354 -0.17076641 0.06275934 -0.03385356 0.046364922 0.02144112
-0.11799993 0.053063687 0.011799469 -0.037844308 0.023802277 0.036248032 0.15755706 -0.07055051
-0.07099092 -0.034658015 0.016017728 -0.3846209 0.07576244 0.2190266 0.23596868 -0.061801124
0.09593614 -0.0067682406 0.14384606 -0.0024268853 -0.053689297 -0.07335913 0.022287928 0.100325905
0.114112325 0.0015947915 0.043011833 -0.08286494 -0.20904739 0.13284913 -0.063393004 0.21325721
-0.10642754 -0.03547619 -0.109061986 0.028995255 -0.065412626 -0.20518237 -0.19239035 -0.05024352
0.23662382 0.22778736 -0.105609626 0.060663313 -0.06723421 -0.16190699 -0.01642374 0.1473302
-0.3686593 0.16494057 -0.05314341 0.13050348 -0.049702413 0.13265577 0.22399306 -0.04057925
-0.0012674958 0.006687533 0.028063959 0.24569686 0.063332774 0.18583454 0.15601139 0.13361306
0.13101661 -0.010287122 -0.058054373 -0.07756535 -0.0114996685 0.026579214 -0.24906267 -0.05092612

fc3.weight f4 [2, 128]
00000000: 1a0f 06bd 2139 1dbf 4f25 1c3d 9b3d 80bd
00000010: 8eb6 30bb 0d9f 893d 686d 3e3e 980c a83d
00000020: 9ed5 febe 0599 10bd 800b 8d3e 13a0 88bd
00000030: 8d3a 77bf 0a6d d63f 5b2f 4ebd 4901 3a40
00000040: 6947 663e 8079 513b b895 303f 5da7 db3f
00000050: 83ce 693e 3188 c5be cc02 083d 81d8 733f
00000060: 9027 0d3f e13e debe 2cd7 a13c 0307 77bd
00000070: 70dd 3b3d c891 cc3d 62ac d43f edd4 e2ba
00000080: 0c3e 153e 7aac 17bf f68a 6dbe 16ae 62bd
00000090: 4824 a0bb c88d 953e 5c4f 983d 5fc0 8bbc
000000a0: 6d5c 96bd d326 82bd 6f84 243e 514b babe
000000b0: 322d dc3e b4b8 babb b38a 5abd 9488 083f
000000c0: 6fe4 0b3f ea45 363e d4cd 8cbe 1183 003f
000000d0: acc8 3ebf 90a8 dabb 164b 79bf 9dd9 cfb9
000000e0: 25bc dbbe a030 31bf a1c5 113d 1d6a c63e
000000f0: ef30 823c 0cc2 d53d fa2c b83e 68b9 18bf
00000100: 33bf afbc 73f1 b7bc aac6 8cbd 7733 ecbf
00000110: 7111 a3be b3e1 49be 2842 af3f aebc 273c
00000120: eb62 8d3f 1974 8fbf bfd5 6ebe 9060 06bd
00000130: 16b4 043d 5184 6b3d 4bc7 35bf 3c61 9a3f
00000140: 91f8 e83e a6cc 19bd fe35 77be 8051 793f
00000150: 96c6 4240 f255 f03d b341 8039 364e fabf
00000160: 6331 33bc 8d6c cb3c cce7 a73c f5ed 18bc
00000170: e5a8 203b 2967 6ac0 649f 09bf 2785 65bd
00000180: dad0 3cbd a8cc 59be 47e6 2fbf 85f8 06bf
00000190: 0a9d 7e3d c3c0 3c3e 38a9 a23d 8fbb 043f
000001a0: 7107 5e3f c861 123f 0158 553d 47f7 02be
000001b0: ae6b 9e3c 2c19 713e 33ae aabf 5721 7abd
000001c0: 1ee2 35bd 2f6d 75bd fde3 013b 945b 98be
000001d0: 5dc3 ce3f a597 2d3f 9973 783f 29e8 2bbf
000001e0: f52e 083e 3b9d edbf bff5 233d 49be 79bd
000001f0: 941f febb 38de b7bc 27cc b73e b535 d83f
00000200: 4eb0 92bc 483c 873e e8ce b7bd bbae 543c
00000210: fef1 433d b98d 8abd b71f c4be 4710 1a3d
00000220: 4726 9fbe c19f 193d bd76 77bf 06dd 0c3f
00000230: 8832 9dbd 5ce4 523d ce0c 753f 8e96 cbbb
00000240: 61c9 d7bc 1ac5 2d3d c67f 91bf 85c5 23bf
00000250: 835e 983e 87b6 33be 0ff4 37bc 66c7 7c3f
00000260: f0ee 8cbe be1d e2be 7690 07bd 61aa b5bc
00000270: c847 b03c d13b 65be ed53 1d3f a4b4 da3b
00000280: e888 f0bd b2a0 00bf 8c4d 7abf 249c 6f3d
00000290: aa22 c53b 320f 9fbe 857a 1fbd ad7a 233c
000002a0: 31e5 243d c1b0 adbc e59c 153c 340a bf3e
000002b0: cf9e 853f ac30 20bd 39f9 b43c 474f 9abe
000002c0: 7e8e 8dbf f987 c83e 6b81 ecbe 4202 eb3e
000002d0: 2831 563e 67f4 0d3d 0440 aabf e4c0 8abc
000002e0: e9e4 683f cff2 e1be 84da 313c b31d 103f
000002f0: 0191 a23c 1ea7 27c0 ae85 f8be 1c8e 4840
00000300: 001e be3c 6f20 babb 0d89 863c cffa 75bf
00000310: 1758 6b3f 0bbb 6b3f faf3 33c0 7f7f 0e3f
00000320: c0c2 d9bf 0e0c 81bf 8808 b13e 5863 f63c
00000330: 2e19 0d3d bfc1 463d 246f 47bf 7974 0e3e
00000340: 0dac fe3e f72e 89bd 32a7 0e40 a895 aa3e
00000350: b98e 473e 9afa b03e 2470 673d c95d 88bf
00000360: 5129 ae3f 81d6 2bbd 38b1 783e a671 36bc
00000370: 7cce 71bc 48b8 7d3d 6477 c1bf 6758 8f3c
00000380: 2515 53bf 44a6 993e 9a61 3ec0 c7f2 a93f
00000390: a9c7 f33e 8de4 42bd 52d3 a33e 2d79 b7be
000003a0: 4c74 31c0 495f 80be 388b f2bc 2119 75bf
000003b0: 8aef 033d e514 0ec0 605a cb3d 8f76 5c3d
000003c0: de19 853d 0e59 503c 091c e93c f553 b1bd
000003d0: f69a e8bd e3cc 39be 967b e53e bd0d bbbd
000003e0: d6c7 a6bf 00ca 7a3f a018 813c 6aec 643c
000003f0: 494b d03b e96e 1c3d 91f7 bcbe ecf7 37bf
-0.032729246 -0.61415297 0.038121518 -0.0626175 -0.002696428 0.0671979 0.18596423 0.08205527
-0.49772352 -0.03530218 0.27547836 -0.06671157 -0.96573716 1.6752026 -0.05033813 2.9063284
0.22488178 0.0031963289 0.6897845 1.716045 0.22832684 -0.38580468 0.033205792 0.95252234
0.5513849 -0.43407348 0.019755922 -0.06030942 0.045865476 0.09988743 1.6615107 -0.0017305888
0.1457445 -0.59247553 -0.2319754 -0.055341803 -0.0048871376 0.29209733 0.074370116 -0.017059503
-0.073418476 -0.063550614 0.16066144 -0.36385587 0.4300323 -0.005698288 -0.05335493 0.533334
0.54645437 0.17800108 -0.27500784 0.5019999 -0.7452495 -0.0066729262 -0.973802 -0.0003964425
-0.4291698 -0.6921482 0.035588864 0.38752833 0.015892474 0.10437402 0.35971814 -0.5965791
-0.021453476 -0.022454 -0.0687383 -1.8453206 -0.31849244 -0.19715004 1.3692064 0.010237856
1.1045812 -1.1207305 -0.23323725 -0.032806933 0.032398306 0.057499234 -0.7100722 1.2060924
0.4550214 -0.037548684 -0.2414169 0.97389984 3.0433707 0.11735143 0.00024463012 -1.9555118
-0.010937068 0.024832034 0.020496272 -0.009334077 0.0024514731 -3.6625464 -0.53758836 -0.056035187
-0.046097614 -0.21269476 -0.6871075 -0.5272296 0.062161483 0.18432908 0.07942432 0.5184869
0.86730105 0.5718045 0.05208588 -0.12789641 0.019338455 0.23544759 -1.3334411 -0.06106695
-0.044405095 -0.05991858 0.001981973 -0.2975737 1.615337 0.67809516 0.9705139 -0.67151123
0.13299163 -1.8563608 0.040029284 -0.060972486 -0.0077552292 -0.02244483 0.35897943 1.689139
-0.017906334 0.26413178 -0.08975011 0.012981112 0.047838204 -0.06765313 -0.38305447 0.03761318
-0.3108389 0.03750587 -0.96665555 0.55024755 -0.07675654 0.05148731 0.95722663 -0.006213016
-0.026341142 0.0424243 -1.1367118 -0.63973266 0.29759607 -0.17550097 -0.011227622 0.9874176
-0.27526045 -0.44163316 -0.033096753 -0.02217597 0.021518603 -0.223861 0.61456186 0.006674366
-0.11744863 -0.502452 -0.9777458 0.058498517 0.006016095 -0.3106628 -0.038935203 0.009977979
0.040257636 -0.021202447 0.009131645 0.37312472 1.043909 -0.039108917 0.022091495 -0.3013861
-1.105911 0.3916624 -0.46192488 0.4590016 0.20917189 0.03465691 -1.3300786 -0.01693768
0.9097429 -0.4413056 0.010855321 0.5629532 0.019844534 -2.619575 -0.4853949 3.1336737
0.023207664 -0.005680136 0.016422773 -0.9608583 0.9193129 0.9208228 -2.8117661 0.55663294
-1.7012558 -1.0081804 0.3457682 0.030076668 0.03444784 0.048524614 -0.7790396 0.13911618
0.4974064 -0.06698411 2.2289548 0.33317304 0.19488038 0.34566194 0.05650343 -1.0653621
1.3606359 -0.041952614 0.24286354 -0.011135494 -0.014758702 0.061943322 -1.511456 0.017498208
-0.8245414 0.30009663 -2.9747071 1.3277215 0.47613266 -0.047581244 0.31997162 -0.35834637
-2.7727232 -0.25072697 -0.0296074 -0.9574147 0.032210864 -2.2200253 0.09929347 0.053824004
0.064990744 0.012716545 0.028455751 -0.08658592 -0.113576815 -0.18144564 0.4482085 -0.0913348
-1.3029735 0.9796448 0.015758812 0.013972381 0.006356631 0.03819171 -0.36907628 -0.71862674

fc3.bias f4 [2]
00000000: 7e1d 08be aa0c 01bb
-0.132925 -0.0019691386

fc1.weight f4 [512, 20]
00000000: f947 293f 32ed eebe a9cd ff3d 1ab1 093f
00000010: a009 243e 694d 42bf 50b9 7dbd f8b5 c63e
00000020: 96cd cd3e e303 863e 8663 36bd 6e05 a4bd
00000030: a9f6 8cbe bea6 74bf 7573 863e e937 0f3d
00000040: e6a3 b4be 4adb 6bbb 160e 873e 6bb5 7abe
00000050: e5f8 3b3e 8f4d 2b3e 30e7 0f3d 3aba 77bf
00000060: 219a 06bf 08d1 c23e a6f1 b1bc 1447 47bf
00000070: ed48 aabe 7521 653e 4efc fd3d 9574 993e
00000080: 1e17 fd3e 6adb cf3e 6946 10be 69fb 7c3e
00000090: 257c a63d 61d9 86bd dd9f 89bd c319 16be
000000a0: ba2d f03d 37f3 c6be 0d6f 2bbe e419 10bd
000000b0: 9fa4 b8be a717 c1be bed6 263e 9b12 2dbd
000000c0: 29f2 29bf 1d93 173f cd2c 1cbd c8e9 483d
000000d0: 9951 f13e 75cf b9be 17ff 9d3c 6b97 12be
000000e0: 730f 683d 0e06 4ebd c7b7 1cbe 468d b73d
000000f0: 9450 713e 094d 4fbf 9ddf f0bc f3c9 c83d
00000100: 4a83 253f 9f14 91bf 84e5 e73a 220c 303e
00000110: 916c f23e e7da 8b3e 6650 a03e 249e a9be
00000120: 3ff2 2ebf 268e 9bbf e9ba 6f3e ceb6 1ebe
00000130: 73a2 c93a 0333 be3d 7173 9b3c 902e 2d3e
00000140: 62c5 9e3b 2828 78be efff d43d 969f 3bbf
00000150: 5fba d5be 51e0 4abe 80fc 43bd 4bd5 75bf
00000160: b096 713f 8769 dabe 9f9c 893d 38d8 97bd
00000170: b306 2c3f 580b dfbe 7da7 3ebd 9c54 f63c
00000180: cd55 65bd 4753 77bd 5a2a 1e3d 2051 d2bc
00000190: 2123 5fbf 9879 ce3f f386 263d b0ae 95be
000001a0: 8e9b 433f 309c 67bf 5ec9 0dbd 4eab 06bf
000001b0: 32c0 353f 0b17 2740 75e1 51bd f81f d93e
000001c0: fe2b 1dbf b6ba 77bf 0bbf 023d 6a7a e23e
000001d0: 8d4a c53b bc0c 6f3b a81e 333d fb9a 203c
000001e0: 10cf 88be dff5 18bf df41 43bd 616f c5be
000001f0: f5f2 25be 29d3 ccbe a74c 46be 7fb8 b5be
00000200: 8f40 e63d efcb c4bf 1d61 6bbd 58ef c03d
00000210: f46a 043e d6c4 b3be ce97 cb3d 0ccd 513e
00000220: c6e7 99bd f073 7b3e 3485 6dbd 63a3 11bd
00000230: e3b4 7fbe d224 613e 70b4 f53c 6318 7dbf
00000240: 1ea6 03be 7b39 75bf 5e47 61bb 2c3b 81bf
00000250: 1661 153e 1ec6 0c3f 2900 043b 6481 c13e
00000260: 4f48 98bd d746 6bbf b499 50bc 17a5 0d3f
00000270: 8201 9f3c b0b5 b4b8 d11a 2c3c 7c32 aabb
00000280: fe4f fbbe af14 c6bf 6784 843d 5505 57be
00000290: 2d4d 11be b73f cabe 8329 9b3b 2f12 cdbe
000002a0: a2ec 743f 2353 33bf 9733 1ebe a43f 1b3f
000002b0: 4c2f e23e 6ab7 99be fcc5 113e 2a80 e93e
000002c0: dab4 83bc 5002 9dbd 1c80 e6bc 9fb6 953d
000002d0: af69 c0ba b911 5540 a251 aebd 969e c9be
000002e0: f72b 3c3e de5c 4a3f fb01 b13d f251 7fbe
000002f0: 8733 16bc 0473 bc3f e2d5 15be be95 c23e
00000300: e51c 83bc 7a93 503f 6140 1c3e cbd2 d43e
00000310: 02fc 08bb 27fa 34bc a0d6 033d 1c87 29bd
00000320: 98e6 173f 3af9 943e 7653 eebd 5a3d 063f
00000330: 4c00 ac3d 3f21 9d3e 2e9a 213d f81d 2b3f
00000340: 114a 253e fa6a d4bf 5143 fbbc 9d3f eebe
00000350: 763a a2be ab86 313e e1ab 2ebe 1719 c3be
00000360: d5de c8bd a432 b2bd 1441 bf3b 1ef4 933e
00000370: 0924 c63d a89f 743f 993a 2fbe 03c6 d53d
00000380: 8b13 99bf 4a64 aebf c9e2 273e f9e2 b93d
00000390: c3c0 9bbf 6872 e73f 77b8 a53d 86bc 803e
000003a0: 301d 813f a29a afbf 73b4 36bd d270 e23c
000003b0: ed68 8d3c 3ea4 e13b 7a72 04bd 950f b2bb
000003c0: 83da a03d 0c2a 18c0 74c5 00bc a85b a4be
000003d0: 44f2 893e 3327 01bf 6a1c c3bd 4c7e b5be
000003e0: 05fd 263e 138b 79bf b5fc 0f3e 9535 f7bd
000003f0: 4018 80be 81f2 a7be c69a 82bd 0982 95be
0.66125447 -0.4666534 0.124903984 0.5378586 0.16019297 -0.7589937 -0.061944306 0.38810706
0.40195912 0.2617484 -0.044528507 -0.08008848 -0.27531937 -0.9556693 0.26259962 0.03496543
-0.35281295 -0.003598886 0.26377934 -0.24483268 0.18356664 0.16728805 0.035132587 -0.96768534
-0.5257893 0.38050103 -0.021721672 -0.7784283 -0.33258763 0.22376044 0.12401639 0.29971758
0.494317 0.40597087 -0.1408936 0.2470528 0.081291474 -0.065844305 -0.067199446 -0.14658265
0.11727472 -0.38857433 -0.16741581 -0.03518094 -0.36063096 -0.37713358 0.16292855 -0.04225407
-0.6638513 0.5920885 -0.038128663 0.049051076 0.47132567 -0.3629109 0.019286675 -0.14315574
0.05665536 -0.050298743 -0.1530448 0.08962493 0.23565894 -0.8097692 -0.029403502 0.09804144
0.64653456 -1.1334418 0.0017692302 0.17192128 0.47348455 0.27315447 0.3131134 -0.33128464
-0.6833839 -1.2152755 0.23411144 -0.15499422 0.0015383497 0.092870735 0.018975945 0.16912293
0.004845307 -0.24234068 0.10400378 -0.73290384 -0.41743752 -0.19812132 -0.047848225 -0.96028584
0.94370556 -0.42658636 0.06719326 -0.07414287 0.6719772 -0.43563342 -0.046546448 0.030069642
-0.05599003 -0.060382154 0.03861461 -0.025673449 -0.8716298 1.6130857 0.04065604 -0.29234838
0.7640923 -0.904727 -0.034615867 -0.5260514 0.7099639 2.6107814 -0.051240403 0.42407203
-0.6139525 -0.96769273 0.031920474 0.4423402 0.00602085 0.0036476096 0.043730408 0.009802575
-0.26720476 -0.5975017 -0.04767024 -0.38561538 -0.16205962 -0.40004852 -0.19365178 -0.35492322
0.11242782 -1.5374736 -0.05746566 0.09420651 0.12931424 -0.3511111 0.09941064 0.20488375
-0.075149104 0.24555945 -0.05798836 -0.03555621 -0.24971347 0.21986702 0.029993266 -0.98865336
-0.12856337 -0.95790833 -0.0034374814 -1.0096183 0.14587817 0.549898 0.0020141697 0.3779403
-0.07435667 -0.9190497 -0.012731958 0.5533003 0.019409899 -8.616911e-05 0.01050444 -0.0051940065
-0.49084467 -1.5475062 0.06470566 -0.20998128 -0.14189596 -0.39501736 0.004735173 -0.40052935
0.95673573 -0.7004873 -0.15449367 0.6064398 0.4417671 -0.30022746 0.14235681 0.45605594
-0.016077448 -0.07666457 -0.02813726 0.07310223 -0.0014679934 3.3292067 -0.08511664 -0.39378804
0.18376146 0.79047954 0.08642956 -0.24933603 -0.0091675585 1.47226 -0.14632371 0.3800487
-0.016004989 0.8147503 0.15258934 0.41567072 -0.0020902161 -0.011045969 0.032187104 -0.041388616
0.59336233 0.29096395 -0.11637013 0.52437365 0.08398494 0.30689427 0.039453678 0.66842604
0.16141535 -1.6595147 -0.030671747 -0.46532908 -0.31685227 0.17336528 -0.17057754 -0.3810508
-0.09808127 -0.08701065 0.0058366153 0.28897184 0.09674842 0.95556116 -0.17112197 0.10438158
-1.1959089 -1.3624356 0.16395105 0.09076495 -1.2168201 1.8081789 0.080918245 0.25143832
1.0087032 -1.3719065 -0.044605684 0.027641688 0.017261947 0.0068860343 -0.032335736 -0.0054339864
0.07854178 -2.3775663 -0.0078595765 -0.32101178 0.26942647 -0.5045044 -0.09526904 -0.3544792
0.16307457 -0.97477835 0.14061244 -0.12070767 -0.250185 -0.32802203 -0.06377177 -0.2920077

fc1.bias f4 [512]
00000000: 2b86 adbe 7188 a0be fe99 24bd da4d 6dbe
00000010: a912 1a3e 82d8 553d 037f c9be a8c9 0d3e
00000020: 7018 abbe 0980 a9bd 57ae 55be 172b 783e
00000030: 1f69 45bd 5bb6 37be 92b4 e63d 95af 96bd
00000040: 5223 44bd 99f2 24be 413f c6be 5727 3dbe
00000050: 1d2a 55bd aa23 8fbe 20fd 9ebe a5ff 4dbe
00000060: 6fcb 05be ec28 f93d 9460 b5be fc14 aebd
00000070: e3a5 1abe 5a65 cd3c b6b1 1ebe 57ed ff3d
00000080: 5042 5fbe e94e b63d 961b 40be 418a 8cbe
00000090: aca6 26bf e0f5 8a3e b89c 23be ea99 09bf
000000a0: 95d4 37bd 4621 413d b729 243c 712f 7e3e
000000b0: e5bd 68bd d250 903e 1850 7a3e 9c59 68be
000000c0: 3a41 b9be 2d13 223e d87b b33d d795 fc3c
000000d0: 7b1a 60be bb91 23be faf9 66be 2a9c cebe
000000e0: 7c67 7bbe 4d3f e73d d7f5 22be a081 03bd
000000f0: 93de 0ebe 3077 8ebd e036 f9ba 1fc7 bfbe
00000100: f1be 23be 98c1 36be 8027 023d eb60 5e3e
00000110: e0b2 263e 5884 3abe 5e8d 93be ccea dabd
00000120: 6bbb c83c 22a8 ca3e 3fa0 67be 58ed b5be
00000130: f949 cabe 3f8e afbe 1436 243e bdc6 90be
00000140: ad85 cdbd e087 123d 67a1 98be fb0f 003e
00000150: c382 26be 8816 40be bc5b c2be 0a8d 63be
00000160: eba1 8ebd 9d81 9abe 464b adbe ce68 1b3e
00000170: 7bcd 553c 893f bfbe 6d99 52bd c281 c6be
00000180: 4497 91be bc27 5bbd 8200 57bd cf43 22bf
00000190: 585b b4be 3986 cbbd ba55 89be e477 95be
000001a0: 654b 71be 0113 c4be 640f 59be 2f09 453e
000001b0: 192c 3abe 23c0 b8be a068 92bd fc0d 99be
000001c0: 8220 bbbd 6c39 19bc 3380 a33d d54e 053e
000001d0: b6c8 50be 69f5 8b3e c1b1 64be 209c 0d3e
000001e0: d8e4 01be c347 26be 5c70 96be fbe6 b73d
000001f0: fa30 97be d3e9 b13d c6ce b33d 8869 8cbe
00000200: bcef 563e 7f80 87bc 92db 8c3e 06c5 933c
00000210: 2d31 aabe 9b10 febd 336f 6ebd e903 cc3d
00000220: 58b3 323d e135 8ebe 13d9 873c cbfc 87be
00000230: 5749 05be 6d6e 56be 5de0 b63d 2b48 cebe
00000240: 616e 88be 6d46 83be a83f afbe 90b4 92be
00000250: 2d8b 993d 0caa bc3d 9756 b73c 328e 013d
00000260: 2fd0 8c3e e941 8bbe 2032 05be a5cb 3a3d
00000270: 677b 163e 3a13 193e ed85 e9be 7d45 03be
00000280: fd78 d9be a7c6 6b3e a389 5fbe c9d9 d8bd
00000290: ac03 8d3d 92b4 c33c bcbb a8bd d14d 09be
000002a0: 5917 83be f416 b2bd 1c9c 67be 82d5 7dbe
000002b0: 1d21 e1be d715 933d b2b7 e9bd 5bf6 9ebd
000002c0: d066 0e3c 82a3 fb3d 09a8 9b3e d892 1b3d
000002d0: 41b4 4abe ef8f c33c 996e ebbb f293 c3be
000002e0: 31ac f7bc 32ea d33d 133e a13d d5d3 873e
000002f0: 6d2d e4bd 980f f63d f9d2 83be 4d17 a83d
00000300: 4d07 1e3d 2762 56be ee66 84be f128 a93d
00000310: aa0a 03bd c633 56be 110e 9d3d e159 683d
00000320: 2b08 0b3e c5e0 8c3d 3c40 153d fa37 70be
00000330: e656 ccbd 7827 96be 8d8c 94be d67f 833e
00000340: 604a e1bd 8276 3abe f547 a5bd 1f44 5b3d
00000350: f35a 62be 292b 03bc bd4a 1d3e 5ad9 173c
00000360: c854 a0be 9fb9 26bd 760c 763d e372 74bd
00000370: 4522 b33d d3a7 c23c 5906 28be 3584 2c3d
00000380: bc66 aebe 1f03 b7be 1c2d 8439 9d51 27be
00000390: 0c7e e23d ecc4 3ebe acb0 32be f697 20be
000003a0: 42b5 75be 4d69 d6be 165b 113e ebb8 f7bd
000003b0: bcfd 1d3d 612f febc 1184 993d 9e3c 25be
000003c0: 999f e9bc 9a45 aebe 79c4 d7be 21f4 abbe
000003d0: 8147 213e eeb9 06be 9fcf 11bd da7e f2bd
000003e0: f0f6 69be 7e12 3fbc 773c bdbd 1613 ad3d
000003f0: 4dd3 49be d903 f33d 836c 20be 526b b0be
-0.33891425 -0.31354097 -0.04018592 -0.2317423 0.15046181 0.05220843 -0.39354715 0.13846457
-0.33417082 -0.08276374 -0.20867287 0.24235187 -0.048195954 -0.17940657 0.1126491 -0.07357708
-0.047885247 -0.16108169 -0.38720134 -0.18472038 -0.052042115 -0.27956897 -0.31052494 -0.20117052
-0.13065885 0.12166008 -0.35425246 -0.08500096 -0.15102343 0.025072742 -0.15497479 0.12496441
-0.2180264 0.0890177 -0.18760523 -0.2744923 -0.6509807 0.27140713 -0.15977752 -0.5375048
-0.04488047 0.047150873 0.010019711 0.24822785 -0.056821723 0.2818666 0.24444616 -0.22690433
-0.36182576 0.15827627 0.08763856 0.030833168 -0.21885101 -0.1597356 -0.22556296 -0.4035352
-0.24551195 0.112913705 -0.15914093 -0.032106042 -0.13952093 -0.06956327 -0.0019013546 -0.37456605
-0.15990807 -0.17847288 0.03177595 0.21716659 0.16279173 -0.18214548 -0.28818792 -0.10689315
0.02450343 0.395814 -0.22619723 -0.3553264 -0.39509562 -0.34288213 0.16036254 -0.28276625
-0.10035262 0.03577411 -0.2981064 0.12506096 -0.16260819 -0.18758595 -0.37960613 -0.22221771
-0.06964477 -0.30177012 -0.33846492 0.15176699 0.013049479 -0.3735316 -0.05141585 -0.38770872
-0.2843572 -0.05350469 -0.05249072 -0.6338472 -0.3522594 -0.0993771 -0.26823217 -0.29193032
-0.23563917 -0.3829575 -0.21197277 0.19241785 -0.18180884 -0.3608409 -0.07148862 -0.29893482
-0.0913706 -0.009352069 0.079834364 0.13018353 -0.20389065 0.2733567 -0.22333433 0.13829088
-0.12684953 -0.16238312 -0.29382598 0.08979603 -0.29529554 0.086871766 0.08779673 -0.27424264
0.20989889 -0.016540764 0.2751127 0.018038284 -0.33240643 -0.12405511 -0.058211517 0.09961683
0.043628067 -0.2777548 0.016583001 -0.26560053 -0.13016258 -0.20940562 0.08929513 -0.40289435
-0.26646712 -0.25639668 -0.34228253 -0.28653383 0.07497249 0.09212121 0.022380156 0.03162975
0.2750258 -0.27198723 -0.13007402 0.045604367 0.14695512 0.1494874 -0.4560999 -0.12819476
-0.4247512 0.23024999 -0.21829848 -0.10588414 0.06885466 0.023889814 -0.082389325 -0.13408591
-0.2560375 -0.08695784 -0.22618145 -0.24788478 -0.43970576 0.071819 -0.1141199 -0.07761832
0.008691505 0.12287046 0.30401638 0.037981838 -0.19795324 0.023872344 -0.007184815 -0.3819881
-0.030233474 0.103474036 0.07873168 0.26528803 -0.11141477 0.12014693 -0.25746897 0.08207569
0.03858118 -0.2093588 -0.2585978 0.08259762 -0.031992592 -0.20918187 0.076686986 0.05672634
0.13577335 0.06878809 0.03643821 -0.23458853 -0.09977512 -0.29326987 -0.29013482 0.2568347
-0.11000514 -0.1820927 -0.08070365 0.053531762 -0.22105007 -0.008005896 0.15360542 0.009268129
-0.31314683 -0.040704366 0.060070477 -0.059679877 0.08746771 0.023761665 -0.16408671 0.04211827
-0.34062755 -0.3574457 0.0002521061 -0.16339727 0.11059198 -0.18629807 -0.17450207 -0.15682968
-0.23994926 -0.41877213 0.14194903 -0.12095817 0.038572058 -0.031028451 0.07495893 -0.16136405
-0.028518485 -0.34037477 -0.42142084 -0.33584693 0.15749933 -0.13156864 -0.035598394 -0.11840601
-0.22848105 -0.011662124 -0.092400484 0.08450906 -0.19709511 0.11865968 -0.15666394 -0.3445688

fc2.weight f4 [128, 512]
00000000: b14f e2bd 086d 44be f77c a73d 970f a3be
00000010: 3f57 60bd a67d e13c 8eae f2bd 13cf 393e
00000020: 762c f23d 7184 823e cf92 a2bd 3c9e c93e
00000030: 0c05 863b 2065 2dbe 0351 b7bc 01ca f9bd
00000040: 7eb7 22bf f1da d93e 0950 083f 960d 85bd
00000050: 6b9e ae3e 9ed9 053f 1003 65be a32e 0cbf
00000060: b962 a23e e03c 313e bdd6 863e 7a3c 02be
00000070: d75e 763d b6d6 403d baba 93bd 1242 803e
00000080: f702 a03e 4f11 21be 8d0b 033f 909f dabe
00000090: 23e0 013f 721f 953e f34a da3e a16f 0940
000000a0: 02ea ed3d 26b3 c2bd 6b9b 0e3e 05a4 4bbe
000000b0: 5ab0 07be 0396 80bc 7529 1e3e 17b1 743e
000000c0: ac47 78be 5b10 99bd dd70 debd a7b3 293f
000000d0: 7436 f93e ab6b ca3c c26f 7fbe e3c4 35bf
000000e0: 8ea4 a13c 0080 1a3e acc1 6cbe 92e2 aebd
000000f0: e240 8e3e c478 41bc bb6a fd3d 4bc3 283d
00000100: 3912 24be 5842 9c3d 5f63 2e3e ac93 e2be
00000110: 109d b63d 2f3b a93d 1b13 d8bd 439e 823e
00000120: 1ef4 763e a526 bcbe bc72 d23d f978 ccbd
00000130: 84f2 bcbe dc18 623d 492b 5cbe 8ef5 153d
00000140: d7ee 85be e287 20be cc5f 9d3e 7265 b53d
00000150: b25d d4bd 5c5a 0f3f a1dc 9fbd 5065 5cbd
00000160: 0b87 993c 8026 9bbe 8753 a93c c1d3 163e
00000170: 7aa0 86be 5e4f cbbe 55c8 a13c b298 2d3d
00000180: 0112 b83d e328 1b3e 7064 c2be 7b90 273f
00000190: 5353 8bbe 179e 23be 2f2c 4fbe 4464 60be
000001a0: 2f33 273e 1275 443e e067 053e efaa 8b3e
000001b0: 4062 84be da97 78be e979 3a3f ec58 1ebe
000001c0: 7f0e e83c 9edd dfbc 4557 0dbe 1b39 94be
000001d0: 9e8b 2a3d 93ae ae3c eac4 503e e863 843d
000001e0: 8e77 03be 5972 44bc fe72 4a3f b1a3 283e
000001f0: bf1d 793e 911a e5bc d330 21be 3972 da3e
00000200: 2e1f 15be d7b1 9ebd d95f 753d a529 9f3c
00000210: 181c b13e 9149 d8be 66c6 453e 0062 1c3d
00000220: c1ae aa3d 4147 aa3e d620 41bd 94ec 5f3f
00000230: 57f8 4ebb d65b edbe 7a38 70be f136 d13d
00000240: 1333 66bf 3c1c a53e ca67 debd 8fc5 313e
00000250: 16d8 3b3e 0ccf ea3d 18c4 ba3d 3c89 043e
00000260: 36d3 bb3d 8b4b a3bd 8f38 6f3e de7d 943c
00000270: 2e82 1ebe bf35 13be 28e0 743e 6c60 003f
00000280: fa5d ae3e a49d 48be 953f f33d 6823 053e
00000290: c43c 03be 6181 42be d68d 42be ab81 32bd
000002a0: a6d4 db3e 5ed8 623c 9844 d5be d14f 333e
000002b0: cae2 2ebe 849e cf3e b950 2abe 8379 02bd
000002c0: 16cd a5be a278 743c f3c6 033e a24d 00bd
000002d0: d633 ee3e 293e 9cbe 6a4a 203b 86c5 1a3f
000002e0: c1aa 943d e4e6 573e 978d 75be 7d38 59be
000002f0: 300e d1bd 43f0 7ebd c11c c63d 0a28 47be
00000300: d70d d73d 666a 10be dee6 56bd c4a6 b23e
00000310: c7b1 c0bd ff61 61bd 2893 643d 3447 aabd
00000320: c10d 663f 03bc 2a3e 8b1e 33be aff9 fc3b
00000330: 82c1 b0bd ef66 523f 4678 043e f263 60bd
00000340: acb3 473e 6db2 733e 6799 80be 12a3 253d
00000350: f938 d1bb 3329 423e f4d7 59be 00cd 873e
00000360: 896a 373e 2c5e b7be f736 96be 53ee 42bd
00000370: 445f ba3d 7730 113e b16b b7be 6fb7 d83d
00000380: 2ad5 b4be 659c 34be f7fd 813c 4bd9 0e3f
00000390: ca56 41bd 4174 fe3d 61c0 2fbe 2121 213e
000003a0: 354c c13e 08e6 1b3e 045d 5bbe fb85 adbe
000003b0: ff97 ae3e 1e9e 283e 68ca fdbd 6fd3 23bd
000003c0: eb22 e1bc fafe 1cbd e0a1 673f e07a a4bd
000003d0: fc44 583d 01e2 fd3d e3e8 c6bd 5a24 fb3d
000003e0: 9d17 c1bd 9d1d c73c b041 cf3e d7f8 693e
000003f0: 39f0 e83e 1365 bcbc fe07 ddbc 7b5e 5d3e
-0.11050356 -0.19182217 0.08178132 -0.31847832 -0.054770704 0.027525734 -0.118497 0.18145399
0.118248865 0.2549167 -0.07938158 0.39378536 0.004089957 -0.16933107 -0.022377497 -0.12196732
-0.63561237 0.42549852 0.53247124 -0.06496732 0.34105238 0.5228518 -0.2236445 -0.5475866
0.31715944 0.17308378 0.26335707 -0.12718382 0.06014904 0.047079764 -0.0721335 0.25050408
0.31252262 -0.15729259 0.511895 -0.42699862 0.5073263 0.29125553 0.42635307 2.1474383
0.11616899 -0.09506826 0.13926475 -0.19886787 -0.13250867 -0.015696531 0.15445502 0.2389568
-0.2424609 -0.07473823 -0.10861371 0.6628975 0.48674357 0.024709543 -0.24944976 -0.7100355
0.019731786 0.1508789 -0.23120755 -0.085393086 0.27783877 -0.011808578 0.12373873 0.04120187
-0.16022576 0.076298416 0.17030095 -0.4425329 0.08916676 0.082632415 -0.10550519 0.2551137
0.24116561 -0.36748233 0.1027579 -0.09984011 -0.36903775 0.05519949 -0.21500887 0.036611132
-0.26158783 -0.15676835 0.3073715 0.0885724 -0.103694335 0.5599725 -0.078057535 -0.053807557
0.018741151 -0.3030281 0.020669712 0.14729215 -0.2629431 -0.3970899 0.019748846 0.04238195
0.08987809 0.15152316 -0.37967253 0.65454835 -0.2721201 -0.15978275 -0.20231698 -0.21913248
0.16328119 0.19185284 0.13027906 0.2727885 -0.2585621 -0.24276677 0.7284227 -0.15463609
0.028327225 -0.027327355 -0.13802822 -0.28949818 0.041637056 0.021323478 0.20387617 0.06464368
-0.12838575 -0.011990153 0.79081714 0.16468693 0.24327753 -0.02796677 -0.15741281 0.4266527
-0.14562675 -0.07748764 0.05990586 0.019429037 0.34591746 -0.42243627 0.19313964 0.038179398
0.08334113 0.33257487 -0.047150455 0.87470365 -0.0031581128 -0.46359128 -0.23459044 0.10215557
-0.89921683 0.32248104 -0.1085964 0.17360519 0.18344149 0.11465272 0.09119433 0.12942976
0.09171145 -0.07973393 0.23361419 0.018126424 -0.15479347 -0.14375971 0.23913634 0.5014713
0.34056073 -0.19591385 0.11877362 0.13001788 -0.12816149 -0.18994667 -0.18999419 -0.043580692
0.42935675 0.013845531 -0.41653895 0.17510916 -0.170787 0.40550625 -0.16632356 -0.031854164
-0.3238303 0.014921339 0.12868862 -0.031324036 0.46523923 -0.30516174 0.0024458417 0.60457647
0.07259131 0.21084172 -0.23979793 -0.21212955 -0.10207784 -0.06224085 0.09673453 -0.19448867
0.105006866 -0.14103088 -0.052466266 0.34892857 -0.09408908 -0.055025097 0.0558044 -0.08314362
0.89864737 0.16673283 -0.1749212 0.0077201943 -0.08630659 0.82188314 0.12936506 -0.054782815
0.19502133 0.23798533 -0.25117037 0.04043872 -0.0063849655 0.18961029 -0.21273786 0.2652359
0.17911734 -0.35814035 -0.2933881 -0.047590565 0.09100202 0.14178644 -0.3582435 0.10581862
-0.3531888 -0.17637785 0.01586817 0.5580031 -0.04720191 0.124245174 -0.1716323 0.15735294
0.37753454 0.15224469 -0.21422201 -0.3389128 0.3410034 0.16466567 -0.123921216 -0.03999656
-0.02748247 -0.038329102 0.90481377 -0.08031249 0.052800164 0.123966224 -0.09712388 0.12262793
-0.09428332 0.024306113 0.40479803 0.22848831 0.45495775 -0.022997415 -0.02698135 0.21618073

fc2.bias f4 [128]
00000000: bcaa 1fbe 248d fcba 4fae baba 8fa1 aa3e
00000010: 6da2 493c 2fd3 f4b8 5f68 5eb9 e41e 263d
00000020: 7d52 f9b8 90e3 08b9 4c0c b6b8 ad1d 45b9
00000030: 8fce fcba 31cf 62b9 7332 dab8 164a a43d
00000040: f08c 1bb8 616d 90b8 7cfa a5bd d9b7 c6b8
00000050: 7aa0 86ba 243e 14be 8c95 75b9 79ca 15b7
00000060: 077d bcb8 f538 313f 036d b1ba cffe adb8
00000070: f036 2abe 25e4 bdb8 3cc2 2fb9 dbea e4b8
00000080: cb17 1038 ffa7 9f37 f123 6eb8 2be5 ffb9
00000090: 63f1 ffb8 3376 71ba b0ec 61bd 8eea 81b8
000000a0: dc5b 38b9 e13b 02b9 968b 62b9 5bc2 0dba
000000b0: 3d9c f2bc df38 4db9 1c1a 48b9 fa38 43bb
000000c0: 1b09 023e 762d 29b9 c6aa e0b8 0460 d0bd
000000d0: 4658 0bbe 9e35 70bd 65b8 9e3d e5cd d5b8
000000e0: 42cc 00b9 9892 02b9 548b 72bd 24e1 a0be
000000f0: f91d 04b9 a28b a1b8 d7f8 bbbb 0d42 17b9
00000100: 4184 e9b8 556a 09be 98d7 8337 33b3 0bb8
00000110: 9710 61bb 2ab0 073f 909f 6fb9 7d14 763d
00000120: b8dc b737 5a59 03b8 5c22 993c b37a b13d
00000130: 0f7f f5b9 3e09 6fb8 297d 7338 77f9 ebb8
00000140: 9c87 1ab9 ee2c b5b9 0c1e 3b3d 30d3 28b9
00000150: ee31 3536 12b9 10b9 8cff 38be 9e5b 27b9
00000160: e6f4 2b3e 2145 663e a0d8 56b8 c4b5 75b9
00000170: 9c5e ceb9 d803 c1b9 dd6f 8dbb 8360 ce3d
00000180: 7aa0 523e bd5c bab9 8327 0a3e a1e2 793c
00000190: 2aaa 8ab8 cb45 07b9 b5d0 99ba 887f e1bd
000001a0: e7db 69b9 66eb e8b9 ee9d 42b9 f3df adb9
000001b0: a5ec 31b9 44d7 3b3d d2d2 19bb 1fc7 19b9
000001c0: 5aad 44bd a56e 79b9 974f ca3d bd6a 14b9
000001d0: 23b6 693e 4cbf 9335 97fb 043e abed a5b9
000001e0: f2dc 10b8 425e 3837 7e9a 59b9 3495 85b9
000001f0: f7e6 7cbc cb08 90b8 6887 16be 6e9c 5ab9
-0.15592474 -0.0019268137 -0.0014242622 0.33326384 0.012306792 -0.00011674163 -0.00021210451 0.040556803
-0.0001188861 -0.00013054744 -8.680727e-05 -0.00018798439 -0.0019287633 -0.00021630224 -0.00010404447 0.08021943
-3.7086138e-05 -6.8868285e-05 -0.08104417 -9.47562e-05 -0.0010271214 -0.1447683 -0.00023420731 -8.928234e-06
-8.987827e-05 0.69227535 -0.0013536516 -8.2967446e-05 -0.1662252 -9.0547175e-05 -0.00016761658 -0.000109156324
3.4354434e-05 1.9032506e-05 -5.6777095e-05 -0.00048808134 -0.00012204309 -0.00092110335 -0.055157363 -6.1948886e-05
-0.00017581828 -0.00012420073 -0.0002160504 -0.00054076844 -0.029615516 -0.0001957151 -0.00019083213 -0.00297886
0.12698786 -0.00016134031 -0.000107129614 -0.101745635 -0.13607892 -0.058644883 0.07750014 -0.00010194982
-0.00012283123 -0.00012452377 -0.059214905 -0.3142177 -0.00012599667 -7.703087e-05 -0.005736451 -0.00014425088
-0.0001113494 -0.13419469 1.571681e-05 -3.3307075e-05 -0.0034342164 0.5300318 -0.00022852258 0.060078133
2.191808e-05 -3.131605e-05 0.018693142 0.08665981 -0.00046824708 -5.6990648e-05 5.805228e-05 -0.0001125214
-0.00014737103 -0.00034556485 0.04568295 -0.00016100402 2.7000165e-06 -0.00013801854 -0.18066233 -0.00015960491
0.1679264 0.22487308 -5.1223324e-05 -0.00023432734 -0.0003936187 -0.00036814692 -0.0043163137 0.10077002
0.2056903 -0.0003554578 0.13491635 0.015251786 -6.612048e-05 -0.00012900603 -0.0011735173 -0.11010653
-0.00022302532 -0.00044425874 -0.00018560115 -0.00033163987 -0.00016968192 0.04585959 -0.0023471606 -0.00014665395
-0.048016883 -0.00023787709 0.09878462 -0.00014154143 0.22823386 1.1008028e-06 0.12986599 -0.0003164833
-3.4538047e-05 1.0989201e-05 -0.00020752285 -0.00025478902 -0.015435926 -6.868093e-05 -0.14700091 -0.00020848375
