value_based/checkpoint_Normal_scaled.pth (torch, 21839 bytes, 8 tensors)

fc1.weight f4 [64, 37]
0.102072336 0.20358545 0.12926392 0.09555754 -0.014993346 0.3907096 -0.76699656 -0.074072696
-0.69936776 -1.8609576 0.100417666 0.15897721 0.11349024 0.12657039 0.054072127 0.06006742
0.06349155 0.094786875 0.093944795 0.06421044 -0.043399893 -0.0010793862 0.044355225 0.14152461
0.05795516 0.020622596 -0.01285379 -0.028081672 0.032529324 0.009225539 0.15867487 0.08622012
0.062490422 0.14176856 0.08232159 0.058529586 0.12647292 0.03836369 0.011638588 -0.006785219
0.09546362 0.037036315 0.041029464 0.10764131 0.15022504 0.13705374 0.3500507 0.22546792
0.056875337 -0.13593216 -0.5686483 -1.1113923 0.0451096 0.022825936 -0.0077200243 0.18142374
0.02713073 0.020115703 0.20580138 -0.20055144 -0.19398147 -0.54475975 -0.040076945 -0.06883811
0.0927521 -0.0046100304 0.1745045 -0.15285136 0.0023987996 -0.025199344 -0.16935435 -0.0019557949
-0.028569805 -0.18423937 -0.08935684 -0.11343158 -0.042288754 -0.13958567 0.06616332 -0.031360608
0.25105754 -0.05046809 0.07208118 -0.3301136 0.046421155 -0.046745222 0.1017032 0.029651545
-0.031483077 0.084118515 0.0028377029 0.017012322 0.016028285 0.20374146 -0.20342697 0.07874961
0.19187154 -0.1482659 0.09311757 -0.099614136 0.03443972 0.07020752 -0.1961354 0.019250799
0.11366329 -0.17892164 -0.18137512 -0.5262689 -1.7111214 0.05013709 0.243305 0.015058584
-0.07095725 -0.03703006 -0.14980038 0.03503857 -0.019137215 -0.3955556 -0.103883706 0.27696553
0.57269436 -0.17134038 -0.037804026 -0.07982933 -0.091626726 -0.044923864 -0.02510973 -0.11995627
-0.027072467 -0.0034828042 0.2757911 0.051235605 -0.16371346 -0.012629732 0.14275773 0.23673494
-0.007018058 -0.25555414 -0.20702954 0.069693744 0.26604754 -0.13520722 -0.09939408 -0.123114735
0.14151232 0.30556044 0.08963725 0.26297694 0.055060383 -0.12377655 0.12242271 -0.061023228
-0.007512016 -0.31313887 0.06002055 0.05718625 0.30820137 0.3771281 -0.00075496105 -0.027180139
0.1207724 0.1492288 0.06552181 0.006165625 -0.05455413 -0.14118037 0.021655887 -0.06417427
-0.12386301 0.11620702 -0.014670048 -0.19442537 0.10355105 -0.04002413 -0.1354488 -0.063664585
-0.27788237 -0.0742771 0.010503399 -0.010078081 0.017617067 0.12776816 -0.07054403 -1.3331637
0.3821123 -0.15789415 0.052464806 0.11374244 0.022737488 0.06939408 -0.060950357 -0.69419235
0.21548826 -0.10858489 -1.480194 -0.070675895 -0.08331089 0.093623385 0.06307248 0.11614365
-0.09407768 -0.039482128 0.045669474 0.19406581 0.25767413 -0.06737033 -0.25601673 -0.07876551
0.049500372 0.21276456 -0.11765965 0.20932268 -0.0771237 0.10161561 -0.049247302 0.0021920206
0.29707634 0.040830415 0.09264998 0.03046973 -0.1784071 0.20699732 0.003599102 -0.035020724
0.003575514 -0.2647021 0.0014559997 0.06602656 -0.5488112 -0.30211958 0.44026816 0.44792122
-0.09486369 0.38696298 -0.014764624 0.15811245 -0.34791014 0.00679809 -0.42534515 -0.7232338
0.05587871 -0.31476855 -0.13560672 -0.111121535 0.0060798395 0.044214126 -0.35209244 0.11388974
-0.2910919 0.07263322 -0.20690344 0.04541625 0.084479444 -0.23641033 -0.32051638 -0.56857514
00000000: 4d0b d13d b478 503e c35d 043e acb3 c33d
00000010: a7a6 75bc 170b c83e e359 44bf 6db3 97bd
00000020: c409 33bf dc33 eebf c7a7 cd3d ecca 223e
00000030: 926d e83d ab9b 013e bc7a 5d3d 4109 763d
00000040: dc07 823d 9f1f c23d 2166 c03d c380 833d
00000050: 16c4 31bd 317a 8dba d3ad 353d d4eb 103e
00000060: 6462 6d3d b8f0 a83c b498 52bc 890b e6bc
00000070: 783d 053d b726 173c aa7b 223e 2d94 b03d
00000080: f5f5 7f3d c72b 113e 3998 a83d b8bc 6f3d
00000090: 1e82 013e 3f23 1d3d c7af 3e3c 8b56 debb
000000a0: 6e82 c33d 64b3 173d 830e 283d 0c73 dc3d
000000b0: 98d4 193e d157 0c3e d839 b33e 10e1 663e
000000c0: 1df6 683d cd31 0bbe ef92 11bf 1a42 8ebf
000000d0: d8c4 383d 75fd ba3c 42f8 fcbb 25c7 393e
000000e0: 4441 de3c b0c9 a43c 99bd 523e 5b5d 4dbe
000000f0: 14a3 46be 6075 0bbf b927 24bd fffa 8cbd
00000100: d0f4 bd3d bd0f 97bb 4fb1 323e 1185 1cbe
00000110: 2e35 1d3b db6e cebc 3a6b 2dbe cb2c 00bb
00000120: 390b eabc 3fa9 3cbe b800 b7bd d14e e8bd
00000130: f936 2dbd 8cef 0ebe a280 873d fb73 00bd
00000140: 9d8a 803e a1b7 4ebd 4c9f 933d a604 a9be
00000150: 1c24 3e3d eb77 3fbd c449 d03d cce7 f23c
00000160: 66f4 00bd 5446 ac3d c1f8 393b 6d5d 8b3c
00000170: c04d 833c 9aa1 503e 294f 50be 7a47 a13d
00000180: f979 443e 04d3 17be 6db4 be3d 7f02 ccbd
00000190: aa10 0d3d f6c8 8f3d b8d7 48be dab3 9d3c
000001a0: 4dc8 e83d 3c37 37be 66ba 39be 8fb9 06bf
000001b0: 0706 dbbf 8d5c 4d3d f224 793e 47b8 763c
000001c0: 0952 91bd d5ac 17bd 4565 19be 9b84 0f3d
000001d0: a6c5 9cbc 4386 cabe fbc0 d4bd 6dce 8d3e
000001e0: 199c 123f da73 2fbe 65d8 1abd 8f7d a3bd
000001f0: cba6 bbbd 1602 38bd ecb2 cdbc a2ab f5bd
00000200: 14c7 ddbc c23f 64bb 7e34 8d3e 6ddc 513d
00000210: 80a4 27be efec 4ebc 152f 123e a56a 723e
00000220: bdf7 e5bb fed7 82be 8dff 53be 98bb 8e3d
00000230: 6237 883e c373 0abe 208f cbbd 9423 fcbd
00000240: 9be8 103e 6b72 9c3e bc93 b73d eaa4 863e
00000250: ff86 613d 8f7e fdbd c2b8 fa3d 7ef3 79bd
00000260: 5c27 f6bb bd53 a0be 1cd8 753d 213c 6a3d
00000270: 92cc 9d3e ef16 c13e 94e8 45ba e2a8 debc
00000280: 8557 f73d 6fcf 183e 4c30 863d 0309 ca3b
00000290: 2774 5fbd 9691 10be b067 b13c cd6d 83bd
000002a0: e4ab fdbd f2fd ed3d a45a 70bc 7217 47be
000002b0: 9312 d43d 58f0 23bd 17b3 0abe 9462 82bd
000002c0: 9946 8ebe 981e 98bd 7316 2c3c 891e 25bc
000002d0: ab51 903c a8d5 023e 6379 90bd 1ca5 aabf
000002e0: 39a4 c33e 01af 21be 56e5 563d ccf1 e83d
000002f0: f843 ba3c 7c1e 8e3d 15a7 79bd 97b6 31bf
00000300: f4a8 5c3e c161 debd ff76 bdbf 86be 90bd
00000310: e69e aabd 9ebd bf3d 252c 813d b9dc ed3d
00000320: ccab c0bd 03b8 21bd ea0f 3b3d 30b9 463e
00000330: dded 833e 75f9 89bd a014 83be d04f a1bd
00000340: e7c0 4a3d f4de 593e 8bf7 f0bd af58 563e
00000350: 08f3 9dbd d81b d03d 8ab7 49bd 01a8 0f3b
00000360: 641a 983e cb3d 273d 46bf bd3d a89b f93c
00000370: 5ab0 36be 1bf7 533e e9de 6b3b e471 0fbd
00000380: 2c53 6a3b 0987 87be 3ed7 be3a ef38 873d
00000390: e47e 0cbf 6baf 9abe d46a e13e ee55 e53e
000003a0: e547 c2bd 0320 c63e 52e7 71bc 3be8 213e
000003b0: 4721 b2be 83c2 de3b d7c6 d9be da25 39bf
000003c0: 13e1 643d 5829 a1be 7ddc 0abe b093 e3bd
000003d0: 6439 c73b df19 353d 7645 b4be 063f e93d
000003e0: ff09 95be bac0 943d 7fde 53be 6406 3a3d
000003f0: 8f03 ad3d 8d15 72be b91a a4be 248e 11bf

fc1.bias f4 [64]
-0.008081334 0.13558082 0.13426004 -0.04668647 -0.1583665 -0.054365207 -0.036754653 -0.021946238
-0.16391811 0.041626155 -0.13847041 -0.07593586 -0.071045384 0.015545115 -0.14689106 -0.089952484
0.06461202 0.13689779 0.20116979 -0.04449103 0.029024428 -0.15273924 -0.14627014 0.004458724
0.027543558 -0.092279784 -0.14791475 0.059568115 0.11282248 0.1449479 -0.08119248 -0.21660198
-0.06447483 -0.075955436 -0.028955864 0.07497409 0.1269145 -0.08185597 0.08236445 0.013676212
-0.09092237 -0.031368595 -0.069058806 0.07560347 0.2231312 -0.06938745 -0.16262412 0.12418902
-0.13880752 0.14326097 -0.064421564 0.15624212 -0.20367976 -0.07104428 -0.088977 0.11220933
0.09936277 0.051865313 -0.012285023 -0.12871309 0.11928707 -0.045477733 0.092262104 -0.17985642
00000000: 9267 04bc b3d5 0a3e 777b 093e 503a 3fbd
00000010: d42a 22be 0dae 5ebd 0c8c 16bd 99c8 b3bc
00000020: 26da 27be 3080 2a3d 30cb 0dbe 4384 9bbd
00000030: 3e80 91bd f0b0 7e3c 9c6a 16be 0239 b8bd
00000040: 4f53 843d ef2e 0c3e 74ff 4d3e 3a3c 36bd
00000050: a3c4 ed3c ad67 1cbe d7c7 15be 7d1a 923b
00000060: 07a3 e13c 2ffd bcbd f776 17be b2fd 733d
00000070: 790f e73d 396d 143e 3e48 a6bd e9cc 5dbe
00000080: 610b 84bd 868e 9bbd d934 edbc 048c 993d
00000090: e0f5 013e 1aa4 a7bd b1ae a83d 3112 603c
000000a0: 8235 babd 5b7c 00bd b46e 8dbd fed5 9a3d
000000b0: 817c 643e 021b 8ebd f086 26be d056 fe3d
000000c0: 8f23 0ebe 01b3 123e 74ef 83bd effd 1f3e
000000d0: 6d91 50be aa7f 91bd 9339 b6bd 01ce e53d
000000e0: b57e cb3d b970 543d 1f47 49bc 5dcd 03be
000000f0: c84c f43d dc46 3abd eaf3 bc3d 482c 38be

fc2.weight f4 [32, 64]
-0.31344455 0.19751579 -0.13042969 0.02563081 0.16763397 -0.04401564 0.18466641 -0.32235885
-0.06046275 0.06302959 0.32572344 0.26664567 -0.18023984 -0.26527643 0.15174858 0.065066665
0.04128046 -0.0720662 -0.05005488 0.09677226 -0.062914796 0.040254463 -0.028211003 -0.09693381
0.08563679 0.14620954 1.3487396 -0.25139412 -0.03798694 -0.5376559 0.0524283 -0.095004536
0.051214647 0.0022243068 0.030382691 -0.011043888 0.0026097267 -0.3892465 -0.14719257 -0.17572314
-0.57412887 0.022781279 0.21507359 -0.032595985 0.14747374 0.08392578 -0.12526388 -0.19450526
-0.12912673 -0.20980538 -0.28141695 -0.03928663 -0.3420671 -0.4493055 -0.13118535 0.22418925
-0.07350185 0.11368321 0.34275526 -0.21254335 -0.019680029 0.262511 -0.10085553 -0.17010243
0.050281275 -0.042392697 0.3424352 -0.19590537 0.09998939 -0.13632664 -0.12057501 0.18675266
-0.07442719 -0.16756605 0.13698404 0.077461295 -0.048219547 -0.20304495 -0.116297595 0.054633398
-0.25668904 0.33518356 0.115374595 -0.082341485 0.059045415 0.06903114 -0.033980776 -0.013933918
-0.059958007 -0.09207929 -0.20758037 0.14289023 -0.017187446 0.10887743 -0.35213882 0.12965563
0.07682058 -0.019864565 0.008166384 -0.12693809 -0.0535294 -0.13246287 0.10252449 0.23334236
0.20345819 0.13603634 0.127127 -0.09499742 0.1357724 0.14176853 -0.1600476 0.14078288
0.09525112 -0.05367297 0.038825523 0.047151577 -0.010581636 0.5277868 0.1302618 -0.08957393
0.23536608 -0.07490153 -0.053132597 -0.16046025 0.03065617 -0.28248277 0.15736662 0.18280253
0.10799625 -0.14791326 -0.1624095 -0.048719242 0.15845379 0.03782735 -0.2538706 0.17343806
-0.101902686 -0.1376358 -0.14723612 0.28892827 0.10670268 0.17377426 0.012333835 -0.5301877
0.21230814 -0.12225625 0.13479617 0.010483058 0.1436179 -0.21761036 -0.18328276 0.031991664
-0.04974031 0.22345284 1.1094003 -0.2572603 0.053810433 -0.1916038 -0.012665974 -0.09083388
0.23818311 0.042154472 -0.030249136 -0.028734945 0.045387752 -0.27252993 0.14641038 -0.36347228
-0.6933415 -0.23210008 -0.624496 0.18161094 -0.04350131 0.4035028 -0.022122908 0.04552736
-0.067498565 -0.08287932 -0.16196986 -0.031817622 -0.17949401 -0.69963884 0.19874778 -0.058703765
-0.16773358 -0.03719684 0.058016535 0.2540649 0.009443506 -0.20386489 -0.0844991 -0.03183615
-0.20314132 0.34222168 -0.15336886 0.1357969 -0.028328503 -0.4536293 0.20464379 0.12216107
0.23691334 -0.041603733 0.35737336 -0.07057695 0.15752988 0.029734053 0.20389175 0.3067924
-0.20646168 -0.31511766 0.10265407 0.20547655 -0.010380475 -0.16252877 0.11745646 -0.20694247
-0.05269984 0.5586346 -0.18243037 0.119910635 0.16118866 -0.3391602 0.22726883 -0.2194811
0.16538765 -0.04743635 -0.11374034 0.1416144 -0.020929022 0.008363894 -0.30716005 -0.33721554
-0.40724626 -0.38667977 0.39942595 0.06167709 -0.10354875 -0.078499846 0.05319536 0.071819074
-0.23523787 -0.08758655 -0.38474953 0.07110257 0.008295988 -0.06860046 0.066118345 -0.22158165
0.19080211 -0.13624659 -0.11804658 -0.12938114 -0.14828587 -0.7576182 -0.058761824 0.6221961
00000000: ce7b a0be 9441 4a3e 5c8f 05be b4f7 d13c
00000010: 3da8 2b3e be49 34bd 3119 3d3e 380c a5be
00000020: caa7 77bd a815 813d 39c5 a63e c885 883e
00000030: cb90 38be 50d2 87be fb63 1b3e ac41 853d
00000040: b315 293d 7297 93bd 5906 4dbd 8930 c63d
00000050: 79d9 80bd dde1 243d c31a e7bc 3c85 c6bd
00000060: 5762 af3d f4b7 153e 80a3 ac3f bbb6 80be
00000070: 3298 1bbd d1a3 09bf 0fbf 563d bd91 c2bd
00000080: 73c6 513d adc5 113b 1fe5 f83c 6cf1 34bc
00000090: f307 2b3b 514b c7be a6b9 16be c4f0 33be
000000a0: 1cfa 12bf ce9f ba3c 403c 5c3e 5e83 05bd
000000b0: 5b03 173e 48e1 ab3d 2d45 00be 632c 47be
000000c0: cc39 04be 39d7 56be e215 90be 04eb 20bd
000000d0: 6b23 afbe 5f0b e6be 7455 06be de91 653e
000000e0: 2388 96bd bed2 e83d 9e7d af3e f7a4 59be
000000f0: 0338 a1bc d767 863e 588d cebd 552f 2ebe
00000100: bdf3 4d3d f7a3 2dbd ab53 af3e 6b9b 48be
00000110: 3dc7 cc3d 3699 0bbe 08f0 f6bd 173c 3f3e
00000120: 486d 98bd 6f96 2bbe 8b45 0c3e 07a4 9e3d
00000130: dc81 45bd 04eb 4fbe 6f2d eebd 45c7 5f3d
00000140: bf6c 83be 2e9d ab3e 8449 ec3d a7a2 a8bd
00000150: 9bd9 713d 3360 8d3d 6d2f 0bbd 174b 64bc
00000160: 8796 75bd 1194 bcbd f38f 54be d151 123e
00000170: b0cc 8cbc 21fb de3d 8a4b b4be 72c4 043e
00000180: 1c54 9d3d 03bb a2bc 4ccc 053c 0ffc 01be
00000190: a541 5bbd 59a4 07be 5cf8 d13d 4df1 6e3e
000001a0: 5857 503e 1c4d 0b3e 952d 023e 028e c2bd
000001b0: ec07 0b3e c52b 113e 85e3 23be 6329 103e
000001c0: 0513 c33d 30d8 5bbd 8307 1f3d 0322 413d
000001d0: 995e 2dbc 091d 073f 5963 053e 8972 b7bd
000001e0: ce03 713e f965 99bd 91a1 59bd b14f 24be
000001f0: a622 fb3c 95a1 90be b724 213e 9630 3b3e
00000200: 232d dd3d 9376 17be ad4e 26be d48d 47bd
00000210: b641 223e daf0 1a3d 54fb 81be bf99 313e
00000220: 5bb2 d0bd 66f0 0cbe 11c5 16be 68ee 933e
00000230: ef86 da3d e1f1 313e da13 4a3c 62ba 07bf
00000240: 4e67 593e 7c61 fabd 0208 0a3e 22c1 2b3c
00000250: 9210 133e 40d5 5ebe 7aae 3bbe b109 033d
00000260: 7fbc 4bbd d2d0 643e d400 8e3f 9fb7 83be
00000270: 5468 5c3d c933 44be f284 4fbc 1d07 babd
00000280: 46e6 733e 2baa 2c3d 09cd f7bc 8c65 ebbc
00000290: 82e8 393d 0b89 8bbe 9aec 153e 0a19 babe
000002a0: d47e 31bf a5ab 6dbe f8de 1fbf 38f8 393e
000002b0: 6e2e 32bd eb97 ce3e 1a3b b5bc e67a 3a3d
000002c0: b03c 8abd a2bc a9bd 6ddb 25be 3253 02bd
000002d0: 47cd 37be 881b 33bf 8a84 4b3e 5c73 70bd
000002e0: 5ac2 2bbe b75b 18bd bfa2 6d3d cb14 823e
000002f0: efb8 1a3c f5c1 50be dd0d adbd 9f66 02bd
00000300: 4704 50be ae37 af3e ba0c 1dbe 580e 0b3e
00000310: 2d11 e8bc 1a42 e8be 248e 513e 952f fa3d
00000320: 6999 723e ad68 2abd a4f9 b63e a68a 90bd
00000330: 834f 213e d494 f33c 00c9 503e e513 9d3e
00000340: b16a 53be 1a57 a1be 4c3c d23d 7268 523e
00000350: de12 2abc f16d 26be 038d f03d bae8 53be
00000360: cadb 57bd ad02 0f3f 07cf 3abe b593 f53d
00000370: a40e 253e 68a6 adbe 29b9 683e a7bf 60be
00000380: 615b 293e 9e4c 42bd b2f0 e8bd 5e03 113e
00000390: 5773 abbc b708 093c 1544 9dbe 84a7 acbe
000003a0: 9582 d0be e4fa c5be 8f81 cc3e 1ea1 7c3d
000003b0: 5e11 d4bd 87c4 a0bd 61e3 593d e115 933d
000003c0: 32e2 70be 9460 b3bd e4fd c4be 399e 913d
000003d0: e5eb 073c 667e 8cbd 0e69 873d 4de6 62be
000003e0: a161 433e 3a84 0bbe 68c2 f1bd 7d7c 04be
000003f0: 40d8 17be 44f3 41bf 3db0 70bd 3e48 1f3f

fc2.bias f4 [32]
0.023875458 0.01929833 0.2606554 0.062212925 0.03035361 0.043821353 0.4116124 -0.076882936
0.15007502 0.38116735 0.08699211 0.38704297 -0.10806628 -0.045155887 0.22246727 0.023063164
-0.17056954 -0.18225554 0.10386793 0.15282439 -0.19402458 -0.12775986 0.13850012 0.003428139
0.31194815 0.14743477 0.09007266 -0.04344069 -0.20692763 -0.103419974 -0.107876934 -0.031291083
00000000: 7796 c33c 8817 9e3c a074 853e fbd2 7e3d
00000010: 22a8 f83c 057e 333d dcbe d23e cd74 9dbd
00000020: 44ad 193e 5e28 c33e eb28 b23d 7f2a c63e
00000030: db51 ddbd 61f5 38bd 76ce 633e f6ee bc3c
00000040: c8a9 2ebe 32a1 3abe b6b8 d43d ff7d 1c3e
00000050: 61ae 46be 7bd3 02be fad2 0d3e a1aa 603b
00000060: abb7 9f3e 24f9 163e 0478 b83d ddee 31bd
00000070: d6e4 53be dacd d3bd 95ee dcbd 142b 00bd

fc2b.weight f4 [10, 32]
-0.8517461 0.1146795 -0.2032983 -0.25321037 0.14195263 0.19520716 -0.06261655 0.6042764
-0.3155787 -0.15994698 -0.6785503 0.089249946 -0.22515984 -0.34626055 -0.1914288 -0.0017641784
-0.23010345 0.059386276 0.47428206 0.41078144 0.061234225 0.21354789 0.20972522 -0.046556138
0.21216516 -0.14999309 -0.7971012 -0.31858262 -0.05680539 -0.16071597 0.20848024 -0.032496676
0.3378761 -0.15897684 0.33524925 -0.29052967 0.09799952 -0.014721404 0.21263203 -0.026916655
0.18575218 0.21791509 0.09812188 0.24736857 -0.41743445 -0.08171763 -0.28747776 -0.38091108
-0.44173673 0.07939387 0.20650859 0.04248968 0.5932243 0.29981643 0.16445202 -0.21075226
0.17600514 -0.3259123 0.06892513 -0.034353692 -0.27704534 -0.059930686 0.6858179 -0.13584718
0.30238065 -0.07078114 0.12181551 -0.44444305 0.1886841 0.029471552 0.21795301 -0.04904129
0.1986168 -0.032662418 0.12626964 0.124351755 -0.50535 -0.04597316 0.14889449 -0.07518332
-0.38594443 0.00033119338 0.0756182 -0.16189677 0.116878934 0.17717381 0.08235759 -0.09298025
0.16941768 -0.046835918 0.097130105 0.10142863 -0.29343367 -0.26168013 -0.024554485 -0.062242553
-0.015133807 -0.43222877 0.1304721 0.07189871 -0.35001788 0.118860304 0.20149693 0.16853198
-0.28554502 -0.15570238 -0.10902131 -0.16615002 -0.0860242 -0.48534632 0.15642391 8.925253e-06
-0.23235661 0.34727058 0.21957938 -0.16074072 -0.24787073 -0.086425 -0.1414945 -0.22711195
-0.12021252 -0.0053928844 -0.58386374 0.0003579569 0.1554484 -0.14504576 0.165409 0.11425319
-0.041611932 0.072397314 0.088869214 -0.027749464 0.4321784 0.0693845 -0.17035058 0.16767639
-0.089238375 0.061606616 -0.037784755 -0.00021255924 0.34188685 -0.047331784 0.12229596 0.25955895
0.45813006 -0.03571014 -0.1760461 0.12721652 -0.13780247 -0.04629176 -0.12044673 0.16734849
0.058716886 0.044325583 0.042470638 -0.22314897 -0.3362152 0.06375203 -0.14756879 0.14962211
0.42245987 0.16055995 0.13520382 -0.4312865 0.30796376 0.07189991 0.149219 0.20300147
0.11905632 0.17784385 0.008911176 0.21222022 0.12931316 -0.119131595 0.2613462 0.18166219
-0.71668315 -0.10959276 0.14513017 0.2162213 -0.12931284 -0.25833252 0.041764043 0.07184111
0.29630277 0.2894072 0.078695446 -0.43946648 -0.28851062 -0.065635405 0.031038223 0.03308486
0.28987494 0.036650892 0.14828597 -0.37513328 -0.60089105 -0.14195716 0.18770087 -0.36107057
-0.34060296 0.11109283 -0.34763438 -0.21717133 0.17439556 0.24632119 -0.24089816 0.5379343
0.28664622 0.23729953 -0.091954365 -0.14896975 0.19889429 0.39322096 -0.19009943 -0.30528158
0.15763403 -0.5359337 -0.122517 0.62612665 0.2970135 0.29872915 -0.54554796 -0.06033884
0.35774463 0.015517362 0.13734461 -0.30443186 -0.15939891 -0.16706349 0.07863505 -0.31659025
-0.2106155 -0.006209994 -0.36999005 -0.048862744 0.17946783 0.23612301 -0.15533206 0.4903768
0.17024505 0.25515682 0.2816963 -0.5475042 0.2670909 0.2871433 -0.03242415 -0.10894307
0.088637546 -0.25350317 -0.116766706 0.22198042 0.358443 -0.059490804 -0.19118376 -0.0665929
00000000: 080c 5abf 16dd ea3d 6e2d 50be caa4 81be
00000010: 085c 113e 63e4 473e 1b3d 80bd dcb1 1a3f
00000020: 8893 a1be 24c9 23be 79b5 2dbf adc8 b63d
00000030: 4d90 66be 1049 b1be e905 44be 013c e7ba
00000040: 3da0 6bbe 063f 733d 19d5 f23e f251 d23e
00000050: bdd0 7a3d 4cac 5a3e 35c2 563e a6b1 3ebd
00000060: d341 593e ca97 19be d30e 4cbf 431d a3be
00000070: c5ac 68bd ba92 24be d87b 553e 3c1b 05bd
00000080: 19fe ac3e d3ca 22be caa5 ab3e 4ec0 94be
00000090: f9b3 c83d 0b32 71bc 36bc 593e 5180 dcbc
000000a0: d235 3e3e 2225 5f3e 20f4 c83d 304e 7d3e
000000b0: f8b9 d5be 935b a7bd 4930 93be c706 c3be
000000c0: 512b e2be 4199 a23d fd76 533e a909 2e3d
000000d0: 8cdd 173f 8a81 993e 1c66 283e 71cf 57be
000000e0: b13a 343e fadd a6be 9e28 8d3d 75b6 0cbd
000000f0: e3d8 8dbe e179 75bd c391 2f3f 861b 0bbe
00000100: a3d1 9a3e b4f5 90bd 697a f93d 0a8e e3be
00000110: 6836 413e 536e f13c 132f 5f3e 85df 48bd
00000120: 3462 4b3e 07c9 05bd d44c 013e 22ac fe3d
00000130: 9e5e 01bf 5a4e 3cbd cc77 183e b6f9 99bd
00000140: 829a c5be 06a4 ad39 b7dd 9a3d 44c8 25be
00000150: 395e ef3d 0d6d 353e 19ab a83d 6e6c bebd
00000160: d47b 2d3e 05d7 3fbd 26ec c63d d0b9 cf3d
00000170: f03c 96be f0fa 85be 7d26 c9bc 0cf2 7ebd
00000180: caf3 77bc 174d ddbe 7a9a 053e a23f 933d
00000190: 8b35 b3be 086d f33d 3655 4e3e a693 2c3e
000001a0: f532 92be 7270 1fbe 9146 dfbd 3b23 2abe
000001b0: 752d b0bd 507f f8be 972d 203e abbd 1537
000001c0: e4ee 6dbe 73cd b13e 6bd9 603e 3799 24be
000001d0: d3d1 7dbe 97ff b0bd efe3 10be 0990 68be
000001e0: fb31 f6bd cbb6 b0bb 1878 15bf 29ac bb39
000001f0: de2d 1f3e e086 14be fa60 293e 94fd e93d
00000200: 4671 2abd 0b45 943d 1001 b63d d852 e3bc
00000210: 7d46 dd3e 7619 8e3d 6270 2ebe 5cb3 2b3e
00000220: 9cc2 b6bd 3857 7c3d 30c4 1abd 70e2 5eb9
00000230: cb0b af3e f9de 41bd 4e76 fa3d e9e4 843e
00000240: 0690 ea3e cc44 12bd 6e45 34be 0c45 023e
00000250: 171c 0dbe 6e9c 3dbd c6ac f6bd 675d 2b3e
00000260: 1e81 703d be8e 353d b1f5 2d3d 2a81 64be
00000270: 6624 acbe 6d90 823d 461c 17be 8a36 193e
00000280: a94c d83e d469 243e df72 0a3e 96d1 dcbe
00000290: 6dad 9d3e 4340 933d decc 183e 9edf 4f3e
000002a0: cdd3 f33d b31c 363e 2e00 123c 4250 593e
000002b0: ab6a 043e 44fb f3bd 2bcf 853e a705 3a3e
000002c0: 8c78 37bf 2b72 e0bd 019d 143e 1e69 5d3e
000002d0: 966a 04be 2944 84be c610 2b3d 6f21 933d
000002e0: ffb4 973e 2e2d 943e 142b a13d c001 e1be
000002f0: aab7 93be db6b 86bd df43 fe3c fd83 073d
00000300: 7d6a 943e 3f1f 163d 47d8 173e 7811 c0be
00000310: ffd3 19bf 385d 11be a834 403e 3ede b8be
00000320: 8363 aebe a384 e33d 22fd b1be 2962 5ebe
00000330: c094 323e 9f3b 7c3e 02ae 76be 10b6 093f
00000340: 4bc3 923e a6fe 723e 9252 bcbd 878b 18be
00000350: f2aa 4b3e 4254 c93e 6da9 42be de4d 9cbe
00000360: d16a 213e f332 09bf 31ea fabd d649 203f
00000370: 2712 983e 07f3 983e 08a9 0bbf dc25 77bd
00000380: 4e2a b73e 893c 7e3c 11a4 0c3e 7ede 9bbe
00000390: 7839 23be b112 2bbe 6a0b a13d 1e18 a2be
000003a0: 97ab 57be 357d cbbb 566f bdbe 4d24 48bd
000003b0: 6ac6 373e 3bca 713e 5e0f 1fbe ab12 fb3e
000003c0: b854 2e3e eaa3 823e 7f3a 903e 3c29 0cbf
000003d0: 23c0 883e 7204 933e 2fcf 04bd 8b1d dfbd
000003e0: 9a87 b53d 2bcb 81be 6223 efbd d64e 633e
000003f0: d785 b73e a1ac 73bd adc5 43be dc61 88bd

fc2b.bias f4 [10]
0.12006935 0.34583363 0.5975022 -0.03946008 0.5096801 0.5564494 -0.14216912 -0.25335234
0.6338865 0.109861754
00000000: ebe6 f53d 1b11 b13e e7f5 183f e5a0 21bd
00000010: 657a 023f 7873 0e3f c894 11be 66b7 81be
00000020: 6346 223f 33ff e03d

fc3.weight f4 [4, 10]
0.32169732 0.02907611 0.22358666 0.014303955 0.11414641 0.43947223 -0.47353765 -0.240243
0.21723555 0.27322844 0.4597233 0.53787565 0.4127454 0.3748783 0.10913992 0.07321425
-0.20715804 -0.49992442 0.06318441 0.3271163 0.319871 0.09138071 0.3683068 -0.21738856
0.38724858 0.18523532 -0.66804606 -0.19500846 0.3782699 0.30814895 0.3095934 0.14234343
0.049341787 -0.24438913 0.20303838 0.428067 -0.3850297 0.0046003726 0.35524905 0.20125347
00000000: 83b5 a43e 0631 ee3c e7f3 643e 235b 6a3c
00000010: 98c5 e93d 8102 e13e 8773 f2be 4302 76be
00000020: ff72 5e3e 99e4 8b3e da60 eb3e 38b2 093f
00000030: 5d53 d33e 0cf0 bf3e c084 df3d 5af1 953d
00000040: 3d21 54be 18f6 ffbe d466 813d ca7b a73e
00000050: 22c6 a33e cf25 bb3d b592 bc3e 1b9b 5ebe
00000060: 7245 c63e 54ae 3d3e 1105 2bbf 4cb0 47be
00000070: 98ac c13e b3c5 9d3e 0783 9e3e 7ac2 113e
00000080: 9d1a 4a3d 2541 7abe 4be9 4f3e 992b db3e
00000090: 9d22 c5be b9be 963b 34e3 b53e 6415 4e3e

fc3.bias f4 [4]
0.3176903 0.12003235 0.07140516 0.18907386
00000000: 4ea8 a23e 85d3 f53d de3c 923d 949c 413e
