value_based/checkpoint_Normal_scaled_rev1.pth (torch, 21839 bytes, 8 tensors)

fc1.weight f4 [64, 37]
000000 b3 77 ea 3d 2f ad 20 3e 17 5d 2a 3e 7b 0e a4 3d
       0.11448612 0.15691064 0.16637073 0.080105744
000010 f7 5d 31 3d ce 3b 8e 3e 1f 0e 8c be 6a 9d df bd
       0.043302502 0.27780002 -0.27354524 -0.10918696
000020 f1 78 01 bf 0d 33 08 c0 c4 c3 ad 3d 66 1f df 3d
       -0.50575167 -2.128116 0.08484605 0.10894661
000030 bf 98 30 3e 56 8a c6 3d 58 60 93 bd 44 0e c8 3d
       0.17245768 0.09694354 -0.071961105 0.09768346
000040 87 47 26 3c 12 14 18 3d 79 99 ec 3d f7 e3 f6 3c
       0.010148889 0.037128516 0.1155271 0.030137999
000050 b0 15 59 bb 00 aa f8 3b 22 76 df bb ff af c2 3d
       -0.00331245 0.007588625 -0.0068195025 0.09506225
000060 2d e7 40 bb f7 11 31 3c 29 4a 45 bd 62 64 af bd
       -0.0029434667 0.010807506 -0.048166428 -0.085640684
000070 aa a7 2e 3d e4 9b d8 3b 51 21 b5 3d 7e 4b 81 3d
       0.042640366 0.0066103805 0.08844245 0.06313227
000080 88 30 e5 3d 8c 6e 9b 3e 6c c5 10 3e 60 71 22 bc
       0.11190897 0.30357778 0.1413781 -0.009914726
000090 cc 1f 4c 3c ff a7 ba 3e 30 4f b2 be 82 79 06 bf
       0.012458753 0.36456296 -0.3482604 -0.52529156
0000a0 a5 3c 33 bf b5 1b 0f c0 3a 51 74 3b 39 ae be 3d
       -0.7001441 -2.236066 0.003727986 0.09310574
0000b0 bf 48 26 3d e2 11 59 3d ab 96 41 3d ae 56 1f bd
       0.04059672 0.05299557 0.04726283 -0.038901024
0000c0 47 86 bd bb 02 6e 3b bd 4d cb 38 3d ed db d1 bc
       -0.0057838294 -0.04575921 0.045115758 -0.025617564
0000d0 aa a8 03 bc 61 7d d6 3b d1 d4 89 bc c2 3e c1 3d
       -0.008035818 0.006545708 -0.016825112 0.09435798
0000e0 6f 50 a3 3d b6 a2 cd bc 84 5a 54 bc 06 a2 3b 3d
       0.07974326 -0.025102 -0.012961034 0.045808814
0000f0 f0 51 72 ba 08 da c6 3d a3 7a 64 bd a3 d6 13 bd
       -0.0009243777 0.09709555 -0.055781018 -0.036093365
000100 ae 32 33 3d 69 65 bf 3d da b5 5a 3e 23 86 00 be
       0.043749504 0.09345514 0.21358433 -0.12551169
000110 88 0c a7 bd 8e 06 8a bc 83 81 9f 3d 63 e7 1d 3e
       -0.08156687 -0.016848829 0.07788374 0.15420298
000120 cb 25 eb bd 61 8c af 3a b9 1b 1f bd 30 9c 1a 3c
       -0.11481818 0.0013393277 -0.038844798 0.009436652
000130 29 f5 27 bd 1e 60 50 3d cc 6b ba bb 2b b7 d6 3e
       -0.041005287 0.050872914 -0.00568912 0.4193662
000140 40 b5 0c bf 62 7b 1a bf 28 60 2f bf e7 2f ef bf
       -0.54964066 -0.6034452 -0.685061 -1.8686494
000150 34 34 c9 3d 82 bd 97 3d f1 40 63 3d 27 16 a3 3d
       0.0982441 0.074091926 0.055481855 0.079632096
000160 8c 0a 52 bd 87 49 33 3d dd 45 05 3e dd 65 02 3e
       -0.05127959 0.043771293 0.13014932 0.1273417
000170 fd 0c de 3d 70 ab 9a 3d 61 2f 8b bb a5 71 a6 3d
       0.10842321 0.0755223 -0.0042475914 0.08127145
000180 dd 95 88 3d ba d9 94 3d db f7 2d 3d bf da 6f bd
       0.06669209 0.072680905 0.0424727 -0.058558222
000190 f9 59 d9 bc b2 e9 9c 3d 5b cb a4 3d fa 18 be 3d
       -0.02653216 0.07661761 0.080465995 0.09282108
0001a0 7e ab 38 bb 27 6f 17 bc 69 7e 1a 3d b7 6e 9b ba
       -0.002817839 -0.009242809 0.03771821 -0.0011858557
0001b0 cb 19 60 3d 7e 09 c6 3c fa 07 2f 3d 3f eb 1c be
       0.054712098 0.024174448 0.042732216 -0.15324114
0001c0 9d d4 33 bd 34 a2 e1 bc 47 49 01 3d aa c7 21 3e
       -0.043903936 -0.027543165 0.031564023 0.15798822
0001d0 1b 12 13 bd de e2 5d be f9 56 bd bd ff ac 12 3e
       -0.03590594 -0.21668574 -0.09245104 0.14323805
0001e0 d0 71 07 3f 9a 6f 6a bd ab 6b d0 bd ea 0f 45 bd
       0.5290804 -0.057235338 -0.10176786 -0.04811088
0001f0 77 d8 05 be 51 14 97 3c 0e 50 80 be 58 8e 12 bc
       -0.13070856 0.018442305 -0.25061077 -0.00894507
000200 e5 6e b8 3b b5 52 2c 3e 49 77 a5 3e 77 48 5b bd
       0.005628454 0.16828425 0.3231757 -0.053535905
000210 fb 12 b8 bd 04 16 1d 3d cb 32 33 3c 7f 14 ea bd
       -0.08987995 0.038351074 0.010937403 -0.114296906
000220 95 1e 83 be a4 3b 2e be 5d e4 07 bd 45 1a 06 3e
       -0.2560927 -0.17014939 -0.03317677 0.13095959
000230 2e b3 cd 3e e6 82 e0 bd ab aa b0 3c ca ea c1 bc
       0.40175766 -0.10962467 0.021565756 -0.023671526
000240 98 23 28 be a1 d4 a2 bd 0e 90 7d 3c 3f 11 9c 3e
       -0.16419828 -0.07950712 0.01547624 0.30481908
000250 60 a6 1d 3e 6d 32 ef 3d c8 e7 e6 3d a8 36 40 be
       0.15395498 0.1167954 0.112746775 -0.1877085
000260 ba 7d 68 be 96 98 a7 be 7b 62 f3 3d 03 24 8e 3d
       -0.22704211 -0.327336 0.11884018 0.069404624
000270 10 05 c2 bd 6d ed 49 3e 44 b8 8c 3e b9 57 1d be
       -0.09473622 0.19719477 0.27484334 -0.15365495
000280 7c ac a0 bc 74 4a c8 3d 99 1e df bd 93 69 5c be
       -0.019613497 0.09779826 -0.10894508 -0.21524648
000290 e4 c1 e5 3d 2b f7 81 be b9 3a 72 3e 1a bd 86 3e
       0.11218622 -0.25383887 0.23655213 0.26316148
0002a0 59 13 1c 3e 40 1c e2 bd d3 fe e9 bd fc a4 72 be
       0.15241756 -0.110405445 -0.11425557 -0.23695749
0002b0 42 53 e0 be 1d e6 a0 bd 80 3e 2f be ba 3b 1d bd
       -0.4381352 -0.078563906 -0.17113686 -0.038387038
0002c0 40 73 0a 3d 53 b7 39 bd 13 2c 30 3e 7e f1 30 3e
       0.033801317 -0.045340847 0.17204313 0.17279622
0002d0 bf d8 72 3d a6 28 4e be a5 fe cf be 2c 5f 44 be
       0.059288736 -0.20132694 -0.40623966 -0.1917693
0002e0 ce 94 17 3c 8b 67 97 3d be 4f 41 3e c3 e9 f5 bc
       0.009251786 0.07392796 0.18878075 -0.030018693
0002f0 a3 80 61 3d d2 10 da bd a7 5a c3 be f9 32 f1 3c
       0.05505432 -0.106477395 -0.381551 0.029443251
000300 6f 2d b0 3e 23 0d 91 be b4 42 04 3d bf 54 94 bd
       0.34409663 -0.28330335 0.032290176 -0.072427265
000310 73 65 95 bc c4 a7 1f 3e 6f 2e 3b bd ec 26 f1 3d
       -0.018236851 0.15591341 -0.04569858 0.11775002
000320 e1 15 54 be 64 6a 88 3d 18 6a 1c 3d f3 e9 4d 3e
       -0.20711471 0.066609174 0.038187116 0.20108776
000330 fd 2b e9 bd 13 f0 06 be ef 72 83 bc 5b 3b c5 bd
       -0.11385343 -0.13177519 -0.016046016 -0.09630462
000340 f4 58 70 be 46 ce dd bd e7 4d c7 3d af 93 21 be
       -0.23471433 -0.10830359 0.097316556 -0.15778993
000350 af b9 7a 3d 81 80 e9 be e6 be ef be 01 bc 5c 3d
       0.061212238 -0.45605853 -0.4682533 0.053890232
000360 92 0a d2 3d d2 42 67 bc 35 77 e1 3d d9 96 a4 be
       0.102559224 -0.014115052 0.11009065 -0.32146338
000370 ba e4 d3 ba 24 38 90 bd 43 f1 a5 be 9f 45 dd 3d
       -0.0016166188 -0.07041958 -0.3241063 0.10804295
000380 fa e7 ce 3a 64 67 84 3d 9c 94 da 3e e6 4a 46 be
       0.0015785687 0.06465033 0.42691505 -0.19364509
000390 4e 12 29 bd c5 55 6a be 78 96 d6 3d 32 f6 10 3f
       -0.041277222 -0.22884281 0.104779184 0.56625664
0003a0 dd fd 13 3e ce a4 3a be 2f 1a 87 3e c0 96 db 3d
       0.1445231 -0.1822693 0.26387164 0.10722113
0003b0 42 a0 ef 3c 47 62 87 bd ab d4 67 be 87 f5 16 be
       0.029251222 -0.06610542 -0.2263972 -0.14742099
0003c0 e5 78 1b be 8a c2 84 3c 25 9c e8 be 8d f7 3b 3e
       -0.15182836 0.016206045 -0.4543163 0.18356152
0003d0 37 d2 0d be 4d 16 4a 3d e9 29 00 3e f2 48 ce 3d
       -0.13849722 0.049337674 0.12515987 0.10072507
0003e0 5d 1f 38 bc 18 47 71 3d 2e b0 4a 38 9f 09 81 be
       -0.011237946 0.05890569 4.8324633e-05 -0.25202653
0003f0 59 52 5f bd 17 96 57 be 17 62 a4 3d 0e d1 be 3c
       -0.054521892 -0.21053348 0.08026522 0.023293044

fc1.bias f4 [64]
000000 d3 15 55 bd 30 7a 9f 3d 0e 9c 65 3e cc 1e 3e bc
       -0.052022766 0.07786977 0.22422811 -0.011604022
000010 0e e1 ed bd 72 e7 03 be 43 be b4 bd 5b 3b 0a 3d
       -0.116151914 -0.12881258 -0.08825352 0.033748012
000020 82 84 5f be 2b 65 b3 bb 27 26 f3 bd 32 08 9e bd
       -0.21827891 -0.0054747066 -0.11872511 -0.07716407
000030 df 30 df bc e0 fc ab bd 09 1b 34 be 81 ff 39 be
       -0.027244983 -0.083978415 -0.17588438 -0.18163873
000040 bf 2b a4 3c 96 ea 77 bd e6 5a 0f 3e 4b e1 00 be
       0.020040391 -0.060526453 0.13999519 -0.12585942
000050 25 16 c8 3c 9b 91 d7 bd 00 48 3d be f2 0d 36 be
       0.024424622 -0.10525819 -0.18484497 -0.17778757
000060 a6 50 4f be fa b1 14 be 6e b8 4a be f7 80 c5 bd
       -0.20245609 -0.14521018 -0.19796917 -0.09643739
000070 7e c9 25 3e 1f 56 98 3d 46 46 3a be c2 59 a8 be
       0.16190144 0.07438301 -0.1819087 -0.3288098
000080 e9 66 68 be 8f 79 14 be cb 29 40 bb 99 c6 31 3d
       -0.22695507 -0.14499496 -0.0029321786 0.043402288
000090 74 ae 3c bd db 75 b4 bc c5 84 92 3d c7 59 52 be
       -0.04606481 -0.022028854 0.0715423 -0.2054206
0000a0 fe b2 f1 bd a5 2c b4 3c 7c bb 6d bd 4c fa 51 3d
       -0.11801718 0.021993944 -0.058040127 0.051264092
0000b0 1a 7c 22 3d ee d9 13 bc 43 46 1b be 86 f6 5f 3e
       0.039669134 -0.009024126 -0.15163521 0.21871385
0000c0 d8 02 3c be e6 30 8d 3d 3b 85 5b be f6 03 92 3d
       -0.1836046 0.06894092 -0.21437542 0.07129662
0000d0 0b e0 ad bd 35 2e 38 bd 6a c7 a2 3d 58 e2 66 3c
       -0.084899984 -0.04496594 0.079481915 0.0140920505
0000e0 bc 93 0b 3e 9d 21 55 3d 5d 63 31 be 40 75 44 ba
       0.13630575 0.05203401 -0.1732306 -0.0007494278
0000f0 d1 b9 21 3d 4f 3d 89 bd 9d bd 07 3d 0d 0d 98 be
       0.03948385 -0.06701147 0.033139814 -0.29697457

fc2.weight f4 [32, 64]
000000 f1 c9 ce bd 0f c5 4c 3f 56 4c 98 be 89 15 a9 3d
       -0.10097111 0.7998819 -0.2974574 0.08256061
000010 b7 7c 46 be aa 9f 7f be fb be 34 3e 80 dc 75 3e
       -0.19383512 -0.24963251 0.17650978 0.24009895
000020 e1 d8 a9 be f5 76 3f 3e 4c f8 21 bf ca 63 08 be
       -0.33173278 0.18697722 -0.63269496 -0.13319317
000030 96 a5 d5 3e 0a ce 03 be 74 8b 63 bf 00 3a 01 3f
       0.41727895 -0.12871566 -0.88884664 0.50479126
000040 55 4c 09 bc 70 98 57 3e c6 1a dc 3c ee 6d 8a 3e
       -0.008380015 0.21054244 0.026868235 0.27036995
000050 66 40 0c 3f d9 7c 9a bd 1c 78 8e be 3f de a3 be
       0.54785764 -0.07543344 -0.2782601 -0.32005498
000060 29 5f 9e 3e f6 0d 8a 3d aa ae e1 be a1 49 cc be
       0.30931976 0.06740944 -0.4407857 -0.39899924
000070 d5 82 fc 3d 9a 9f 53 3e 1a 10 54 3e bf 43 99 3d
       0.12329642 0.20666352 0.20709267 0.07483625
000080 64 73 ef bb fa 3a 85 be ef 8d 9c 3e f7 b4 09 be
       -0.007307457 -0.26021558 0.30577037 -0.13447939
000090 18 a8 b2 be fb 7c fa be 7a 53 7e bb 71 bd c1 bd
       -0.3489387 -0.48923478 -0.003880708 -0.09459961
0000a0 f4 f1 e5 be 0e 7e 39 be bb 04 d9 be f5 88 43 3e
       -0.44911158 -0.18114492 -0.42386422 0.19095214
0000b0 13 dd ee 3c 67 6e 99 bb 96 aa f0 3d 6d 28 e6 3c
       0.02915815 -0.0046823504 0.11751287 0.028095448
0000c0 db ff f2 3d 63 a3 08 be 97 09 5e 3d 7e 57 3b be
       0.11865207 -0.13343577 0.054208364 -0.18295094
0000d0 9e fa 09 be d0 65 0b bf e5 14 8b 3e 3e f6 36 bf
       -0.13474509 -0.5445223 0.2716438 -0.71469486
0000e0 3a ff a0 bd 6e 4c c0 3d 16 8d 99 3e f6 46 3a be
       -0.078611806 0.09389578 0.29990453 -0.18191132
0000f0 5b 3e 5a 3e 2a 8e 04 bd 0f 81 1f bf b6 93 04 bc
       0.21312849 -0.03236214 -0.623063 -0.008091858
000100 71 3c 74 3e 19 e0 79 be fa e8 aa 3e 7c 19 8f bd
       0.23851182 -0.24401893 0.33380872 -0.06987283
000110 86 0e 0d 3e e5 57 1c be 69 bc e1 be 2b 47 bf be
       0.13775072 -0.15267904 -0.44089058 -0.37358984
000120 64 1a 0a be 29 b2 47 3d 5f 4a a5 3d 30 52 18 3e
       -0.1348663 0.04875389 0.08070826 0.14875102
000130 09 44 3d be 1e 9d 94 3e a2 aa bf be 31 87 fe 3e
       -0.18482985 0.2902612 -0.3743487 0.49712518
000140 02 20 7b 3d 95 a5 97 bd 41 5d 88 be 81 14 03 be
       0.061309822 -0.07404629 -0.26633647 -0.1280079
000150 37 08 f7 bd dc 1f c3 3d 51 59 ae 3e 7b 6b 2e 3e
       -0.12062114 0.09527561 0.34052518 0.17033188
000160 77 f9 d8 bd dd 9c f5 be 95 5d 86 3d e6 a0 86 3e
       -0.10594457 -0.4797124 0.06560818 0.2629463
000170 58 81 0a be bc 1f 40 3e dd 9f f2 bd 92 69 83 be
       -0.13525903 0.18762106 -0.11846898 -0.2566648
000180 ad 00 20 be 80 e2 9a bd eb 45 cc be bb a5 3b bd
       -0.15625258 -0.07562733 -0.39897093 -0.04581235
000190 c2 e9 45 bd 93 09 88 be 06 9d f5 3d 32 20 1d 3d
       -0.048318632 -0.26569805 0.119928405 0.038360782
0001a0 0f f8 fd 3e 7f 2f 70 3e 8b ea b0 bd 26 99 7a 3e
       0.49603316 0.23455618 -0.086384855 0.24472484
0001b0 84 39 d1 bd c7 39 0f be 18 db 67 bd a3 77 ac 3d
       -0.10216048 -0.13986884 -0.05660543 0.084212564
0001c0 99 46 74 bf c0 0b c2 bb fb 17 1b 3e cf 76 5e be
       -0.95420223 -0.005921811 0.15145867 -0.2172501
0001d0 26 cd 60 be ba a6 3b 3b 13 d5 a5 bc c6 55 f5 3e
       -0.21953258 0.0028633312 -0.020243203 0.47917002
0001e0 df bc 9b bd 00 46 52 be 9f bf 51 3d ef 95 b2 be
       -0.07604384 -0.20534515 0.051208135 -0.34880015
0001f0 17 c2 9c be c7 c3 11 bd a4 41 bc be cd af 3d bd
       -0.3061683 -0.0355871 -0.3676883 -0.046310235
000200 1f 2b fd 3c e3 1d 08 3f 91 b7 c0 bc f0 77 d3 ba
       0.03090435 0.53170604 -0.023525031 -0.0016133767
000210 b2 bb a3 be 08 62 00 3e ce 2b a4 3e e5 01 84 3e
       -0.31979138 0.12537396 0.3206467 0.25782695
000220 7b db 46 3e fe ea cb 3c 02 13 1d be 24 69 bc 3d
       0.19419663 0.024892326 -0.15339282 0.091997415
000230 d1 df 3d 3d 9a 61 87 3d 51 2b 82 bf 69 63 23 3e
       0.046356026 0.06610413 -1.0169469 0.1595589
000240 d7 8d 12 3f a0 7b a5 b5 cb 3b e0 3e 39 10 a2 3d
       0.5724768 -1.2329438e-06 0.43795618 0.079132505
000250 a7 c2 d6 3e 8b d3 9d bc 18 7d 66 be 96 75 de bb
       0.41945383 -0.01926591 -0.22508657 -0.0067889197
000260 f7 a1 2f bd 34 ca da bd 08 16 67 bf 92 fb 8d bd
       -0.04287907 -0.106830984 -0.9026799 -0.06932749
000270 c5 19 d0 bd 1c 58 45 3e b7 7c 05 bd 7a e8 65 bd
       -0.10161165 0.19271892 -0.03258964 -0.05612991
000280 bc ba 20 be 18 94 29 3d 06 97 0f 3e 6f 31 a6 be
       -0.15696234 0.041401 0.14022455 -0.3245959
000290 db c6 b5 3c 33 6f ea bd 44 1a b7 3d 64 5a b9 be
       0.022189548 -0.11446991 0.08940557 -0.36201775
0002a0 ad 30 36 bf 0b 64 c6 bd 93 12 64 3e 06 79 95 3d
       -0.71168023 -0.096870504 0.2227271 0.07298474
0002b0 f4 97 1f 3b 83 79 e3 bd e2 77 4c 3e f5 f4 28 3e
       0.0024352046 -0.11107161 0.19967607 0.16499694
0002c0 ee 02 14 bd fa f5 37 be 5d ea 80 3b 85 77 16 3e
       -0.036135606 -0.17964926 0.0039341883 0.1469403
0002d0 62 8f bb bd a7 0f 17 bf f2 29 cc 3e 72 89 63 bf
       -0.091582075 -0.5900826 0.39875752 -0.888816
0002e0 32 e1 e1 bd be 2f 1b 3e 53 da f4 3e 12 77 e9 be
       -0.11029281 0.15154931 0.47822818 -0.45598656
0002f0 f2 de aa 3e 1e 77 2e be 1b 1c 13 bf 40 a6 65 3e
       0.3337322 -0.17037627 -0.5746476 0.224267
000300 0e 40 09 3e 7d d2 5b 3e 49 94 59 3d 7f 6f 79 bc
       0.13403341 0.21467014 0.05311993 -0.015224337
000310 d4 ed b9 3d 34 77 94 be e0 f5 b5 be 11 51 cc 3e
       0.09078565 -0.28997195 -0.3553915 0.399056
000320 71 55 4f be 8a 28 ff bc 4c f3 a8 be b3 e3 81 be
       -0.20247437 -0.03114726 -0.3299812 -0.25369033
000330 d1 ff d7 3e ab 08 3b bf 87 e9 1b 3e 8d f0 f9 3e
       0.4218736 -0.730601 0.15225802 0.48816338
000340 3b e8 b3 3d 32 8e 68 be bf 28 b3 3e c3 21 11 3e
       0.08784529 -0.22710493 0.34992024 0.14173035
000350 3b e3 3e be 1a fb 3f bd e0 d3 64 bf f6 c7 19 3d
       -0.18641369 -0.04687033 -0.89385796 0.037544213
000360 2a ab 58 bd 88 43 3e bf 6b a1 da 3d 14 37 82 3e
       -0.05289761 -0.74321795 0.10675319 0.25432646
000370 c4 b8 8d 3e ed e0 bc 3e 89 de ad be bb 14 7f bf
       0.27680027 0.36890355 -0.33958843 -0.9964101
000380 8c fb 4f be fc 97 6f be 25 86 bc 3e 0b 50 00 be
       -0.20310801 -0.23397821 0.36821094 -0.12530534
000390 d4 f9 a7 3e 4e b7 00 3e 23 81 b2 3d e6 c2 ae be
       0.3280779 0.12569925 0.08716037 -0.3413307
0003a0 69 27 9a bf 72 d6 8e be cd 3d b1 be c7 3d e7 be
       -1.2043277 -0.27897984 -0.34617463 -0.4516432
0003b0 21 36 42 bd e4 f9 5f 3e e8 4f 90 be 15 09 4d 3d
       -0.047414903 0.2187267 -0.28185964 0.05005749
0003c0 64 32 dc bd 4f df 2b 3c 57 fa 60 be 6d 9b 1a 3e
       -0.10751799 0.010490253 -0.21970497 0.15098353
0003d0 97 1a 6d 3e d0 09 b8 3e 1d 00 14 3f 4b 2e 0f 3f
       0.23154674 0.35944986 0.5781267 0.5593001
0003e0 bd a8 90 be 7e 6f 99 be dd de 8c 3d 34 47 86 3e
       -0.28253737 -0.29967874 0.06878445 0.262262
0003f0 33 a7 4a 3e 90 e5 22 be 31 09 ea bd be b0 7c bd
       0.19790344 -0.15907884 -0.11427534 -0.061691992

fc2.bias f4 [32]
000000 c3 e5 97 3e 4f c1 b0 bb bf 93 b0 3e 59 ba bd bd
       0.29667482 -0.005394138 0.3448772 -0.092640586
000010 8f b0 15 bd a5 b1 04 3f ff 2f 03 3f 26 05 b9 3a
       -0.036545333 0.51833564 0.5124511 0.0014115914
000020 c8 81 07 3e cd 4b bc 3e 91 ac 18 bd 21 f2 51 3e
       0.13233101 0.3677658 -0.037273947 0.20502521
000030 23 0c c6 bd d4 e1 82 bc 3d ff 0c 3f 33 57 37 bc
       -0.09670284 -0.015976824 0.5507696 -0.0111902235
000040 cf 96 65 be b2 3a fd bc 0c 70 d7 bd 75 b5 21 3e
       -0.2242081 -0.030911777 -0.10519418 0.15791877
000050 ab df 12 3d d4 c2 95 3d 69 28 10 3f dd d5 77 be
       0.035857838 0.07312551 0.5631166 -0.24202676
000060 81 62 e3 3e ea d6 03 be 10 ab 9f 3c 6b da 11 3e
       0.4441109 -0.12874952 0.019490749 0.14243476
000070 e3 8a f7 3c 67 60 17 3e 5b b3 2c be e9 13 28 3e
       0.030217594 0.14782868 -0.16865294 0.16413845

fc2b.weight f4 [10, 32]
000000 64 31 8b be 31 5a 45 3e 98 4d 87 be 85 87 95 be
       -0.2718612 0.19272687 -0.26426387 -0.29204956
000010 01 a8 96 3e 79 41 57 3c 82 a5 3d bd e1 b8 18 3e
       0.29425052 0.0131381685 -0.04630042 0.14914276
000020 ac f8 11 be 0b e0 18 bd a4 94 69 bf 85 76 15 be
       -0.14255017 -0.03732304 -0.9124243 -0.14595993
000030 67 f6 4a 3c c9 32 e5 be 03 fc 08 3e 1d 8b 94 3e
       0.012387848 -0.44765308 0.13377385 0.29012385
000040 8d c5 52 bf 65 3f 33 bc cb 81 85 be d7 3d 82 3e
       -0.8233269 -0.010940407 -0.26075587 0.25437805
000050 55 14 33 3e c5 e7 59 3e d8 b7 89 3e 5e 1e 4f be
       0.17488225 0.2127982 0.26898074 -0.20226428
000060 21 b9 f6 3d 04 95 41 bd 89 a9 c9 be 1d fb 8e 3e
       0.12047029 -0.047261253 -0.39387158 0.2792596
000070 b7 c3 db bb fb de 12 3f 37 c1 13 3d 34 d9 aa bd
       -0.0067066806 0.5737149 0.036072936 -0.083422095
000080 9b ab 17 3e e7 3d e3 bd 3e b1 d7 3e ba 8b f9 3e
       0.14811556 -0.11095791 0.42127413 0.48739415
000090 51 42 b6 be b4 13 e7 bc dd 02 f2 3d c4 e5 d6 be
       -0.3559747 -0.028207637 0.118169524 -0.41972172
0000a0 de d3 94 be 06 94 2b 3e c0 00 e1 3d e8 af dc 3d
       -0.29067892 0.16755685 0.10986471 0.10775739
0000b0 f8 f5 bf bc 76 96 31 bd 51 2c 2c be 94 2f 9b be
       -0.023432717 -0.04335638 -0.1681378 -0.30309737
0000c0 14 11 f3 bd 24 a9 f0 bd db 6c 3a 3f 26 79 64 bd
       -0.11868492 -0.11751011 0.7282235 -0.0557796
0000d0 95 41 86 be aa cd 16 bd b4 dc f5 3d 06 b0 10 3f
       -0.2622191 -0.03681723 0.120049864 0.5651859
0000e0 52 04 5d 3d ad 0f 14 3f 27 f7 05 3f 94 97 31 be
       0.0539592 0.5783642 0.5233025 -0.17342979
0000f0 a6 e4 0c bd 67 1b 9e be a2 dc 0f 3f 32 df 15 ba
       -0.034397744 -0.3088028 0.56196034 -0.00057171576
000100 e4 f2 ed bd cd 8e b1 bd c9 a3 38 be 44 4b f8 be
       -0.11618593 -0.08669815 -0.18031229 -0.48494923
000110 b7 b2 11 3e cf b5 2a 3e 8c 91 b7 3e b5 6d 90 bd
       0.1422833 0.16670917 0.3585323 -0.07052175
000120 e9 b9 c5 3e 2d 8a c6 3d a5 2b b9 3d bf 6f 3f bc
       0.386184 0.09694324 0.09041528 -0.011684357
000130 19 dd fb bc 47 37 8e 3e db 51 c4 3e d5 0f a9 be
       -0.030745076 0.27776548 0.383437 -0.3301989
000140 b7 d5 a0 be be 4b 24 bb 81 81 28 be ed 95 81 3d
       -0.3141305 -0.002506956 -0.16455652 0.06327424
000150 ed 4b 27 3e 61 f9 d9 3e 12 b6 88 3e 73 7b 6e 3d
       0.16337557 0.42573074 0.2670141 0.0582232
000160 6b 01 36 3e df c9 b4 bf c3 33 24 be 9f 46 db 3d
       0.17773978 -1.4124106 -0.1603537 0.10706829
000170 34 5e 6f 3d fc 60 8b bc 77 4e 77 be 82 d2 93 be
       0.05843945 -0.01701402 -0.24151026 -0.28871542
000180 cc 9b 92 3d 4b d6 b0 be 9d 70 65 3e a5 34 b0 3d
       0.07158622 -0.34538493 0.2240624 0.08603791
000190 ae 8f 2c be 77 41 5a 3d b8 c0 df 3b 86 f5 84 3d
       -0.16851684 0.05328509 0.006828394 0.064921424
0001a0 61 68 17 bf 24 55 b7 be e4 be 89 3c be 6f d8 be
       -0.59143645 -0.35807145 0.016814657 -0.42272753
0001b0 ef 09 1b 3e c1 7c 94 be 37 4d 82 3d b7 72 70 3e
       0.15140508 -0.2900143 0.06362384 0.2348126
0001c0 20 e6 69 3e 50 f6 e2 3e 7a 47 df bd 38 2a df bd
       0.22841692 0.44328547 -0.10902305 -0.108967245
0001d0 95 a7 21 3c 58 c2 c2 bd 5f e1 0b 3d f6 90 bc be
       0.009866615 -0.095097244 0.034150477 -0.36829346
0001e0 68 ca 3d be f4 ea 86 3e bb ab c8 be 5b 4e 23 3e
       -0.18534243 0.2635113 -0.3919352 0.15947859
0001f0 f4 ef ce 3e 8e bb 5c 3e 52 eb 40 be 38 fe ee bd
       0.40417445 0.21555921 -0.18839768 -0.11669582
000200 04 5a 1c bc 65 d0 c8 3e 96 aa 43 3e 5a 38 58 be
       -0.009542946 0.39221492 0.19108042 -0.21115246
000210 42 51 42 be 89 93 3c 3e ca 1e 47 3e 39 49 9a bc
       -0.1897631 0.18415655 0.19445339 -0.018833743
000220 88 0b 5e 3e 1f 30 75 3e 8a 22 78 3e 65 6d 2c bb
       0.21684086 0.23944138 0.24231926 -0.0026310321
000230 03 1d 90 bd 11 fe 56 3e 9f a5 c7 3d 69 8f 82 3d
       -0.070367835 0.20995356 0.097483866 0.063750096
000240 65 53 1b bc 51 c2 0e 3d 5a a6 ae be 87 33 9f 3e
       -0.009480332 0.034853283 -0.3411129 0.31094
000250 18 f9 05 3e 5e 6e 97 bd 49 b2 b5 3d e2 46 15 be
       0.13083303 -0.07394098 0.08871896 -0.14577821
000260 5f 79 f5 3d dd 9f 87 bf 3e 46 b4 3e 02 14 f0 bd
       0.1198604 -1.0595661 0.3520984 -0.11722566
000270 f8 0e 9a be 6b 9c ac bd bf cf b2 bd dd 6e 0f 3e
       -0.30089545 -0.08428272 -0.08731031 0.14007135
000280 97 09 e4 3e 1c 8f 8c 3d 2d af 93 3e 2c b8 af bc
       0.44538566 0.068632334 0.28844586 -0.021450125
000290 af 39 5c 3f d9 0e b0 3e 16 3a 1d 3e 38 a7 47 3e
       0.8602552 0.34386328 0.1535419 0.19497383
0002a0 52 73 cd bc 9f 06 89 3e 1a 0b cf be ea 48 2f 3e
       -0.025079403 0.26762864 -0.40438157 0.17117658
0002b0 7b 81 37 bb aa 6f 21 be e7 8c b7 3e 1d 0f 60 3f
       -0.002800076 -0.15765253 0.35849687 0.8752306
0002c0 e4 95 db bd ad ff 17 3f 32 bd 23 bf fe e3 02 3e
       -0.10721949 0.59374505 -0.63960564 0.12782285
0002d0 53 84 56 3e 3e 02 55 be 1f 22 a7 3e f4 d2 2f bf
       0.20948915 -0.20801637 0.3264322 -0.68681264
0002e0 a6 d3 b8 3e b4 fb 07 bf 63 a7 85 3e fe 88 75 3e
       0.36098975 -0.53118443 0.26104268 0.2397804
0002f0 6e 17 4e 3e e2 32 2f 3e a3 7d 10 be cf c0 4d 3e
       0.20126125 0.17109254 -0.14110427 0.20093082
000300 42 4c 88 3e da da 07 bd 5b 96 3d 3e 47 be 48 be
       0.2662068 -0.033167697 0.18514387 -0.19603835
000310 80 a7 11 be 15 60 d0 bd 45 c2 16 3e 88 16 0b be
       -0.14224052 -0.10174576 0.14722545 -0.13582814
000320 7f 38 17 bf 8c 84 cd 3d f5 fa 05 bf ae cb a9 be
       -0.5907058 0.10035047 -0.52336055 -0.33163208
000330 5a 78 2a 3d 31 bd c2 be 43 53 f7 bd fb 2a 44 3f
       0.041618682 -0.38034967 -0.12076428 0.76628083
000340 b2 17 ea 3e bb f6 cc 3e 55 ac c1 be ae 7b dd bd
       0.45721203 0.4003199 -0.3782679 -0.10814606
000350 56 80 2d 3e ea 08 85 3e 84 5b cc bd 6b bf 8c 3d
       0.16943488 0.25983363 -0.09978393 0.068724476
000360 aa ca 0f 3e 95 49 b0 be 30 6b 71 3c 04 69 e0 3e
       0.14042154 -0.3443114 0.014735028 0.4383012
000370 5e 10 9d bd d8 5d 7d be e0 c6 d1 3c 85 3d f3 be
       -0.076691374 -0.2474283 0.025607526 -0.47507873
000380 f4 44 e6 3d b0 33 8c bc f9 f6 44 3d be a4 17 be
       0.112436205 -0.01711449 0.048087094 -0.14808938
000390 e1 30 30 3e ee 20 c8 bd 12 ff a6 bc 4f 22 ed bd
       0.17206146 -0.09771906 -0.020385299 -0.115788095
0003a0 18 d2 af bd 27 bb 26 be ac 71 1e be 36 69 37 bd
       -0.08584994 -0.1628233 -0.1547305 -0.04477807
0003b0 01 b1 9f bd 31 1e f3 3d f5 ef 1c bc 8f c2 0c 3e
       -0.07797433 0.11870993 -0.009578695 0.13746093
0003c0 db eb 29 bd dc 9d 19 3d b8 8f 22 3e a4 12 0c be
       -0.041484695 0.037504062 0.15875137 -0.13678986
0003d0 47 a5 b4 bd d5 67 10 3e 25 ec 49 bd d9 d3 70 bd
       -0.08820587 0.14102109 -0.04929747 -0.058795784
0003e0 99 61 3d 3b 8c 5b c2 bd e0 4b 50 3c e3 5b af bd
       0.0028897284 -0.094901174 0.0127134025 -0.08562448
0003f0 b8 b4 65 3d b6 0b 34 bd 9d 73 8b bd 3c 5f 9a bd
       0.05608055 -0.04395648 -0.06809161 -0.07537696

fc2b.bias f4 [10]
000000 d8 0a a0 3e 79 6b 66 bd 1f 0a 3d 3f 84 d7 a6 3e
       0.31258273 -0.056254838 0.7384357 0.325863
000010 6f 46 3d 3f 45 00 3d 3f 9e 08 86 be 4c 41 38 be
       0.739356 0.73828536 -0.2617845 -0.17993659
000020 10 77 4b 3f bf b2 67 3e
       0.7947855 0.2262678

fc3.weight f4 [4, 10]
000000 a2 21 d5 3e 9a 28 24 be f6 2b c3 3e 3e 3c 64 3e
       0.41627222 -0.16031113 0.38119477 0.22288606
000010 25 52 4b 3e b3 50 ef 3e 31 ef 62 be a4 e3 f4 bd
       0.19855554 0.46741256 -0.22161557 -0.119574815
000020 b9 61 6e 3e 84 5f 2d 3e 1c 32 b0 3e 4f 70 5f 3d
       0.23279466 0.16930968 0.3441323 0.054550465
000030 cb 96 df 3e b6 b2 c8 3e 10 f8 9a 3e b4 da ba 3e
       0.43669733 0.39198846 0.30267382 0.36494982
000040 9d cb a3 be 70 c5 fe 3d 28 22 9f 3e d5 57 7c 3e
       -0.31991282 0.12440002 0.31080747 0.2464288
000050 02 f1 47 3e 43 63 83 3e d2 d1 0d 3f ea e6 bb 3e
       0.19525531 0.25661668 0.55398285 0.3669961
000060 0b 14 f4 3e f4 a2 9f 3d b0 ae be be 72 e7 45 3e
       0.47671542 0.07794753 -0.3724265 0.1932657
000070 66 ee e3 3e 52 b7 08 3f 04 69 b4 3e 89 ef 87 3d
       0.4451782 0.53404725 0.3523637 0.066374846
000080 39 30 dd 38 b4 c4 b9 3d 1e 76 a0 3e 53 0e 12 3f
       0.000105470834 0.09070721 0.31340116 0.5705311
000090 44 e3 53 bf 96 83 ed bd ed dd f7 3e 7d b4 8a 3e
       -0.82768655 -0.11597364 0.48411503 0.27090827

fc3.bias f4 [4]
000000 70 92 02 3f af 28 3e 3e a5 79 c4 3d 5e 6f 58 3e
       0.51004696 0.18570207 0.09593514 0.21136233
