value_based/checkpoint_Speedrunner1_DONE.pth (torch, 21775 bytes, 8 tensors)

fc1.weight f4 [64, 37]
000000 07 cc 11 3e 4f 45 0c 3e 79 e9 c6 3d 94 a1 68 3d
       0.14237987 0.13698314 0.097125 0.056794718
000010 ec a1 08 bd 54 c4 09 be 60 77 6f 3e 1e c8 8e 3e
       -0.033357546 -0.134538 0.23385382 0.27887052
000020 f3 7d 18 3e 6e b2 37 be ff 8b 35 3d e7 a1 fb 3d
       0.14891796 -0.1793916 0.044322964 0.1228674
000030 de 99 1b 3e bb cb 4d 3e f7 37 70 3c 8c d2 84 bd
       0.15195414 0.20097248 0.014661781 -0.06485471
000040 32 53 b5 3d 3d 65 de 3d 6c 20 f4 3d f1 2c b5 3d
       0.08853759 0.108591534 0.119202465 0.088464625
000050 39 b3 a4 bd f0 5e 0a 3c 6a f8 03 3d c5 ab ad 3d
       -0.080419965 0.008445486 0.032219328 0.08480028
000060 aa 10 43 be de dc 99 bd bd 61 87 3d 56 fe 09 bd
       -0.19049326 -0.0751283 0.06610439 -0.03368982
000070 81 8a 8a bd a7 1b 8a be fe 74 9b 3e 7f 5e e6 be
       -0.06764699 -0.26974222 0.30362695 -0.4499397
000080 4a 68 bf bd 10 41 5a be 22 be f3 bf 67 39 17 3b
       -0.093460634 -0.21313882 -1.9042399 0.0023074986
000090 23 f5 61 3c 9f cf 1b be 2b 74 c1 3d 32 54 a7 bc
       0.013791355 -0.1521592 0.094459854 -0.02042589
0000a0 8a e7 6d be 0f f9 18 be 43 0b 16 3d a0 1f 38 be
       -0.23232856 -0.14938758 0.036631834 -0.17980814
0000b0 ba 9d 33 3e 18 6a 11 be bb 98 03 3e 89 5c 04 be
       0.17540637 -0.14200628 0.12851231 -0.12925924
0000c0 14 30 1d 3e 6e 64 a9 be 40 71 a2 be 58 82 32 bf
       0.15350372 -0.33084434 -0.31727028 -0.6973014
0000d0 21 cf bb 3d c0 30 64 bd 28 aa 7c bd f4 73 f5 bd
       0.09170366 -0.055710554 -0.06168571 -0.11985007
0000e0 67 d2 b9 3c 46 bc 37 bb 38 23 df 3d 72 6d 87 be
       0.022683335 -0.0028035804 0.10895389 -0.26450688
0000f0 45 a1 58 be 80 3b e7 bb 9f da cb bd 8a 30 90 be
       -0.2115527 -0.0070566535 -0.09953808 -0.28162032
000100 f9 7b 10 3e bb c4 6a bd 7f 57 bc 3d 1d 01 fb 3d
       0.14109792 -0.057316523 0.09196376 0.12256072
000110 64 03 2a bf 81 03 d3 bc 42 2c a6 3d 0b 52 28 3e
       -0.66411424 -0.025758507 0.0811391 0.16437547
000120 a2 84 ae 3c 7c e4 0e be 47 fe 48 be 9d fa 8a be
       0.021303479 -0.13954347 -0.19628249 -0.27144328
000130 35 df 29 bd 79 cc 2b 3e e1 72 ed 3c 82 0d 43 3e
       -0.041472632 0.16777219 0.028985443 0.19048122
000140 6c d0 c4 bc 44 54 85 be cd 9e 62 be 7b b5 1e bf
       -0.024025165 -0.26040852 -0.2213089 -0.6199567
000150 f1 f7 0a 3d 08 28 15 3e a5 01 45 be 9b 8c 21 3e
       0.03392786 0.14566052 -0.19238909 0.15776293
000160 a9 ed a9 be e7 42 f9 bd 23 18 63 3a f2 7f 9f 3d
       -0.33189133 -0.12170964 0.00086629594 0.077880755
000170 7d 73 9d 3e d9 12 e0 3d 9e e7 eb bb a4 1c d5 bc
       0.30752173 0.10941095 -0.007199242 -0.026014633
000180 6f 92 21 3e 67 5b c1 be 5a 25 2b 3e 0a 9a f0 bb
       0.15778516 -0.37765047 0.16713467 -0.0073425816
000190 0b 7a af be 58 fa 9f 3c 6b e0 3d be 54 cf 15 be
       -0.342728 0.019528553 -0.1854264 -0.1462987
0001a0 1b 72 7f bd 01 8c 4a be 68 3a 5e 3e a5 a3 45 be
       -0.06236468 -0.1977997 0.21701968 -0.19300707
0001b0 9c 6e 92 bf 2f c3 ee bd 06 be ae 3c 5d 8e 05 be
       -1.1440005 -0.11658322 0.021330845 -0.13042589
0001c0 14 e5 36 3e 78 98 24 3d b8 ea 6e be f7 32 4c be
       0.17860824 0.040184468 -0.23331726 -0.19941317
0001d0 93 1e 82 3b 0e 04 28 be 17 a0 66 3d 26 ab e5 3d
       0.00397093 -0.16407797 0.056305017 0.112142846
0001e0 ad 91 8a 3d e1 bd 67 bd 2c f3 23 3d b4 5e 93 bd
       0.06766067 -0.056577567 0.04002683 -0.071957976
0001f0 77 a4 66 be a6 bd 8a bd 7a f4 a4 bd 7c 56 88 bc
       -0.22523676 -0.06774454 -0.08054443 -0.016642801
000200 72 76 08 3e 46 e1 e3 3b 9a 37 97 bc 78 5b 61 3e
       0.13326433 0.006954345 -0.01845913 0.22007549
000210 35 56 d3 be 83 2b 37 bd 35 cc ba bc 53 19 a0 bf
       -0.41276708 -0.04471923 -0.022802452 -1.2507728
000220 ee 68 30 be 6a 59 ab bd a4 b2 38 3d cd 5b 14 3d
       -0.17227527 -0.08366664 0.04509224 0.03622036
000230 90 47 57 3e 08 6b c2 3d 92 8a 88 be b2 16 70 be
       0.21023393 0.09493071 -0.2666822 -0.23446158
000240 ba aa 31 3e 63 03 b1 3e 7f 61 b0 3d 97 70 19 3d
       0.17350283 0.34572896 0.08612346 0.03746089
000250 11 d7 4b 3a f0 ec 6a 3c 64 2a 65 3d 7e ba 02 3c
       0.0007775883 0.014338717 0.05594863 0.0079790335
000260 58 d2 0c 3e eb dd 21 bc a0 b6 dc bc 30 a3 b2 bd
       0.13752115 -0.0098795695 -0.026942551 -0.08722532
000270 ae c5 8e 3d d2 19 c9 3e e4 3a 33 3e 8e 5a e3 bd
       0.06971298 0.39277512 0.17502934 -0.11101256
000280 a2 40 af 3d fc 69 88 3d d8 f1 f7 bc 95 95 29 bd
       0.085572496 0.0666084 -0.030266687 -0.04140242
000290 a3 89 c5 bd cf ed 85 3d 03 d5 a2 bd 4d 4f 94 3d
       -0.09645393 0.06539499 -0.07950785 0.07241688
0002a0 d2 ea 42 3e bb 15 e3 3d 3a f2 3b be 9e 72 b7 be
       0.1903489 0.11088129 -0.18354121 -0.35829633
0002b0 96 05 f5 be 2e da 5e 3d fb f1 cb bd d9 dc 26 bd
       -0.47855824 0.05440729 -0.099582635 -0.04073796
0002c0 d5 8b 84 be 82 a3 d1 bd 87 43 53 3e 38 13 c0 3b
       -0.25887933 -0.10236265 0.20631228 0.005861666
0002d0 8f 61 36 be f1 83 ff bd 5d 7e fe be 26 56 32 3e
       -0.17810653 -0.12476338 -0.49705783 0.17415676
0002e0 2a 01 b9 3b b5 0e 3f 3d fb 89 fc 3d d7 07 f9 bc
       0.0056458907 0.046644885 0.12331005 -0.030399246
0002f0 4d 7a 38 bd bc ed 14 bd ab f6 19 be 74 c1 bd be
       -0.04503851 -0.036359534 -0.15035503 -0.37061656
000300 00 2b b3 3e 87 b0 e8 3e 91 60 f2 3e f1 62 40 3d
       0.34993744 0.4544718 0.473393 0.046969358
000310 da d6 c1 3d 78 67 c9 be 0c 87 29 3e d4 11 54 be
       0.09464808 -0.39336753 0.16555423 -0.20709926
000320 ec 7c fc bd b4 78 e5 bd 94 51 fd 3d 24 6f 84 3d
       -0.123285145 -0.11204663 0.123690754 0.06466511
000330 fd a6 85 be c5 e7 62 be 64 3e ea be fb e8 e2 3d
       -0.26103964 -0.22158726 -0.45750725 0.11079594
000340 7a 00 fc bd 55 bc e0 bc bc 22 02 3e 7e 7d 69 3d
       -0.123047784 -0.027433554 0.12708563 0.057004444
000350 0b ff 85 bd 39 85 a6 bd d4 25 9a bd 9e 00 84 3e
       -0.06542786 -0.08130879 -0.075267464 0.2578172
000360 19 e9 9e be 5a c4 56 3b b0 b8 8a bc fd 1e 55 3d
       -0.31037214 0.0032770843 -0.016933769 0.052031506
000370 a7 5c 3a be 53 de 5e bc 2c 21 07 3c 7d c8 12 3e
       -0.18199407 -0.013602811 0.008247655 0.14334293
000380 73 58 2c be 92 33 01 bd e3 0d 0a be 9c a6 57 3e
       -0.16830616 -0.031543322 -0.1348186 0.2105965
000390 bd 10 11 bf 11 6b d0 be ab 36 67 3d 1c 92 a8 bf
       -0.56666166 -0.40706685 0.05644862 -1.3169589
0003a0 c2 f0 24 3e f9 53 67 3e a0 d7 04 3e 9d 01 94 3d
       0.16107467 0.22590627 0.1297288 0.0722687
0003b0 e7 e5 5f bd c7 23 4c 3d 24 1f 2e bd 88 75 35 bd
       -0.05466261 0.049838807 -0.042510167 -0.04430154
0003c0 9b dc a8 be fa e9 20 be 61 30 d8 bd cf 18 91 3d
       -0.3298081 -0.15714255 -0.105561025 0.0708481
0003d0 53 c6 5d bd 9c 66 b9 3d 95 67 1e bc 0b b7 65 3c
       -0.054144215 0.09052774 -0.009668251 0.014020692
0003e0 b0 e6 0c 3e ed de e6 bc f0 4f ec 3d 96 df 35 bf
       0.13759875 -0.028182471 0.11538684 -0.7104429
0003f0 52 64 2e 3d d2 20 9e bd a9 4a 46 3d 24 d1 aa 3d
       0.04257614 -0.07721104 0.048411045 0.08340672

fc1.bias f4 [64]
000000 1c 85 6b bd 54 d3 49 3b 7c ea 09 3e 07 50 41 3c
       -0.05749999 0.0030796127 0.13468355 0.011798865
000010 4e 64 18 be 55 ad 83 bd 56 35 af 3d af 3b 82 bd
       -0.14882013 -0.06429545 0.08555095 -0.0635904
000020 14 ea 87 bd 7d ad 11 bc e1 81 c6 bc a3 5b 48 3d
       -0.06636444 -0.0088914605 -0.024231853 0.048915517
000030 70 d2 c6 bc 4e b0 d6 bd 22 9f 0a be 56 bf 1d be
       -0.024270266 -0.10482846 -0.13537267 -0.1540502
000040 f3 26 61 3c 58 42 c5 3d 4c cd a9 3d 4e 73 89 be
       0.013742196 0.09631795 0.082911104 -0.26845783
000050 8b 81 c2 3d 49 99 db bd 72 78 57 bd 2c de 2a 3d
       0.094973646 -0.10722596 -0.0526051 0.041715786
000060 95 1b ec bd a3 d2 0a be 7e 0d 0a be 23 fc 43 bd
       -0.11528698 -0.13556914 -0.1348171 -0.04784788
000070 c5 7e 7c 3d 42 03 55 3e f2 fb ca bd c0 5f 7c be
       0.061644334 0.20802024 -0.09911336 -0.246459
000080 3c 44 ed bd 41 09 cb bd 56 89 c4 bd 35 60 0d 3e
       -0.1158528 -0.099138744 -0.09596507 0.13806231
000090 6a 9f 37 3d 1c ca 9d bd ee 84 1a 3e 78 f5 07 be
       0.044829763 -0.07704565 0.15089771 -0.13277233
0000a0 cd 2d 35 be 5e 0d 1a 3d 25 e0 a9 bd 07 d8 cc bc
       -0.17693253 0.037610404 -0.08294705 -0.025005354
0000b0 1a 93 c5 3d 34 f3 90 bd a0 62 0b be 6e 12 3e 3e
       0.09647198 -0.07077637 -0.13611841 0.18561718
0000c0 84 40 5a be 25 fc c1 3d d0 00 d0 bd 87 ac cf 3d
       -0.21313673 0.09471921 -0.10156405 0.10140329
0000d0 55 c5 12 be 88 8f ad be b5 26 00 3d 09 92 05 3e
       -0.14333089 -0.33898568 0.031286914 0.13043989
0000e0 53 29 01 3e 2f 20 e6 3c 56 a5 c1 bd cb c8 ac 3c
       0.1261342 0.028091518 -0.094553635 0.02109184
0000f0 04 c2 ed 3d 60 b0 32 bd 6d 91 b7 3d 56 9e 29 be
       0.11609271 -0.043625236 0.08963285 -0.16564307

fc2.weight f4 [32, 64]
000000 29 fd fe 3d c3 8d bd be 3e 53 0e 3e 5a f3 4d 3e
       0.1245063 -0.37022218 0.13898942 0.20112363
000010 10 3c f6 bc 89 36 ce be 40 e0 f9 3c 7c a5 ef be
       -0.030057937 -0.40275982 0.030502439 -0.46805942
000020 48 8d c4 bd 65 b5 a3 bd fb b4 89 bd 8d e3 82 3e
       -0.0959726 -0.07993583 -0.067239724 0.25564232
000030 e1 ad 3e 3e 07 6e 24 bf d8 7f 66 be 07 f1 a0 3d
       0.18621017 -0.6423039 -0.22509706 0.07858472
000040 ca b0 16 bc eb ac 05 be 5b d9 2f bf d0 69 55 3e
       -0.009197423 -0.13054244 -0.68691033 0.20841146
000050 7f cb 3a 3d 2b 7e 69 bf 7f 4c 08 bf 96 44 e3 bd
       0.045604225 -0.9120814 -0.53241724 -0.11097066
000060 1d 73 bb 3e b9 8a 31 bf cd 0c 12 3e 4a 49 a9 be
       0.36611262 -0.693523 0.14262696 -0.33063728
000070 19 c2 5e 3e 48 02 3c 3e b6 46 41 3e f7 c0 31 be
       0.2175373 0.18360245 0.1887463 -0.17358766
000080 46 ce 6e be dc 25 01 bf ba 6b 0c 3e a6 ee 52 3e
       -0.23320875 -0.50448394 0.1371297 0.2059885
000090 48 c3 4d 3e aa e0 18 3d ab 02 36 be 77 ff 07 bf
       0.20094025 0.03732363 -0.17774455 -0.53124183
0000a0 93 1d 4a 3d 71 3f 7f be a9 9c 6b be d1 3e f4 bd
       0.04934461 -0.24926545 -0.2300898 -0.11926044
0000b0 6d f6 3a 3e e9 c5 52 be 59 ea 08 bf 2b cb e6 bd
       0.18258066 -0.20583309 -0.53482586 -0.1126922
0000c0 b9 a8 b7 be 66 f3 5f be 49 c0 31 3c d0 48 03 bf
       -0.35870913 -0.21870193 0.010849067 -0.5128298
0000d0 52 6c 52 be 88 f4 00 bf fa ae 85 be 56 fb 9e bd
       -0.20549133 -0.50373125 -0.2611006 -0.07762782
0000e0 6d f8 1d be 7a b6 1f be 0d 3f 7f be aa fd 1f 3e
       -0.15426798 -0.15596953 -0.24926396 0.15624109
0000f0 7f eb f5 3e 2f 16 7f be 9c 76 96 be 5e af 64 bc
       0.48031232 -0.24910806 -0.29387367 -0.013957826
000100 e8 2d cb 3e 37 64 a5 bd 41 d5 dc 3d 1a 69 cc 3d
       0.3968346 -0.08075755 0.107828625 0.09980984
000110 11 7d 0b be 5c 5b 1b bd bf 1a a6 be 6c d7 ee 3d
       -0.13621928 -0.037928924 -0.3244228 0.11662182
000120 1c 90 84 be 93 c3 e1 3a b8 a4 47 3e c6 00 45 3c
       -0.25891197 0.0017224423 0.19496429 0.01202411
000130 35 83 0f be c8 1a 8a 3e c6 5d 17 bc cd 7a c8 bc
       -0.14014895 0.26973557 -0.009238666 -0.024472618
000140 e9 9c a9 be b9 dc 5d 3e 48 ba 38 be f0 a7 00 3e
       -0.33127525 0.2166623 -0.1803981 0.12564063
000150 94 c2 9c 3d 82 19 8f be 8e 3e be 3d 2b f3 e0 bd
       0.076543 -0.27949148 0.09289275 -0.109838806
000160 35 94 20 3e ca fa 0f bf cb 99 7c bd 77 e0 64 be
       0.15681536 -0.5624205 -0.061670106 -0.22351252
000170 28 1e b8 bd db d1 94 3e ee f4 eb bd a1 ed 67 3e
       -0.08990127 0.29066357 -0.11521326 0.22649242
000180 b6 da 17 3e c8 25 82 be 6e e1 f7 be 7e 15 71 3e
       0.14829525 -0.2541945 -0.48414177 0.23543355
000190 95 8f 9e 3a 94 2c 31 3d 06 de e9 3d 34 f9 fc 3d
       0.0012097234 0.043255404 0.11419301 0.12352219
0001a0 ee 0e 03 3e 04 85 d3 bd 3f 25 c1 3e 23 9d 6e 3e
       0.12798664 -0.10328105 0.3772373 0.2330213
0001b0 61 ec db 3c 47 f3 09 3d a9 34 b6 be 24 6c dd 3d
       0.026846113 0.033679273 -0.35587052 0.10811642
0001c0 9e 33 c6 bd 20 2f 74 3e 5d 9b 04 be 17 b9 93 be
       -0.09677814 0.23846102 -0.12949891 -0.2885215
0001d0 97 ae b7 bd 81 36 a8 bd 71 29 41 be 75 ce a7 bc
       -0.08968847 -0.08213521 -0.18863465 -0.020484189
0001e0 0a d0 89 3e 71 61 9c be 6a b5 80 3d 93 72 89 3a
       0.26916534 -0.30543092 0.06284602 0.0010486416
0001f0 f2 6d d9 3e 0a a9 1b 3e 16 ff 7a be 80 95 87 be
       0.42466694 0.15201202 -0.2451137 -0.26481247
000200 e4 04 92 bc 65 ab 82 bd c5 e7 c9 3d 2e 72 f0 3d
       -0.017824598 -0.06380347 0.0985866 0.11740528
000210 b6 e4 d1 bd 1a 2b b0 bd c6 db 59 be 4a b2 d0 be
       -0.10248701 -0.08601971 -0.21275243 -0.40761024
000220 77 96 9b 3c e5 c5 c3 be 90 99 e7 bd 78 7a 1e 3e
       0.018992646 -0.3823692 -0.113085866 0.15476406
000230 e1 2a 9a be 29 a8 da 3d 74 d3 f5 bd f1 95 e6 3c
       -0.3011084 0.10676605 -0.12003222 0.02814767
000240 24 ee 84 be 7c e8 fa be e3 82 f6 bd 7c dc e4 bd
       -0.25962937 -0.49005497 -0.120366834 -0.111748666
000250 41 46 1e bf a5 27 66 be b9 6c 38 3e 66 c8 1f be
       -0.6182595 -0.2247606 0.18010224 -0.1560379
000260 05 81 ac 3d ca 02 15 bd d8 89 5c be aa e5 7d be
       0.08423046 -0.036379613 -0.21536958 -0.24794641
000270 62 b0 80 3e c5 7d e6 bb ae ac 27 bc 7d 70 f6 bd
       0.2513457 -0.007034036 -0.010234041 -0.12033174
000280 e5 23 8d bc ca 35 8c be 98 90 5e b9 1b b0 3b 3d
       -0.01722903 -0.27384788 -0.00021225435 0.045822244
000290 ac b3 4c bd 9e 00 8d bd a5 35 86 3d 51 46 a4 be
       -0.049976036 -0.06884883 0.06553201 -0.32084897
0002a0 c0 ab a2 be f3 4d a8 be b5 76 82 be 53 93 77 3e
       -0.3177166 -0.3287197 -0.2548119 0.24177293
0002b0 51 08 72 bc 54 e7 82 bd 99 a4 98 be bc 59 79 3c
       -0.014772491 -0.063917786 -0.29813078 0.015219148
0002c0 bc 58 e4 be c6 d3 f7 bd 78 55 81 3e b6 f0 c0 be
       -0.4459895 -0.121009395 0.2526052 -0.37683648
0002d0 09 c7 04 be da 5b f4 be 94 ce a8 be 68 42 23 3d
       -0.12966551 -0.47726327 -0.32970107 0.03985825
0002e0 8b 78 03 be 87 a8 58 be 4d 8c 2f bd ac 07 8a 3d
       -0.12838952 -0.21158038 -0.04285841 0.067397445
0002f0 00 d0 e8 3d 71 d7 2d be 8e 92 0a 3d 54 ed b3 bd
       0.11367798 -0.16976716 0.03383117 -0.08785501
000300 84 f8 52 be 49 ff 29 3e e1 9a c0 bd 7b f6 0a 3c
       -0.20602614 0.1660129 -0.09404541 0.008481617
000310 c6 50 c8 3c a5 bc dc be 52 00 19 3e 10 c2 f8 bd
       0.024452578 -0.43112674 0.14941528 -0.121463895
000320 e0 fc 37 3e 27 4c 4e be 95 d8 84 bd 26 4f d5 bd
       0.17967558 -0.20146237 -0.06486622 -0.10415487
000330 92 53 fb 3d 4e eb 33 3d fa b4 8f bd ff 07 a1 3d
       0.12271799 0.043925576 -0.070169404 0.07862853
000340 36 bc e9 bd 29 e3 0e be bb 52 f4 3d 27 a3 1d 3d
       -0.114128515 -0.13953842 0.11929842 0.038485672
000350 7d af 21 be 7a 93 b6 be 02 5c 44 be e4 c6 bf bd
       -0.157896 -0.3565939 -0.19175723 -0.09364107
000360 c9 8c 3c 3d 8c 66 2b be 50 c6 81 bd e6 55 06 bd
       0.0460327 -0.16738337 -0.06336653 -0.032796763
000370 92 c5 35 3e c4 5e 34 be 88 5d c1 bd 58 87 f1 bc
       0.17751148 -0.17614275 -0.09441668 -0.029483482
000380 f8 0f e1 3d 94 47 f5 be 6d f2 6f 3c 7d 0c c2 bd
       0.10989374 -0.47906172 0.014645201 -0.09475038
000390 d8 16 f0 bd 0f a1 af bd 70 e4 74 be 38 0b aa be
       -0.11723107 -0.08575641 -0.23915267 -0.33211684
0003a0 a3 03 03 3d b0 4f 76 be e9 cf fb be bb d4 7a 3e
       0.03198589 -0.24053836 -0.4918206 0.24495213
0003b0 ea 0d 04 3d 7b fa 91 be 9f 8d 09 3d 35 4c ea 3d
       0.032239832 -0.28511414 0.033582326 0.114403166
0003c0 30 53 16 bf 02 55 1d bd 51 de 9b 3c ab 29 09 be
       -0.58720684 -0.038411148 0.019026907 -0.13394801
0003d0 92 a7 6a 3d ac 63 04 be dc d3 d6 bb cc 0a 03 bf
       0.057288714 -0.12928647 -0.0065560173 -0.5118835
0003e0 e8 29 29 3e 1a c7 27 be 0d 1f 68 3d 2e 12 f0 bd
       0.16519892 -0.16384545 0.056670237 -0.117222175
0003f0 52 b0 28 bd 33 7e 2b 3e 1e ec 48 be d7 f1 05 be
       -0.041183777 0.1674736 -0.19621322 -0.13080536

fc2.bias f4 [32]
000000 80 2c b6 bd b3 bc 42 be 7e 5f 1b bc e2 22 6f 3d
       -0.088952065 -0.19017296 -0.009483216 0.058382876
000010 80 e1 2d be 2c b5 4a 3c 89 7a 2b 3e 37 cb 0d be
       -0.16980553 0.012372296 0.16745962 -0.13847052
000020 0c 4a 86 bd 92 5c 34 3e e1 5e 10 3e 9e 08 5f bd
       -0.06557092 0.17613438 0.14098693 -0.054451577
000030 45 ed 7b 3d be c4 4f 3e 0e 39 9f 3e 36 d5 2a 3d
       0.061505575 0.20289895 0.31098217 0.04170724
000040 8a 6c 0e be bb e0 32 be 0a a7 33 3e 97 fe 95 3d
       -0.13908592 -0.1746854 0.17544189 0.0732395
000050 a3 53 87 3e bc ec 21 bd d4 8e c0 3e c1 ea da bd
       0.26430997 -0.039532408 0.3760897 -0.10689307
000060 63 fb 5d bd 05 9f bc bd 93 e8 46 3c b0 f2 60 bb
       -0.05419482 -0.09210018 0.012140411 -0.003432434
000070 1f 79 86 3b 45 80 c7 3e c4 68 85 3d 4b 99 90 bd
       0.004103794 0.3896505 0.06514123 -0.07060488

fc2b.weight f4 [10, 32]
000000 d0 4d 32 bd 39 d4 82 3e bb a2 97 be bc b7 d3 bd
       -0.04353124 0.25552538 -0.2961634 -0.10337779
000010 8f 2c 9e 3e f0 7c cc be 3c 72 c7 bd a2 7a 0b 3e
       0.3089337 -0.3993907 -0.09738585 0.13621
000020 b5 94 a4 be 9e c1 67 bf 42 d7 a4 be 46 5f e5 bd
       -0.32144704 -0.9052981 -0.3219548 -0.111998126
000030 0d b3 d1 3d 3d c9 b0 be 55 09 1b 3e e7 90 e6 3d
       0.10239229 -0.34528533 0.15140279 0.11258107
000040 a9 fd f2 3d 0b 8b 95 be d3 b2 dd bd da b4 5f 3e
       0.11864788 -0.29207644 -0.10825124 0.21846333
000050 b5 4c 25 bd b6 88 df 3d 66 4f 19 3e 2b 36 b3 3d
       -0.040356357 0.109147474 0.14971694 0.08750566
000060 f3 32 ec 3d 7e de fc be 5f ed 92 be 45 31 bf 3d
       0.11533155 -0.49388498 -0.28696725 0.09335569
000070 55 5a 6d 3e d2 8e 63 3e 97 41 ac bd 73 1b 8d be
       0.2317899 0.2222245 -0.08410948 -0.27560005
000080 9a 96 8f bb 55 a4 f3 3e 1e 93 47 bd 88 17 e0 be
       -0.004381967 0.47586313 -0.048724286 -0.43767953
000090 2b 10 a5 be e4 7d 63 3e ea 6e eb 3d 28 7e 07 bc
       -0.32238898 0.22215992 0.114957646 -0.008269824
0000a0 58 cd f7 3e 5d 2f 13 3e ea 36 52 bc bf 55 80 3d
       0.48398852 0.14373536 -0.012830475 0.06266355
0000b0 5c f0 4d bf 4e 0a 8f bd 12 24 38 be 4b 3e 0e 3f
       -0.80444884 -0.06984387 -0.1798251 0.555638
0000c0 65 a9 c8 be 9e 56 bc 3e b3 f7 c8 bd a1 c4 7b 3e
       -0.39191738 0.36784834 -0.0981287 0.24586727
0000d0 5f 2a 1d 3d 3b da 65 3d f5 5e 43 bd de e9 89 3d
       0.038370486 0.056116324 -0.04769798 0.0673406
0000e0 20 e7 f0 3d 42 2d 17 be c8 4f 8c 3e d1 45 5e be
       0.117628336 -0.14763358 0.27404618 -0.2170632
0000f0 f4 5f b9 be d4 7f cd bd 86 21 3b 3e 0c 62 4f 3f
       -0.3620602 -0.10034147 0.18274507 0.8100898
000100 48 bc 01 bf 99 1d d8 bd fc c3 aa be d3 9f b5 be
       -0.5067792 -0.1055252 -0.3335265 -0.354735
000110 08 96 5f bd aa 64 87 3e 04 b3 8c 3e 58 81 bf 3d
       -0.05458644 0.26443988 0.27480328 0.09350842
000120 18 33 88 3e f2 e2 89 3c d5 d0 6c 3d 63 70 84 3e
       0.2660148 0.016831849 0.057816345 0.25866994
000130 79 17 06 3d 7a e4 4d 3e 84 7b a1 3e 3e 65 7a bd
       0.03273723 0.20106688 0.31539547 -0.06113171
000140 02 04 62 be 2e 9e a8 3e 78 5d 46 3e ba 8f 1a 3e
       -0.22071841 0.32933182 0.19371593 0.1509389
000150 cc 03 35 3e 74 9e a6 3e e5 1c 9d 3e 12 f2 53 be
       0.1767723 0.32542765 0.30686107 -0.20697811
000160 19 c1 19 be 0b d9 01 3e 06 5c d0 3d e9 83 95 3e
       -0.15015067 0.12680452 0.10173802 0.29202202
000170 3b 1a 6d bd a6 80 98 3e 05 60 db 3d 0a 46 e7 3e
       -0.057886343 0.2978565 0.10711674 0.45170623
000180 13 64 90 be f4 15 54 3d 5f 04 42 be aa 86 91 be
       -0.2820135 0.05177875 -0.1894698 -0.28423053
000190 3c 58 c6 bd 48 b1 c5 3e 80 59 a2 3e f6 c8 c2 bd
       -0.09684798 0.38611817 0.31708908 -0.095109865
0001a0 a8 63 ea bd b8 9d 1e bf a7 42 b0 be 00 0b a2 bd
       -0.11444789 -0.6195941 -0.34425852 -0.07912254
0001b0 26 23 ba 3e 04 f8 2d be 1b 1c 6f 3e 2b fa 85 3d
       0.3635494 -0.16989142 0.23350565 0.065418564
0001c0 48 f7 e5 3c 46 8c 93 3e 49 2f 60 3e 6a 9a b7 3c
       0.028072014 0.28817958 0.21893038 0.022412498
0001d0 88 65 3b be bf 70 8a 3d d8 f2 b2 3d ae a7 4c 3e
       -0.1830045 0.06759786 0.08737725 0.1998584
0001e0 45 b6 6c bc 1a f1 a5 bd 98 c9 52 be bc b3 40 3e
       -0.014447753 -0.08102627 -0.20584714 0.18818563
0001f0 ba b9 e0 3e 7a e3 8d 3d 11 3a bd be 97 fb b3 3e
       0.43891698 0.06928153 -0.36958364 0.35152885
000200 95 76 a8 be 37 a0 ba be b3 82 ed 3d 37 61 99 be
       -0.3290297 -0.3645036 0.115971945 -0.29956982
000210 28 a9 d2 3c 7b c5 1b 3e 90 15 f0 bd ab f3 29 3e
       0.025715426 0.15212052 -0.11722863 0.16596858
000220 55 7a 82 3e b7 81 df 3d 56 d9 cc 3d fc 99 b0 3e
       0.25483957 0.10913413 0.10002391 0.3449248
000230 1d 2a 22 be e5 27 40 bc ba 9c d7 bc 41 43 11 3e
       -0.15836377 -0.011728262 -0.02631985 0.14185812
000240 25 b0 cb 3d e4 16 52 3e ae 32 0f be c4 7c 11 3f
       0.09945706 0.20516545 -0.13984177 0.56831
000250 58 96 16 bd b0 a7 54 3d 7f c6 73 bd 38 6c 5e be
       -0.036764473 0.05191773 -0.059515473 -0.2172097
000260 9e 14 fa bd 00 19 38 3e fb a9 45 3d 67 32 fc 3d
       -0.12210964 0.17978287 0.04825781 0.12314301
000270 74 e6 50 be 42 0e 23 3e 02 d6 b1 3e 70 70 4d 3f
       -0.20400411 0.15923408 0.34733588 0.8024969
000280 30 de ce 3c 94 b3 04 3f f5 b1 93 3e 53 0d a1 3e
       0.025252432 0.51836514 0.28846708 0.31455478
000290 aa 6d 2c 3e 3f 76 0e bf 16 d1 9e be 92 df 2b 3e
       0.16838709 -0.5564918 -0.31018895 0.16784504
0002a0 cc fd 6e be f2 da fa be 46 da 5b b9 e8 14 35 bf
       -0.23339003 -0.48995167 -0.0002096678 -0.70735025
0002b0 8d 2e 14 3d e8 ff 06 be b8 07 01 3e 41 05 98 3e
       0.036177207 -0.13183558 0.126006 0.29691508
0002c0 66 94 99 be 05 14 14 bf d4 d0 d5 be c3 90 e3 be
       -0.29996032 -0.5784305 -0.41760886 -0.44446382
0002d0 ce ef 22 3d bf 95 b6 be 65 27 08 be 29 18 1a 3d
       0.039779477 -0.35661122 -0.13296278 0.037620697
0002e0 33 6c a4 3d bf fb 25 be 52 f6 75 bc eb db b2 be
       0.0802845 -0.16209315 -0.015012341 -0.3493341
0002f0 fe 33 0f 3e de 11 cf 3d 52 78 8d 3d 4c 80 ac be
       0.13984677 0.1011083 0.06907715 -0.33691633
000300 07 0b 29 3f 10 bc ee bd 80 cd 47 3e c7 cb f0 3e
       0.6603245 -0.11656964 0.19511986 0.4703047
000310 e6 7a 89 be de b6 95 3e 0b b0 b9 3e f2 cd a7 ba
       -0.26851577 0.2924108 0.36267123 -0.0012802465
000320 de d1 47 3d cf 14 16 3e cb ce a0 be f7 42 7e 3e
       0.04878413 0.14656375 -0.3140777 0.24830233
000330 6f 48 be be 05 bc 0e 3d ce c2 b9 bd bc 97 f4 3e
       -0.37164637 0.03484728 -0.09070359 0.47772014
000340 b7 d7 2e bb e0 fd ca 3e f5 6b 1f be 96 4a bc 3d
       -0.002667887 0.39646816 -0.15568526 0.09193914
000350 3f e0 01 3e dd 37 c4 3e 94 e7 07 bc 1a 4d cc 3e
       0.126832 0.3832387 -0.008294959 0.39902574
000360 81 3e 13 3e b0 31 d3 be be 9b 7c be c4 c7 d9 3e
       0.14379312 -0.41248846 -0.24668786 0.42535222
000370 c0 2f 00 bd 05 07 79 3d 1d 02 c3 be d6 90 3f 3d
       -0.031295538 0.06079771 -0.3808755 0.046768986
000380 6e 54 12 3f 34 df 17 bc 56 3a 8a 3e f6 0f d9 bd
       0.5716008 -0.009269524 0.26997632 -0.105987474
000390 65 1e 38 3d de cf 1a bd d2 1c 99 3d b7 23 06 bd
       0.04495086 -0.037795894 0.074762 -0.032748904
0003a0 f3 46 03 bd 89 85 06 3e 71 06 02 bf 78 ce 56 3e
       -0.032050084 0.13136877 -0.5079108 0.20977199
0003b0 bc 37 24 3d 52 dd 61 3e ee e5 c6 3d 52 7e de 3e
       0.040092215 0.22057083 0.09711824 0.4345575
0003c0 12 00 6f be 6a 8d e8 3d c2 4a 04 be 91 7b 16 bc
       -0.2333987 0.113550976 -0.12919143 -0.009184734
0003d0 dc 1d 2a 3e aa 4c d7 3e c0 64 94 3d 61 02 59 bd
       0.16612953 0.42050678 0.07245779 -0.052980784
0003e0 5d 65 5d be ac 10 c3 bb 26 87 54 bc 2b 15 a7 3d
       -0.21620698 -0.005952915 -0.012971675 0.08158334
0003f0 7e 7b 76 3e 20 50 0c 3e f6 f5 4c 3d 45 95 e3 3c
       0.24070546 0.1370244 0.050039254 0.027781138

fc2b.bias f4 [10]
000000 f5 6d 88 3e 60 8c 40 3e 81 1d 45 3f 93 09 17 3e
       0.2664639 0.18803549 0.76998144 0.14749746
000010 ff 71 1c 3f 3c 61 a2 3e 09 f7 9d be 7e 32 57 be
       0.61111444 0.3171481 -0.30852535 -0.21015355
000020 8d 5c 2e 3f c5 b1 cf bd
       0.6810997 -0.10141329

fc3.weight f4 [3, 10]
000000 df ef e8 3e 88 fd f2 bd 2f 81 d0 3e 2e 3a a6 3e
       0.45495507 -0.118647635 0.4072356 0.32466263
000010 81 3a 60 3e 14 2d ef 3e bf 3b ed be e4 eb c2 be
       0.21897317 0.4671408 -0.46334645 -0.38070595
000020 7f 2e d6 3e 97 ad 77 3e 2d 42 bb 3e 42 47 da 3e
       0.4183235 0.24187313 0.36573926 0.4263249
000030 03 e6 db 3e d8 ee a7 3e c6 13 91 3e 29 14 ce 3e
       0.42948923 0.3279941 0.28335398 0.40249756
000040 1b f3 ec be 7f 4a a0 be 5d da 99 3e b7 c7 47 3e
       -0.46279225 -0.31306836 0.3004941 0.19509779
000050 fe a8 37 3e ac 70 6c 3e 09 36 00 3f b4 c7 39 3e
       0.17935559 0.23089856 0.5008245 0.18142587
000060 b1 12 0b 3f 51 3f 8f be 08 d4 36 bf 3a 6b 62 bb
       0.54325396 -0.27977994 -0.71417284 -0.0034548775
000070 2e 3c ba 3e 06 f1 f5 3e
       0.36374038 0.4803545

fc3.bias f4 [3]
000000 99 8e f9 3e 46 9d f5 3e 52 aa 48 3e
       0.48741606 0.47971553 0.19596222
