value_based/checkpoint_Speedrunner2_DONE.pth (torch, 21775 bytes, 8 tensors)

fc1.weight f4 [64, 37]
0	0x3e16a685	0.1471196
1	0x3e20f42e	0.15718147
2	0x3e441a4a	0.19150653
3	0x3e338fab	0.17535274
4	0xbdbc0808	-0.09181219
5	0x3ed06288	0.40700173
6	0xbf2eed48	-0.6833081
7	0xbf2b13ee	-0.66827285
8	0xbeeb934a	-0.4601081
9	0xbfd51f3f	-1.665016
10	0x3dcd37f1	0.100204356
11	0x3e1fc3d9	0.15602054
12	0x3e249eea	0.16076246
13	0x3dda2de9	0.10653288
14	0x3d53a110	0.051667273
15	0x3d68aa8f	0.056803282
16	0x3b8baf8c	0.00426287
17	0x3de064d6	0.10956733
18	0x3dd25df5	0.10271827
19	0x3cb977c2	0.022640113
20	0x3c2df2cb	0.010616968
21	0x39c98528	0.00038436917
22	0x3bad8bcd	0.0052962066
23	0x3d8856e6	0.066571996
24	0x3d2ea305	0.042635936
25	0x3bc6f582	0.0060717473
26	0x3d9fbf1f	0.07800125
27	0xbcc34a38	-0.023839101
28	0xbd170f72	-0.036879964
29	0xbdcc082c	-0.09962496
30	0x3e1db0b4	0.15399438
31	0x3e0b46bc	0.13601202
32	0x3d9d6240	0.07684755
33	0x3e7334d8	0.23750627
34	0xbddb7fd7	-0.10717743
35	0x3c65abf4	0.014018048
36	0x3c80a85a	0.015705276
37	0x3e8d114a	0.27552253
38	0x3d28d303	0.04121686
39	0x3e090165	0.13379438
40	0xbf1287e7	-0.5723862
41	0xbe38d05d	-0.18048234
42	0x3ea03c67	0.31296083
43	0xbd06774c	-0.032828614
44	0xbed42265	-0.4143249
45	0xbdf15402	-0.11783601
46	0xbe89bcd8	-0.2690189
47	0xbdb9617c	-0.09051797
48	0x3da831c8	0.0821262
49	0x3dfc5220	0.123203516
50	0xbee709ea	-0.4512475
51	0xbeb57020	-0.35437107
52	0xbe1815ff	-0.14852141
53	0x3e9e950a	0.30973083
54	0x3e342df6	0.17595658
55	0xbe8edb84	-0.27901852
56	0xbf1649f1	-0.58706576
57	0x3e4c1765	0.199308
58	0xbd66a438	-0.056308955
59	0x3d1d073c	0.038336977
60	0xbe99e837	-0.30059978
61	0xbebc7c53	-0.36813602
62	0x3e753b43	0.23948388
63	0xbe875ec0	-0.26439476
64	0x3c9cc44b	0.019136569
65	0xbf09154f	-0.5354814
66	0xbec1c5ae	-0.3784613
67	0x3e072356	0.13197073
68	0xbe86bbbe	-0.2631511
69	0xbe11dd11	-0.14244486
70	0xbdb798a4	-0.08964661
71	0x3eb49c24	0.35275376
72	0xbea8719f	-0.32899186
73	0xbdaeb0fc	-0.08529851
74	0xbc8e9fad	-0.017410124
75	0xbe646f27	-0.22308026
76	0xbd2f970e	-0.042868666
77	0x3ce839f1	0.028347941
78	0x3c9ce748	0.019153252
79	0x3ee34ea7	0.44395944
80	0xbe24cf2d	-0.16094656
81	0xbea6776d	-0.3251299
82	0xbeebb710	-0.46038103
83	0xbf2fda22	-0.6869222
84	0x3d93ce36	0.07217066
85	0xbd2d4e74	-0.042311147
86	0x3de59385	0.11209778
87	0x3c265a2d	0.0101533355
88	0xbdeefc2e	-0.11669193
89	0xbd8cdaf3	-0.06877699
90	0x3ce0ca75	0.027440289
91	0x3de7762a	0.11301835
92	0x3e3dce4f	0.18535732
93	0x3e4b2675	0.19838889
94	0xbe0260c1	-0.12732221
95	0xbd3c0c51	-0.045910183
96	0x3e0df456	0.13862738
97	0xbca7f8c4	-0.020504363
98	0xbcd128be	-0.025532123
99	0xbe025449	-0.12727465
100	0xbcef615e	-0.029221233
101	0xbbbadb8d	-0.005702442
102	0x3e1f207a	0.15539733
103	0x3c8e4253	0.01736561
104	0x3de2e859	0.11079473
105	0xbe2a4be9	-0.1663052
106	0xbe374a2f	-0.17899393
107	0xbded63f6	-0.11591332
108	0xbecad4d7	-0.3961551
109	0x3d1cbd87	0.038266685
110	0xbc75b16c	-0.014995914
111	0x3db67f64	0.089110166
112	0xbc81b94e	-0.01583543
113	0xbe972d6f	-0.2952685
114	0xbd7aefdc	-0.061263904
115	0xbee26c63	-0.44223318
116	0xbe90fcf0	-0.28317976
117	0x3dca06da	0.09864588
118	0xbcc645a7	-0.024203135
119	0xbe91b07b	-0.28454956
120	0xbf1fa3ee	-0.6235951
121	0x3cd599fa	0.026074398
122	0xbe15716c	-0.14594048
123	0xbdbaf7c0	-0.09129286
124	0xbe55a934	-0.20865327
125	0xbb1d9f70	-0.002405133
126	0x3d4cf461	0.050037745
127	0xbd2dbe55	-0.042417843
128	0xbdeba1c1	-0.115054615
129	0xbd1e8b4e	-0.03870707
130	0xbe28fb40	-0.16502094
131	0x3e2242b5	0.15845759
132	0x3da1b930	0.0789665
133	0xbe125d30	-0.1429336
134	0xbe97229b	-0.2951859
135	0xbe22e87e	-0.15909001
136	0xbc678d66	-0.014132833
137	0xbdb7d7af	-0.08976685
138	0x3c789d38	0.015174203
139	0xbecfbe8d	-0.40575066
140	0xbd401668	-0.04689637
141	0xbe1457b2	-0.14486578
142	0xbd75195a	-0.05983863
143	0xbdab9af6	-0.08379166
144	0xbd84a1c4	-0.06476167
145	0x3ce6890b	0.028141519
146	0xbea77374	-0.3270527
147	0x3df67503	0.12034037
148	0x3dad79f6	0.08470528
149	0xbdc0935e	-0.09403108
150	0x3e13f951	0.14450575
151	0xbe287de1	-0.16454269
152	0x3e358005	0.17724617
153	0xbd88c9a0	-0.06679082
154	0xbeb6c04f	-0.35693595
155	0xbddc9ceb	-0.10772117
156	0x3db32b71	0.0874852
157	0x3f54e0aa	0.8315531
158	0xbe8105bd	-0.2519969
159	0xbdc18fef	-0.09451281
160	0x3e22d318	0.15900838
161	0x3e7cfe37	0.2470635
162	0x3d86d668	0.065838635
163	0xbe697525	-0.22798593
164	0xbd807945	-0.0627313
165	0x3d90bc2a	0.070671394
166	0xbdd1d5bd	-0.102458455
167	0xbc97e4eb	-0.018541774
168	0x3d0ce363	0.03439654
169	0xbe28a0ae	-0.16467544
170	0xbd77e58f	-0.06052166
171	0x3bb76d81	0.0055977707
172	0x3e8e105d	0.2774686
173	0x3da3cef5	0.07998458
174	0xbdf8e731	-0.12153471
175	0xbe9492c6	-0.2901823
176	0x3d9514f4	0.07279387
177	0x3dd2e5de	0.1029775
178	0x3e816348	0.25271058
179	0x3dfc8683	0.123303436
180	0x3d058250	0.03259498
181	0xbe6479e8	-0.22312129
182	0xbee5a716	-0.4485404
183	0xbe3fc1e2	-0.18726304
184	0xbbb8d352	-0.0056404257
185	0x3d96193d	0.073290326
186	0xbe063fe9	-0.13110317
187	0x3be6b31b	0.007040394
188	0x3e262bbc	0.16227621
189	0xbe0393a0	-0.12849283
190	0xbebcbe8f	-0.36864135
191	0xbceaec16	-0.028677028
192	0x3e99e5ed	0.30058232
193	0x3e5c268f	0.21499084
194	0xbed0cb23	-0.4077998
195	0xbe0adcf9	-0.13560857
196	0x3df628d2	0.120195046
197	0xbd624020	-0.055236936
198	0x3c1aa44e	0.009438587
199	0x3b4b840e	0.0031054053
200	0x3bce1a0a	0.006289725
201	0xbdfb688d	-0.12275801
202	0x3c8d8c2f	0.017278759
203	0xbc5e56cd	-0.0135705
204	0xbd686289	-0.056734595
205	0xbecb67e4	-0.397277
206	0xbda011e4	-0.07815912
207	0x3d8c0dcd	0.0683857
208	0x3df97ebf	0.12182378
209	0x3e90b203	0.28260812
210	0xbd82bb61	-0.06383396
211	0xbd2dd6e1	-0.042441253
212	0x3c8676c4	0.016414054
213	0x3c3eb0c2	0.011638822
214	0xbeadd357	-0.33950302
215	0x3dea1901	0.1143055
216	0x3e32f90b	0.17477815
217	0xbc5e50f0	-0.013569102
218	0xbe2f23b0	-0.17103457
219	0xbecd3869	-0.400821
220	0xbe61dbe7	-0.22056542
221	0x3d4bd96a	0.04976789
222	0xbcb05478	-0.021524653
223	0xbcdc3b46	-0.026883733
224	0xbdcc5a9b	-0.09978219
225	0x3d27fe11	0.04101378
226	0x3e8e3fec	0.27783144
227	0x3e0b6084	0.13611037
228	0xbdda3124	-0.10653904
229	0xbe2ce241	-0.16883184
230	0x3b80b568	0.0039278753
231	0x3e0bca4b	0.13651387
232	0x3c8ff70f	0.017573861
233	0x3d54411b	0.051819902
234	0x3e84ad95	0.25913683
235	0x3e2470f1	0.16058709
236	0xbd191225	-0.03737082
237	0x3e05b3e3	0.13056903
238	0xbd8c9b51	-0.06865562
239	0xbea3c79f	-0.31988236
240	0xbe3437ba	-0.17599383
241	0x3c36c397	0.011155031
242	0x3de76341	0.11298228
243	0xbd552248	-0.052034646
244	0xbdd22de6	-0.10262661
245	0xbecbb147	-0.3978369
246	0xbf1734a3	-0.5906469
247	0x3e3c8c2e	0.1841285
248	0x3db334e3	0.08750322
249	0x3cf33361	0.029687585
250	0xbe18dbba	-0.14927569
251	0x3d8eb5d5	0.069682755
252	0xbd897774	-0.06712237
253	0xbdce4ec0	-0.10073614
254	0xbd8bdc60	-0.068291426
255	0x3e5f9106	0.21832666

fc1.bias f4 [64]
0	0xbcb8ce4f	-0.022559313
1	0x3e6e29d3	0.23258142
2	0x3df1ff8d	0.118163206
3	0xbd2c9fbe	-0.04214453
4	0xbe5d4f9d	-0.21612401
5	0xbd680aa1	-0.05665076
6	0xbd186b8b	-0.037211936
7	0xba620cd2	-0.0008623126
8	0xbe500909	-0.20315947
9	0x3e14c8b9	0.14529695
10	0xbcbe5834	-0.023235418
11	0x3d34cd94	0.044141367
12	0xbe22de57	-0.15905128
13	0xbdbb71a8	-0.091525376
14	0xbe468ddd	-0.19390054
15	0xbdb53ec9	-0.08849866
16	0xbd6926db	-0.05692182
17	0xbca37c83	-0.019956833
18	0x3df6228b	0.12018307
19	0xbd928eba	-0.07156129
20	0xbc3679d6	-0.011137446
21	0xbd3ec816	-0.046577536
22	0x3a857917	0.0010183182
23	0x3cf69879	0.030102002
24	0xbde96ab6	-0.113973066
25	0xbe532158	-0.20618188
26	0xbd343b7f	-0.044002052
27	0xbd3d40f6	-0.04620453
28	0x3daa106b	0.08303913
29	0x3e42638c	0.18983287
30	0x3d0f8dda	0.03504739
31	0xbe32ff41	-0.17480184
32	0xbe2bc044	-0.16772562
33	0xbb0c46a1	-0.0021404403
34	0x3ca7ce81	0.02048421
35	0x3e2ee894	0.17080909
36	0x3dbad326	0.091223046
37	0xbd190a04	-0.037363067
38	0x3e30e48d	0.17274685
39	0xbe858c46	-0.26083583
40	0xbe037fd0	-0.12841725
41	0xbd801927	-0.062547974
42	0xbe5bc3fe	-0.21461484
43	0x3dee849f	0.11646389
44	0x3d8edb63	0.069754384
45	0xbd68f49c	-0.056873903
46	0xbdfc6307	-0.123235755
47	0x3dc55460	0.09635234
48	0xbe2e031d	-0.16993375
49	0x3e1cfb91	0.1533034
50	0x3dd161e0	0.10223746
51	0x3e0c4669	0.13698734
52	0xbe2bc11a	-0.16772881
53	0xbded0ec3	-0.11575081
54	0xbdb5c3e7	-0.08875256
55	0x3e674903	0.22586446
56	0x3dc7b760	0.09751773
57	0x3d9c1fcf	0.076232545
58	0x3ca72f03	0.02040816
59	0x3d173757	0.03691801
60	0x3da324cb	0.07966002
61	0xbd6a3ec6	-0.05718877
62	0x39a63ac0	0.0003170576
63	0xbe61496a	-0.22000661

fc2.weight f4 [32, 64]
0	0xbda6de46	-0.08147864
1	0xbee2fdd6	-0.44334286
2	0xbd9947e7	-0.074844174
3	0xbdd80455	-0.10547701
4	0xbe4f48a6	-0.20242557
5	0x3c6920f8	0.014229052
6	0xbd6010c3	-0.054703485
7	0xbd7b3480	-0.061329365
8	0xbeb65d55	-0.35618082
9	0x3e82119e	0.25404066
10	0xbec2f86b	-0.38080153
11	0xbce4db5a	-0.027936626
12	0xbedcd6e2	-0.43132693
13	0xbe833aa8	-0.2563069
14	0xbf1208e3	-0.5704481
15	0x3e779240	0.24176884
16	0xbe400d5f	-0.187551
17	0xbf0542b1	-0.5205489
18	0xbed6dd7c	-0.41965854
19	0x3e9ef0a6	0.31042975
20	0x3d26ec1c	0.040752515
21	0x3e02c12d	0.12769003
22	0x3df814a5	0.12113313
23	0x3cea0f8d	0.028571868
24	0x3de131a3	0.109957956
25	0xbdd97e5c	-0.10619804
26	0xbebb90b6	-0.36633843
27	0xbe4a963b	-0.19783871
28	0x3e89dcb8	0.26926208
29	0xbd29e43c	-0.041477427
30	0x3e3a255e	0.18178317
31	0xbd809ac2	-0.06279518
32	0xbca7b4cc	-0.020471953
33	0xbe90bad0	-0.28267527
34	0x3e4b364d	0.19844933
35	0x3dce3f50	0.1007067
36	0x3ec2b6b8	0.38030028
37	0xbdc134a9	-0.09433872
38	0xbf0743db	-0.52837914
39	0xbe68b523	-0.22725348
40	0xbe52558c	-0.20540446
41	0xbf057e44	-0.5214579
42	0xbeeb4191	-0.4594846
43	0xbe9a2b70	-0.30111265
44	0x3de73fa8	0.11291438
45	0x3e9de3fb	0.30837998
46	0xbdebfe70	-0.115231395
47	0xbd92d92f	-0.07170331
48	0xbe976466	-0.29568785
49	0xbe6a13a3	-0.22859053
50	0xbe8fbcb9	-0.2807367
51	0xbf5b8a91	-0.8575831
52	0xbdd96020	-0.106140375
53	0xbe8038e3	-0.250434
54	0xbd40978f	-0.047019538
55	0x3e6c0d27	0.23051892
56	0x3e01561b	0.12630503
57	0x3df51fbf	0.11968946
58	0xbe8ec6e3	-0.27886114
59	0x3e5e5e01	0.21715547
60	0x3e383b2b	0.17991321
61	0xbdd3baaa	-0.10338338
62	0xbd864cea	-0.06557639
63	0xbe9c91a8	-0.30579877
64	0x3d876617	0.06611269
65	0x3eb1b809	0.3471072
66	0x3e2de4d6	0.16981825
67	0xbe61272e	-0.21987602
68	0xbe28a410	-0.16468835
69	0xbe845509	-0.25846127
70	0xbd8fddea	-0.070247486
71	0xbdbc1ea6	-0.09185533
72	0xbec2f7c1	-0.38079646
73	0xbe9d6e90	-0.30748415
74	0xbf493012	-0.78588974
75	0x3d882382	0.066473976
76	0xbdd50a17	-0.10402315
77	0xbd75040a	-0.059818305
78	0x3c940514	0.018068828
79	0x3d917cf0	0.07103908
80	0xbdd567f3	-0.10420217
81	0xbe8f3774	-0.27971995
82	0x3d4b9673	0.049704026
83	0xbec0535e	-0.37563604
84	0xbe15239c	-0.14564365
85	0x3d4c617d	0.04989766
86	0xbc169cec	-0.0091926865
87	0xbec7b15c	-0.39002502
88	0xbed0fc07	-0.40817282
89	0xbdbefd1e	-0.09325622
90	0xbe10c504	-0.14137655
91	0xbe1676ac	-0.14693707
92	0x3ea190b9	0.31555727
93	0x3e296f77	0.16546427
94	0x3e954ef8	0.2916181
95	0xbdddd848	-0.10832268
96	0x3e01cd51	0.12675978
97	0x3e5caf10	0.21551156
98	0xbe87894b	-0.26471934
99	0x3d069625	0.032858033
100	0x3e4ae1f1	0.19812752
101	0xbe25da97	-0.16196667
102	0xbe2fb7dd	-0.17159982
103	0x3ea9b0ab	0.331426
104	0x3d43d5fe	0.0478115
105	0x3cde9011	0.027168306
106	0x3c98819b	0.018616488
107	0xbe240ddb	-0.1602091
108	0xbdda3754	-0.10655084
109	0x3d52a6d2	0.051428623
110	0x3cc913ef	0.024545638
111	0x3d83a7bf	0.064284794
112	0xbcf64224	-0.030060835
113	0xbd8259c9	-0.063647814
114	0x3d30898b	0.04309992
115	0xbe4d15e4	-0.20027882
116	0xbe65ca90	-0.22440553
117	0x3d83e2eb	0.064397655
118	0xbdecf54a	-0.11570223
119	0x3dcd8aed	0.100362636
120	0x3e4ec47e	0.20192143
121	0x3db717af	0.08940064
122	0xbddbc8e5	-0.10731677
123	0xbf1d4ddf	-0.61446947
124	0xbd2b49f7	-0.041818585
125	0xbebc939a	-0.3683136
126	0x3d12b0f8	0.0358133
127	0xbd9cf202	-0.07663347
128	0xbf14a2ce	-0.5806092
129	0x3d33f191	0.043931548
130	0xbe3ec547	-0.18629943
131	0xbe915f86	-0.2839319
132	0xbccfb5f5	-0.025355319
133	0x3ca8adb8	0.020590648
134	0xbe599406	-0.21247873
135	0x3ecaaafd	0.3958358
136	0xbe8b1168	-0.27161717
137	0x3ee3c911	0.4448934
138	0xbeea582f	-0.45770404
139	0x3ea8f0c8	0.32996202
140	0x3ecf79e9	0.40522698
141	0x3c6d2124	0.014473233
142	0x3e89e8c2	0.26935393
143	0x3e5864c7	0.21132194
144	0xbebce269	-0.36891487
145	0xbed5d187	-0.4176142
146	0xbeeb4926	-0.45954245
147	0x3e85dc24	0.26144516
148	0x3e9aa586	0.3020441
149	0xbe067b37	-0.1313294
150	0x3f03ca6c	0.51480746
151	0x3ddce0f2	0.107850924
152	0x3deb43ee	0.11487566
153	0x3d4d65c6	0.050145887
154	0xbe7212f9	-0.2364005
155	0xbf0f70a1	-0.56031233
156	0xbe17d945	-0.14828975
157	0xbde3e548	-0.11127716
158	0x3e97e3a7	0.29665872
159	0x3cfc1d7e	0.030775782
160	0x3ea11c59	0.3146694
161	0x3ea2363d	0.31682006
162	0x3dc70464	0.09717634
163	0x3e42b982	0.19016078
164	0x3e41ee86	0.18938646
165	0x3e108b48	0.14115632
166	0xbd7a7d1a	-0.061154462
167	0xbe10e0dc	-0.14148277
168	0x3caa32c8	0.020776168
169	0xbeb4827b	-0.352558
170	0xbc8cf185	-0.01720501
171	0x3e931d70	0.28733397
172	0xbefc4ea7	-0.49278757
173	0x3ee3f74c	0.4452461
174	0xbd45f9bf	-0.04833388
175	0xbd9baf81	-0.07601834
176	0xbdf07a7d	-0.11742113
177	0x3d5b583f	0.053550955
178	0xbefbb61a	-0.4916237
179	0xbc8bdfce	-0.017074492
180	0xbe96a37b	-0.294216
181	0xbe82b9b7	-0.25532314
182	0xbe29cc73	-0.16581897
183	0x3d09c64d	0.03363638
184	0xbe17a883	-0.14810376
185	0xbe6e1457	-0.23249947
186	0xbe354c89	-0.17704977
187	0x3e380240	0.17969608
188	0x3e9895f9	0.2980192
189	0xbec4be22	-0.3842631
190	0xbe0f3274	-0.1398409
191	0xbe855d0d	-0.26047555
192	0xbcf8ab61	-0.030355157
193	0x3d4f41e3	0.050599944
194	0xbe12faf0	-0.14353538
195	0x3e8a2c19	0.2698677
196	0xbddfc6c5	-0.10926584
197	0x3dc8a041	0.09796191
198	0x3d8957a5	0.0670617
199	0x3b62b74a	0.0034594112
200	0xbe61ec52	-0.22062805
201	0xbe7431a4	-0.23847061
202	0x3f078fe5	0.5295394
203	0xbd9edebd	-0.07757328
204	0xbf049528	-0.51790094
205	0x3da7358c	0.0816451
206	0xbea14fd6	-0.31506222
207	0xbe4056c3	-0.18783097
208	0xbe7cbcb4	-0.2468136
209	0xbe19f549	-0.15034975
210	0x3db5af1f	0.08871292
211	0xbd80b365	-0.06284217
212	0x3e7f9fa9	0.2496325
213	0xbe5ac2b1	-0.21363331
214	0xbd117f4f	-0.0355218
215	0xbd4be66d	-0.049780298
216	0x3d9f7e4f	0.07787763
217	0x3dbaac33	0.09114876
218	0xbe917160	-0.2840681
219	0x3eab0cc8	0.3340819
220	0xbd823ff1	-0.06359852
221	0xbdab438c	-0.08362493
222	0x3e365fdc	0.17810005
223	0xbd003830	-0.031303585
224	0xbdde1655	-0.10844103
225	0xbe4853f1	-0.19563271
226	0xbd6f1ef5	-0.058379132
227	0x3c130336	0.0089729335
228	0xbe2deeef	-0.16985677
229	0x3e2efb93	0.17088155
230	0xbc3ab607	-0.011395938
231	0xbf1f8ab6	-0.6232103
232	0x3de1c802	0.110244766
233	0xbe946467	-0.2898285
234	0x3d6add48	0.057339936
235	0x3e10db5a	0.14146176
236	0x3e1dda7e	0.1541538
237	0x3b3152f8	0.002705751
238	0x3dc49ae0	0.095998526
239	0xbcb1633f	-0.02165377
240	0xbefe5741	-0.49675944
241	0x3e87f77c	0.26556003
242	0x3dfb10ac	0.12259039
243	0xbe44e5e4	-0.19228321
244	0xbd3e1021	-0.0464021
245	0xbeafe827	-0.34356806
246	0xbe004246	-0.12525281
247	0xbe8a273b	-0.26983055
248	0x3e5f5d8d	0.2181303
249	0x3dd3f605	0.10349659
250	0x3b83949b	0.004015518
251	0x3e9b2760	0.30303478
252	0x3d99540c	0.07486734
253	0x3d71bd27	0.05901828
254	0x3e1360e4	0.1439243
255	0x3dc44da7	0.095851235

fc2.bias f4 [32]
0	0x3bcf0124	0.0063172746
1	0x3dfba647	0.12287574
2	0x3dbd0075	0.09228603
3	0x3e0e5947	0.13901244
4	0xbd59d5a7	-0.05318227
5	0x3e3b1c91	0.18272616
6	0x3dc96d27	0.09835272
7	0x3e18f367	0.149366
8	0xbd0ad623	-0.033895623
9	0x3ecf84b9	0.40530947
10	0xbd1ef0c8	-0.038803846
11	0x3ea19895	0.31561723
12	0xbe28bfe4	-0.1647945
13	0x3ea96a90	0.33089113
14	0x3f008874	0.5020821
15	0x3e9446ef	0.28960368
16	0xbe428487	-0.18995868
17	0xbe117e53	-0.14208345
18	0x3e6dd22c	0.23224705
19	0x3e289027	0.1646124
20	0xbe5eae6f	-0.21746229
21	0x3dc8a40a	0.09796913
22	0x3de48991	0.11159051
23	0x3e907e28	0.2822125
24	0xbce05c2d	-0.027387703
25	0x3db73b7c	0.089468926
26	0xbde74cee	-0.1129397
27	0xbd636fdc	-0.0555266
28	0xbd5bf00c	-0.053695723
29	0xbe58b999	-0.2116455
30	0x3bda5c8e	0.0066638654
31	0x3d0d28a5	0.03446259

fc2b.weight f4 [10, 32]
0	0x3d24ac3e	0.040203325
1	0xbda89c53	-0.082329415
2	0xbf43cc6d	-0.76483804
3	0x3dcb9579	0.09940619
4	0xbeb4d72c	-0.35320413
5	0xbe478991	-0.19486071
6	0x3effa325	0.49929157
7	0x3db0d089	0.08633525
8	0xbd9b6bb9	-0.07588906
9	0xbe1f429f	-0.15552758
10	0xbef34c25	-0.4751903
11	0xbe1d01b7	-0.15332685
12	0xbec1c9cf	-0.3784928
13	0x3eb31aaf	0.34981295
14	0xbd72c589	-0.059270415
15	0xbccec543	-0.025240546
16	0xbd22edf0	-0.039777696
17	0xbebf2248	-0.37330842
18	0x3e9a0d86	0.30088443
19	0x3f0c7b1c	0.5487535
20	0x3d8f700b	0.070037924
21	0x3e62692f	0.22110437
22	0x3e8ff637	0.28117535
23	0x3d16e9ac	0.03684394
24	0x3ec6f9a8	0.38862348
25	0xbeea46f0	-0.45757246
26	0x3d83adc7	0.0642963
27	0x3e59ca61	0.21268608
28	0xbebc4b6e	-0.36776298
29	0x3e7d24f2	0.24721125
30	0x3e1d6e70	0.1537416
31	0x3e519aab	0.20469157
32	0xbe7ee238	-0.24890983
33	0xbdf6e1a9	-0.1205476
34	0x3e54d1cb	0.20783155
35	0xbe9a6dfb	-0.30162033
36	0xbda7c974	-0.08192721
37	0x3d0315ec	0.03200333
38	0x3ea608ae	0.32428497
39	0xbe85044e	-0.25979847
40	0x3da3f3d3	0.0800549
41	0x3ecbd2e2	0.39809328
42	0xbdd0cc62	-0.10195233
43	0x3eb88b8e	0.36043972
44	0xbe73e4b7	-0.23817717
45	0x3d27a7f5	0.04093166
46	0xbe1c5130	-0.15265346
47	0xbe92e5ba	-0.28690892
48	0xbf51fcda	-0.82026446
49	0x3da93e24	0.082638055
50	0x3e56c1c9	0.2097236
51	0x3e134851	0.14383055
52	0xbe835632	-0.256517
53	0xbe6ec1f2	-0.23316172
54	0x3e0b7c52	0.13621643
55	0xbe3e0baa	-0.18559137
56	0x3deacacf	0.11464464
57	0xbcc96ac7	-0.024587048
58	0x3e03dda9	0.12877525
59	0x3dcbacc9	0.099450655
60	0x3c5cd9a9	0.013479629
61	0xbf178c1b	-0.5919816
62	0x3e955de9	0.2917321
63	0xbe93c4f0	-0.2886119
64	0xbed0b268	-0.40761113
65	0xbd5ee838	-0.05442068
66	0x3def11ed	0.11673341
67	0x3e7a5f2d	0.24450369
68	0xbdd0ce8f	-0.10195648
69	0xbd39878e	-0.04529529
70	0x3ec24f0a	0.37950927
71	0x3d25780c	0.04039769
72	0x3e93f692	0.28899056
73	0x3d8ba391	0.06818307
74	0xbee7937f	-0.45229718
75	0x3d6a875c	0.057257995
76	0xbe59f60d	-0.21285267
77	0x3eb2f125	0.34949604
78	0x3ea1ba3e	0.31587404
79	0x3e52711e	0.20550963
80	0xbcef5a1f	-0.029217778
81	0xbf13bd29	-0.5771051
82	0x3e66774c	0.22506446
83	0x3ef4790d	0.47748604
84	0xbda313b5	-0.07962743
85	0x3e2cbcc0	0.16868877
86	0x3e1538c8	0.14572442
87	0x3e164438	0.14674461
88	0xbf6f4d6b	-0.93477505
89	0xbd7105c1	-0.058843378
90	0xbf19c23f	-0.6006202
91	0x3e82324e	0.25429004
92	0xbe650287	-0.22364245
93	0xbe07d854	-0.13266116
94	0x3e2b8629	0.16750397
95	0x3dd01275	0.101597704
96	0xbe30e01b	-0.1727299
97	0xbf1690ad	-0.5881451
98	0xbea2b29f	-0.31776902
99	0xbeb9b622	-0.3627177
100	0xbe3cef83	-0.18450741
101	0x3e4489c3	0.19193177
102	0x3e83dc90	0.25754213
103	0xbd9234b7	-0.07138961
104	0xbe66636c	-0.22498864
105	0xbf0392f8	-0.5139613
106	0xbe8e139e	-0.27749342
107	0xbd3f27b8	-0.046668738
108	0xbcd5b9b5	-0.026089529
109	0x3c3c0039	0.011474662
110	0x3dcdb947	0.100451045
111	0xbd3aff10	-0.045653403
112	0xbe947cec	-0.29001558
113	0x3b56747c	0.0032723239
114	0x3e075f90	0.13220048
115	0x3eb0540d	0.34439126
116	0xbf5ab7f2	-0.8543693
117	0xbe077ade	-0.13230464
118	0x3e188819	0.14895667
119	0x3e1bfe92	0.1523383
120	0xbf4181a9	-0.7558847
121	0xbc64fefe	-0.0139768105
122	0xbe8edc23	-0.27902326
123	0xbefd4e57	-0.4947383
124	0x3d6849a3	0.05671085
125	0xbe25880c	-0.16165179
126	0x3ea934af	0.33048007
127	0x3f252f14	0.6452496
128	0xbe83511b	-0.25647816
129	0xbd187fc0	-0.037231207
130	0x3f104c29	0.5636621
131	0xbe81779a	-0.2528656
132	0xba62ab37	-0.0008646729
133	0xbe34f728	-0.17672408
134	0xbf10ec34	-0.5661042
135	0x3e7fed9d	0.24992986
136	0x3ec7c8de	0.39020437
137	0x3d81de25	0.06341199
138	0x3e4045bb	0.187766
139	0xbdeb91dd	-0.115024306
140	0x3e282f12	0.16424206
141	0x3d220db6	0.039563857
142	0xbd99709b	-0.07492181
143	0x3e20d95a	0.15707913
144	0x3dc6092b	0.096697174
145	0x3f09f203	0.53884906
146	0xbdd90d4f	-0.105982415
147	0xbdabd5b2	-0.083903685
148	0x3d69f380	0.057116985
149	0xbe92afa5	-0.2864963
150	0xbe9ca9b7	-0.30598232
151	0x3c43d46c	0.011952501
152	0x3b5e9039	0.0033960475
153	0xbf27597b	-0.6537091
154	0x3dc7d9fc	0.09758374
155	0x3c8f6519	0.017504262
156	0xbe8b3c10	-0.27194262
157	0xbae9a726	-0.0017826303
158	0xbe0e4134	-0.1389206
159	0x3d39c76a	0.04535619
160	0x3d72f03a	0.05931113
161	0x3df26ad2	0.118367806
162	0xbf5328ee	-0.8248433
163	0x3eaa2838	0.3323381
164	0x3e7efcc2	0.24901107
165	0x3ea1aead	0.3157858
166	0xbe5f1fce	-0.21789476
167	0x3defad5a	0.11702986
168	0xbf107bb4	-0.56438756
169	0x3d968927	0.073503785
170	0xbf1e8c37	-0.619327
171	0x3d64c45a	0.055851318
172	0x3e3da11f	0.18518494
173	0xbe36ef29	-0.1786467
174	0x3e701915	0.23447068
175	0x3e2cbb2a	0.16868272
176	0xbe75133c	-0.23933119
177	0xbf0b76e4	-0.5447829
178	0xbea987b6	-0.33111352
179	0xbed25bde	-0.41085714
180	0x3ddce006	0.107849166
181	0x3c84b21f	0.016198216
182	0xbccd4b06	-0.025060188
183	0xbc02aa2d	-0.007975143
184	0x3f48c608	0.7842717
185	0x3d4ff9ba	0.050775267
186	0x3ef46244	0.4773122
187	0xbd4d058a	-0.05005411
188	0x3e9f6e44	0.31138813
189	0xbda895b8	-0.082316816
190	0xbc026c9f	-0.007960468
191	0xbd978a1e	-0.07399391
192	0xbccc8c3f	-0.024969218
193	0x3e0c10c1	0.13678266
194	0x3eb15ef4	0.34642756
195	0xbcdb3d5b	-0.026762655
196	0x3d99d3a3	0.075110696
197	0xbe0873c3	-0.1332541
198	0x3e29bac8	0.16575158
199	0x3e0eb02a	0.13934389
200	0xbef492ee	-0.47768348
201	0x3d643104	0.055710807
202	0xbdb6558b	-0.08903035
203	0xbd1e3f16	-0.038634382
204	0x3be9419e	0.007118418
205	0xbcda5140	-0.026650071
206	0xbcb3fa4b	-0.021969935
207	0x3e56c499	0.20973434
208	0x3e439adc	0.19102043
209	0x3f481fcd	0.78173524
210	0xbd50db02	-0.050990112
211	0x3c8ab4e5	0.01693196
212	0x3da1f6e9	0.079084225
213	0x3e69dfc8	0.22839272
214	0x3e165926	0.14682445
215	0x3da91b1b	0.08257123
216	0x3e432622	0.19057515
217	0xbcbc875c	-0.023013763
218	0x3e8f3bc4	0.27975285
219	0x3e2e1030	0.16998363
220	0x3dc10685	0.094250716
221	0x3eb560d8	0.35425448
222	0xbdeb96fa	-0.11503406
223	0x3d3de887	0.046364333
224	0x3e32d38b	0.1746351
225	0xbe01a131	-0.12659146
226	0xbd1eae5b	-0.038740497
227	0x3d6f027e	0.058351986
228	0x3d199ef5	0.03750511
229	0xbc00903c	-0.007846888
230	0xbef57a3b	-0.47944817
231	0xbe5d708e	-0.21624967
232	0xbe92f7c9	-0.2870467
233	0xbdb10d6d	-0.08645139
234	0xbecc9ec4	-0.3996488
235	0x3e37fac8	0.17966759
236	0xbcda1164	-0.02661962
237	0x3cd3d00d	0.025856042
238	0xba0a2e94	-0.0005271223
239	0x3e1ab7f0	0.15109229
240	0xbe134371	-0.14381196
241	0x3e19ee08	0.15032208
242	0x3e5cd009	0.21563734
243	0xbf500725	-0.812609
244	0xbcf49077	-0.029854042
245	0x3e74fbe0	0.23924208
246	0xbc4c9b21	-0.0124881575
247	0xbd49d500	-0.0492754
248	0x3e6ae79c	0.22939914
249	0xbdbc3fcf	-0.09191858
250	0xbcb532ac	-0.022118889
251	0xbe5bffb2	-0.21484259
252	0x3e10d00a	0.1414186
253	0xbdc49858	-0.0959937
254	0xbefda265	-0.4953796
255	0x3ec04917	0.37555763

fc2b.bias f4 [10]
0	0x3e89f1ac	0.26942194
1	0x3db4b8b5	0.088242926
2	0x3f3bebe5	0.7340682
3	0x3da89363	0.08231237
4	0x3cfbfbf0	0.030759782
5	0x3ecbcd80	0.39805222
6	0xbee04af7	-0.43807194
7	0xbdedef19	-0.1161787
8	0x3ddb1f41	0.106993206
9	0x3ef606ac	0.48051965

fc3.weight f4 [2, 10]
0	0x3f0d3259	0.5515495
1	0xbf0c0151	-0.5468951
2	0x3e66977c	0.22518724
3	0x3dca573f	0.09879922
4	0xbe54c921	-0.2077985
5	0x3ec868d9	0.39142492
6	0xbececfb8	-0.40392852
7	0xbdb46e07	-0.088100486
8	0x3ebad808	0.36492944
9	0x3ecf306b	0.40466627
10	0x3d6c62dd	0.05771147
11	0xbc586d89	-0.013209709
12	0x3f076713	0.52891654
13	0x3efb57fd	0.49090567
14	0x3d0fcdc6	0.03510835
15	0xbcc5ae06	-0.024130832
16	0xbea6e635	-0.3259751
17	0x3eb385c2	0.35062987
18	0xbef1d6c9	-0.4723418
19	0x3e9b0e29	0.3028424

fc3.bias f4 [2]
0	0x3eea521d	0.45765772
1	0x3f0f2fab	0.5593211
